enemy_1_runs/enemy_1_run_9/best_weights_enemy_1_run_9.npy (npy, 2248 bytes, 1 tensors)

array f8 [265]
0	0x4024be34fbb5bf72	10.371497980056777
1	0x40133e49217191b7	4.810825846249307
2	0xbfe396ff4e86af9c	-0.6121822866166329
3	0xc01959a6f1e45886	-6.337550906717416
4	0xc0218a6c47b419e7	-8.770357361540801
5	0xbf61838b0d269400	-0.0021379199835842577
6	0xc01599a4114fc18c	-5.4000399308137155
7	0xc019371b06b96217	-6.303814034523859
8	0x40149e6a0b6aa952	5.15470140303144
9	0x4016adb229a6af59	5.669624949263231
10	0x400c4a5d33076973	3.536310576118177
11	0x40164fed8e092222	5.5780546372484725
12	0xc000bedfbef23581	-2.0932001989046403
13	0xbfe2d8f8e1b822fb	-0.5889858635501634
14	0xc00a1c09fe790c77	-3.2636909371081475
15	0xc013e4796ab34c4f	-4.973119418328749
16	0xc022509ef57919fe	-9.157462760002996
17	0xc003a733abd0f04e	-2.4566415236604717
18	0x4027236b1507050e	11.56917634688082
19	0xc004c74fee82dbfa	-2.5973204263386807
20	0xbfbac047872cdfe0	-0.10449645090272908
21	0x401189dc33d76cb6	4.3846290683970235
22	0x4010cc390fa043a5	4.199436420590165
23	0x3fecdd20e1495d50	0.9019932174805181
24	0x400dc592388b1926	3.7214703004311955
25	0x401b0a2572a2b8cf	6.759908477002866
26	0xc018f87bcf45ce98	-6.242659796367342
27	0xbff1b8442f696840	-1.1074869014760367
28	0x3ffdafb2e2a1feed	1.855395207676277
29	0xc02192bc9c91311e	-8.786595242236725
30	0xc00d1aa2a183d537	-3.6380055063588332
31	0x3ff795acc5e52c76	1.4740417223245266
32	0x40002ccfa6b090ed	2.0218804381021216
33	0x4019cb5749f6bb3a	6.4485751683085315
34	0x40050f3b1626679e	2.6324369173498345
35	0x40327d5a354beb02	18.489657717737835
36	0x400f876a7fe3ab89	3.9411211005548847
37	0x400e5e323f2f4c25	3.795994275694755
38	0xc012ffa48670871f	-4.7496510511571435
39	0xbff9cc6ca1166d98	-1.6124082844242817
40	0xc000cd93d024b1d5	-2.1003795872877427
41	0x4029d6a90cc54e8f	12.919258498273193
42	0xbfbfd9c5fe775920	-0.12441670858911325
43	0x40052c92faf6afd4	2.6467647177250715
44	0x4026ec1268318950	11.461077934309884
45	0x40137b80cec20107	4.870608549681726
46	0xbff0a5e939c19ed7	-1.0405056243998183
47	0xc01fde4bc8371ece	-7.967085960735586
48	0x400356a39e6ef1b2	2.4173042657477817
49	0x40209a2d18e907ca	8.301125315137956
50	0xc02306129969f98b	-9.511860651193976
51	0x40167a37ea2ae9de	5.619353922719226
52	0xc025c3de3a05ee8c	-10.882554829811191
53	0xc028bf5742886e20	-12.37371261516006
54	0xc009e0fb60970db3	-3.234854464158809
55	0x40222a1cb8aa4076	9.082250376494112
56	0xbfffe3aca9c83a26	-1.9930845863451707
57	0xbff09211c29894b4	-1.0356614686400407
58	0x402da7dab1706847	14.827840371104811
59	0xc0101971027b2020	-4.024845160260185
60	0x401736707fd40f71	5.803163525884757
61	0x4022e49e18a99e16	9.446518679337753
62	0xc00a1924555cfc91	-3.262276331806398
63	0x40142d461e9179f3	5.044212796811268
64	0xc0238b6e7b7bce2b	-9.77232728849693
65	0x40007a18dc1dccf1	2.059617728862229
66	0x4001ce7c1b180e9a	2.225822650596297
67	0xc01c2447d0ae139c	-7.035430203079979
68	0x3fde87d46d412388	0.4770403925836537
69	0xc0328251a81e6dc2	-18.50905848257913
70	0x4003030c251878ac	2.3764880083172866
71	0xc025bef4f9b278b6	-10.87296276382072
72	0x401642a9bfcf58d9	5.565100667028866
73	0x3fff05ea8bf13fef	1.9389443842410363
74	0x401881ece9fee123	6.126880317861182
75	0x401ee9862ff07cb6	7.7280509462863645
76	0xbfdef5ce9a79a8f8	-0.48375287137481804
77	0xc021899b73abb800	-8.768764128410112
78	0x4007bcc17c538c9b	2.9671659195897298
79	0x400c9b58d4dbcfee	3.575853026350152
80	0xc00ec031c4f41521	-3.8438449275005415
81	0xc021f4e93d8f3b88	-8.97834198354191
82	0x4000b46b1dfedc30	2.0880949347879536
83	0x4009c53b2f5a80ae	3.221304292630598
84	0x400b5f6d5c4b3684	3.4215953073933765
85	0xc0113dfc4a4fab88	-4.310532723534273
86	0xc01889c84c059e87	-6.134553134768459
87	0xbfdb4e8e05fd7b4c	-0.4266696032045061
88	0xc020a6488b93230e	-8.324772226058055
89	0x401475fbc2852e40	5.115218200091078
90	0xc0141926e9bd9e82	-5.02456250400394
91	0x3ff2d49842bcc5ea	1.1769030196122636
92	0xc0232fee28496e3f	-9.593613871539786
93	0x4027ca84f288f4b7	11.89554555818391
94	0x4001c73cf4df1066	2.222284234101653
95	0x3ff1d8dfd746f55a	1.1154478463425535
96	0x4023f6a38910869b	9.981716426150617
97	0xc010e0a589bb0e91	-4.219381477396056
98	0xbff5bad139156aab	-1.3581096868353295
99	0xc017e5c353f3e4cc	-5.97437792945966
100	0xc0021db9cf2bab98	-2.2645145592882265
101	0x3ff6a77879b9d59a	1.415886378757341
102	0xc01c477eea58e064	-7.069820081400483
103	0x3fd225634c565458	0.2835319753151615
104	0xc0220f1dc31a4036	-9.02952394195027
105	0x401bd5e103d63ab8	6.95886617655804
106	0xc01fd8ea2fde0e20	-7.961830852440045
107	0xc01208798f582e7c	-4.508276214368035
108	0xc023389f2f68c00c	-9.610589486634147
109	0xbff529a0899a9de0	-1.322662866130365
110	0x3ffdddbbb6bba070	1.8666340959553303
111	0x401a64d24c33185c	6.598458471888161
112	0xc008c77342f97e4a	-3.097387812842304
113	0xc011b85d782c7077	-4.430044057571755
114	0x3fe76040008fe22a	0.7304992686250149
115	0xbff8699c03374d9e	-1.5257835507989976
116	0x4026027b44dff5c8	11.004846718157651
117	0xc00c16604279c914	-3.510925788251493
118	0x3ff81c145ab086b0	1.5068553488312482
119	0x3fe64ff09ab673d0	0.6972582837803376
120	0xc00d29be7c228b6a	-3.645382852367608
121	0x3ff916dae32b3e12	1.568079841021135
122	0xc0210cc56c44a613	-8.524943717365238
123	0xc0203469a206ea4e	-8.10236841520705
124	0xc02263f9e6627bd6	-9.195265960237446
125	0xc0061d243bb76c63	-2.7642292657233596
126	0x402fbbf20e109e2a	15.867081107643646
127	0x4022ad6cd9fdff87	9.33872109628261
128	0x402e926971572009	15.285960714230912
129	0xc016fa60d3551c63	-5.7445099850366175
130	0xc024c54852c3df75	-10.38531740799929
131	0x3ff98f356c2f3b66	1.5974630571324382
132	0x40111e2e70b66c82	4.279474030622739
133	0x4016623d0f0fee20	5.595936045977879
134	0x401208bc1673caed	4.508529997651505
135	0x401c457c374cb686	7.067856658990086
136	0x3ff658d506ebb450	1.396687533411086
137	0xc00eb0db7910227e	-3.8363561113404208
138	0x4013d595795af288	4.958578010726917
139	0xc01c0da5f3f780f5	-7.013328372937612
140	0xc011fa4875c54262	-4.494417038120988
141	0x400bb38b033e1fba	3.462667489369747
142	0xbfe74f1ceb06baaf	-0.7284073438985014
143	0xc027c26a70015a83	-11.879718303837995
144	0x3fd0081cb99d13a8	0.25049512983633315
145	0x40164c699cd4f796	5.5746216301903555
146	0x40108e9a4bbd971a	4.1392604670016
147	0x400775f43478adb8	2.9325946902588065
148	0x3ffc82564540ab90	1.7818205552273163
149	0xc0090a4774f43926	-3.1300191056281106
150	0xc010fb08ca0db1e2	-4.245150715909832
151	0xc00b8f344275c1db	-3.4449238960444126
152	0xc0000afbf759991c	-2.005363399907891
153	0xc0128eeb6cf421c0	-4.639569952393174
154	0xc000c9e65ed8ed5d	-2.0985839281035354
155	0xc00deae4ecf28ca1	-3.7396944533844168
156	0xc00389698eb91697	-2.442095866225667
157	0xc013d9b8b9fc586b	-4.96261873820013
158	0x3ff2bfc32e93b576	1.1718169993794993
159	0xbf921d1302231c48	-0.017689034467164327
160	0xc00667ee7a5a59c3	-2.8007478293249917
161	0x40055959ecd2f198	2.6686285497546116
162	0x3fee78a666902704	0.9522277835069137
163	0x40254c2b92507f0d	10.648769924474914
164	0xc00e6304d35c39f3	-3.7983490479011777
165	0xc0074827a255f298	-2.9102318460921417
166	0xbff8ef693b91d05e	-1.5584499670922223
167	0x40190f61b5fb8bf8	6.26502117488689
168	0x4012744046c339be	4.6135264450699065
169	0x401b0a1e89004e39	6.759882107394838
170	0x401087885d1264f4	4.132356123206808
171	0xc021dc5a575d5f9f	-8.930376749179969
172	0x403024541cecffd8	16.141908462392024
173	0xc024bf0ecfba2eec	-10.37315987727876
174	0xc01023df9bff8321	-4.035032689542988
175	0xc0076006571ae248	-2.9218870930747336
176	0xc029c9e6eb35a520	-12.89433989553305
177	0x40222bcbbaae5f31	9.085538705621362
178	0x401a409a4f1889ee	6.563088641998986
179	0xbffba00ffa29132e	-1.7265777370350395
180	0xc021d5ceb9487972	-8.91759280214021
181	0xbfbec8f88c56e424	-0.12025407243972147
182	0x4014905d7876ae9d	5.140981561893253
183	0x4008492bc3ffb203	3.0357280075461417
184	0xbfd1a7e8c524ac10	-0.27587336780806115
185	0xbfec76fc80f16fc4	-0.8895247000141286
186	0xc023f90d65e4239f	-9.98643034372236
187	0x401575fe0abdb52b	5.365226905659521
188	0x40013a40bdfac4a9	2.153443798270548
189	0xc01ec45bba1ab51c	-7.691756160621733
190	0x4023f9a316fa58db	9.987572401103924
191	0xc026154d8cdd94d6	-11.04160728649951
192	0x4004e099f670374d	2.609668660449563
193	0xbff244d8f6179aec	-1.1418084729172575
194	0x4006c418befeda27	2.845750324394675
195	0x401790c1ee73af8f	5.891364789782428
196	0x4009c748cc098dd8	3.2223068180480645
197	0x401b26f7231c443f	6.788052128410583
198	0xc028ddfaa42087bf	-12.433552865000705
199	0xc02f7714c6093813	-15.732580364823695
200	0xc0134b203ff16136	-4.823365210635805
201	0xc0102d05a0805add	-4.04396677764336
202	0x400648f4d031eae3	2.7856231942399616
203	0xc0041f083a7b8422	-2.51515241326753
204	0x4007468b96770776	2.9094459300112545
205	0xc012ab7f2b644839	-4.667477300639853
206	0x401356ca2d928da7	4.8347556229304365
207	0x3fbbcd41196ba9d0	0.10860068197840822
208	0xbfe703fa82027fdc	-0.7192356623891061
209	0x401ced80efb41b3c	7.231937165611097
210	0xbffc35c9ea7da698	-1.7631320152089867
211	0xc005dbaa08dae938	-2.732257908993372
212	0x40236f26ee649c50	9.71709389665753
213	0x4016f765c3ee8371	5.7415991415335705
214	0x40090479b0777955	3.127185228963905
215	0x4017d26a48753038	5.955483562615022
216	0xc00c71df8225b0f0	-3.555602089667552
217	0x400c5bd2a2c7f3fd	3.544835349776348
218	0xc023897327feefd5	-9.768456697340222
219	0xbfe7d162db8d179e	-0.7443098342998729
220	0xbfffea450f0b8968	-1.9946947658250682
221	0x3f77b310380df000	0.005786002497981002
222	0x3ffc24585e1cdf22	1.758873336437269
223	0xc02336154ed98df2	-9.605631317192977
224	0xc002a5e82ee768c8	-2.331009260594417
225	0x3fe3259a8190a62c	0.5983402758185483
226	0xbffc8c3db79b8458	-1.7842385456244951
227	0x402116de25d00e69	8.544663602492806
228	0x3ffc818763791c50	1.7816232572238455
229	0x4002f53ec5d7e55d	2.369748635913011
230	0xc00c873f08422e35	-3.566038193244618
231	0xc02a41f18b414964	-13.128795959205213
232	0x402289f3b36266da	9.269437413942274
233	0x4012b5bd9278d26e	4.677480972885503
234	0xc0214b25e8891199	-8.646773592693352
235	0xbfe1b353b5ca2228	-0.5531405020311171
236	0xc016300cf526a060	-5.546924429400036
237	0xc018725ae8f2eca2	-6.111674918963361
238	0x3fe32836f98cd8b8	0.5986590265299787
239	0x400802ff9affb634	3.00146409123297
240	0xc0219a67c576e8ba	-8.801572962537069
241	0xc026e70ea5038778	-11.451283604317481
242	0x4020ec10d56b7776	8.461065930717933
243	0x402c9b47ff1adfaa	14.303283664732437
244	0xc019f747c09c9d04	-6.491484651144905
245	0xc02b35f55fd275b0	-13.605387682381519
246	0xc019a4348e8aaf19	-6.410356738295172
247	0xc0163baa4e1d86b6	-5.558266850044381
248	0x40166b726a8214a4	5.604928650083057
249	0x401e636ec30338bc	7.597102210113174
250	0x40062863f951f074	2.7697219350939637
251	0xc028e92920add8e2	-12.455391904088575
252	0x40262fb155dc81d6	11.093149836699848
253	0xbff320d80b60639c	-1.195518536033183
254	0xc021e6ac87d75bf5	-8.950535054244009
255	0x4014adcb4afd2d9b	5.169720813467758
