enemy_7_experiment/best_weights_enemy_7.npy (npy, 2248 bytes, 1 tensors)

array f8 [265]
000000 43 bc ee fc db fd 08 c0 6a 52 ac 29 bc af 02 40
       -3.123954750095011 2.3358081107820015
000010 12 7d 82 00 4f 70 f8 bf e7 72 7a 18 be 84 07 40
       -1.5274190921698545 2.939815703617899
000020 26 cc 14 47 c2 fd fc bf 8a 07 f5 51 69 2d 09 c0
       -1.8119528557406368 -3.147173538484769
000030 38 58 00 a2 9c bd dd 3f 24 7e d6 7c 8a f5 fa bf
       0.4646979887051006 -1.6849465252379412
000040 30 98 5e 3e 79 eb b8 bf 06 1f da db 03 dc e6 3f
       -0.09734304211323841 0.7143573087678028
000050 d7 e4 21 4b ca 9e 17 40 e4 fc 9a 25 f0 34 d4 3f
       5.905068563407631 0.31573108360676216
000060 c6 cc d2 00 54 73 e3 bf c4 b3 26 0a 0d f3 14 40
       -0.6078281417925602 5.23735442982883
000070 6a 0f 92 03 0d 7d 1f 40 44 e7 14 dd 8f a3 e3 bf
       7.87211995676976 -0.6137160604477931
000080 e6 19 1a a2 ca 99 0c c0 38 cb 92 4d 25 0c 0e c0
       -3.5750935234275287 -3.7559305248663826
000090 96 29 0f 40 43 66 0c c0 6f fb dd 31 4f b1 e6 3f
       -3.549932957136842 0.7091442083327432
0000a0 5c e1 d1 0f d2 e9 d1 3f c0 12 a0 d0 b7 07 1b c0
       0.27989627404124007 -6.757537135858627
0000b0 70 07 d1 19 b9 29 18 40 b4 55 66 07 cc 91 fa bf
       6.040745166190263 -1.660594967751746
0000c0 4b 81 85 ed 95 44 13 c0 d6 1a 1e ac 3c ab 10 c0
       -4.816978179238798 -4.1672236340879945
0000d0 fe 73 5b 8d 1e 78 0f 40 e8 4d d6 7f a0 8a f8 3f
       3.933652023652484 1.5338444703710312
0000e0 f0 ab 77 94 78 55 13 c0 60 97 e1 6a af 49 be bf
       -4.833467788509537 -0.11831184729962052
0000f0 f5 2d 52 66 87 4c 0c 40 66 e1 d4 32 93 37 e6 3f
       3.5373676294163894 0.6942840569309225
000100 99 5e 93 ab 3e 2c 02 40 18 93 4c fe 30 6c 0e c0
       2.271603908953534 -3.8028278224104604
000110 fe c1 12 a4 d2 47 f5 bf 1f ce 88 cb 35 8e dd 3f
       -1.330034867202016 0.4618048179283693
000120 62 ea a7 8b 69 2e f2 bf 66 11 20 60 cb 43 1f 40
       -1.136331124812067 7.816205503422998
000130 ac ab a6 ff 89 8e ee 3f c1 ea 97 7b d3 f5 1a 40
       0.954899787252875 6.740064555308607
000140 54 8b 3c c3 66 64 00 40 42 99 56 02 86 df 0d 40
       2.049024129185833 3.734142320888311
000150 91 65 56 87 48 bb 04 40 93 30 4d 96 1e e4 f6 bf
       2.5914469311944193 -1.4306932326462956
000160 c0 d5 98 b3 ea 1b d7 3f 89 53 08 57 d9 ae e6 bf
       0.36107890642901097 -0.7088438701490399
000170 b2 f8 f1 9d 33 01 f7 bf b1 ed ae a2 94 23 02 40
       -1.4377933664068618 2.267373343432802
000180 5b 81 6b 55 85 20 09 c0 c0 43 38 61 fc 81 d5 3f
       -3.1408793137963307 0.33605870718116293
000190 ca 7d a6 9a 30 fe 14 c0 49 f9 0b 79 e3 06 13 40
       -5.248232284938647 4.7567271150167665
0001a0 b8 9d 3e 62 1e 97 ca bf 21 84 22 7a 57 1f ec bf
       -0.20773677632426568 -0.8788258920141098
0001b0 b6 17 6d 43 b9 2d f2 bf 43 55 0b 67 4d 6e fd 3f
       -1.1361630090554917 1.8394292855421817
0001c0 0b 9c 4d 43 a5 90 f5 bf 47 b7 42 51 1b d4 f7 bf
       -1.3478138569860245 -1.4892838644259017
0001d0 cd e2 49 a7 37 0b ed 3f 0e a5 03 00 85 8a 12 40
       0.9076193110805321 4.63527297994848
0001e0 1e a4 6a ed a5 38 f6 bf 0e f2 ec 8f fa ae dc bf
       -1.3888301157078398 -0.44817985587340636
0001f0 f0 97 fe b3 d5 ca 07 c0 e6 25 40 55 18 2e f1 bf
       -2.974040418822362 -1.073753674516746
000200 3b b8 62 d9 2c 2b 13 40 74 b5 69 94 d8 a2 d2 3f
       4.7921632734779065 0.29118933194589336
000210 3a 67 2f 57 a1 aa 0f c0 8c 2e 2b 3a 12 ac f9 3f
       -3.9583155452100103 1.6045095703329109
000220 3c e2 90 a1 8f 5a 20 c0 fd 53 9f af 5b 0e 13 c0
       -8.176877068458559 -4.764021629428496
000230 21 0c ba d2 6a 55 0d c0 89 06 9e a9 c9 d8 e5 3f
       -3.666707655241695 0.6827133477056161
000240 00 53 cb 31 87 7b c9 bf 15 15 a7 f0 f8 8a 0e 40
       -0.19908227855071203 3.817857627963017
000250 3a 27 d9 b3 e4 d1 14 c0 19 8d 0c 8b 60 cc f5 3f
       -5.204973993424398 1.36239675823237
000260 2e 89 87 6d bc c0 06 c0 37 f7 93 01 a0 2c 0b 40
       -2.8441093976008665 3.3967895625381987
000270 e9 c0 1b 45 55 53 fe 3f 00 cf f3 52 5c cf 95 3f
       1.8953449916407925 0.02129883056927806
000280 26 e8 6b 5c ba d6 11 40 98 66 be 9e 83 9b 15 40
       4.45969528587924 5.401869278308048
000290 4f c1 c1 71 09 85 e4 bf 24 18 a8 64 c3 4c 0b 40
       -0.6412398549855797 3.412482057933646
0002a0 d6 00 22 c6 41 64 13 c0 b7 47 3c 21 49 f8 f3 bf
       -4.8479071577314325 -1.248116617036869
0002b0 8c 29 37 85 43 b8 01 40 3a 55 0c 99 b0 05 ee bf
       2.214972534891052 -0.9381945599767854
0002c0 2e 9f e6 8c 6e f7 d2 bf 5c c9 82 a3 64 d8 ff bf
       -0.2963520408616088 -1.9903303515571542
0002d0 d2 14 b5 e5 b9 84 0a 40 8c f9 76 2e ae 70 ba 3f
       3.3148076959501873 0.10328186640160747
0002e0 81 57 84 33 d3 ad fa 3f e4 e8 db 0c 84 98 01 c0
       1.6674377453213938 -2.199470615826714
0002f0 b0 19 83 d6 58 27 0c c0 22 c4 f7 ce c2 cc 0a 40
       -3.5192124136694574 3.3499809426653124
000300 21 0f 18 01 2a 03 02 c0 c8 44 e3 2f 27 01 e1 bf
       -2.2515449605433706 -0.5313907561595892
000310 8b 85 1e f8 8a 4c 09 c0 01 ea b8 ec 5c 47 01 c0
       -3.162374437743613 -2.1598452085429476
000320 b0 70 45 ac 0a 71 cb 3f b8 3b 8c fc 27 6f f4 3f
       0.2143872586410729 1.2771377434871578
000330 d8 75 69 9c a7 8a d9 bf 56 c3 4f 54 ea b9 cd bf
       -0.39908781313519404 -0.23223618618751612
000340 48 f8 09 be bf a8 d2 3f 4e 27 12 db 47 04 f7 3f
       0.2915496211861677 1.438545089479209
000350 88 4c ed 4f 69 96 15 40 57 d4 85 38 6f b6 10 40
       5.396886109217242 4.178158648651411
000360 36 f5 a9 78 eb 08 e0 3f b2 2e 88 72 70 c5 e3 bf
       0.5010888439862018 -0.6178514706566232
000370 c0 b3 9c a0 c9 db bc bf 4c 53 da 21 4b 95 e2 bf
       -0.11272869273371011 -0.5807243024051814
000380 ce 53 02 9a 62 9b 08 c0 5c b8 0a 90 b5 21 f1 3f
       -3.0758716613731627 1.0707297922740713
000390 5b db e5 2a 18 5c 12 40 2a fe e2 17 91 92 11 40
       4.589935941962575 4.393131612042945
0003a0 e4 04 18 21 f0 17 11 40 c4 7f 71 6f 2f a0 df bf
       4.273376957980165 -0.4941519344629308
0003b0 62 65 ff 9d 92 33 ff bf 2b a6 a6 be cf 7f f5 3f
       -1.9500909969122735 1.3437039801887163
0003c0 c0 61 3f 85 01 af 00 40 80 25 f7 04 f0 d1 fe bf
       2.0854521188705064 -1.9262542909585534
0003d0 0a fc 9d 85 e8 55 05 40 c8 19 7d 3f 93 85 07 40
       2.666947406657987 2.940222259526511
0003e0 10 ee fa e8 08 22 0d c0 f7 26 ef 97 25 f1 01 c0
       -3.641618557126783 -2.2427474851473295
0003f0 2a f4 96 8c e8 61 f2 bf 0d 70 24 27 05 49 ee 3f
       -1.1489034168037144 0.946413589906571
000400 28 82 2c 16 2c ad 14 40 be 68 56 29 28 3e 09 c0
       5.169113489595965 -3.155350039433954
000410 48 b4 75 2b 64 e2 07 40 4c ed d8 47 bc 9e f3 3f
       2.9855426211638907 1.226253777173798
000420 da b5 7f e8 09 3f e3 bf fa 54 21 8f cf 38 15 c0
       -0.6014451542848136 -5.305479275140209
000430 ae 76 8a 11 81 a9 f5 3f 4f a9 20 a9 8e 13 e3 bf
       1.353882854956662 -0.5961373618386377
000440 de 0b 5b 8d fe 01 10 40 01 8e a1 54 0c 15 01 40
       4.0019476019687925 2.1352774249842246
000450 35 5b 63 85 88 ec d5 3f 2a b2 a1 8a 67 d1 1c c0
       0.34256184602911627 -7.204496542090547
000460 e6 fb e7 5f c8 42 f9 3f 43 e6 0c b5 c3 eb e2 3f
       1.5788043733916708 0.5912798439159775
000470 70 4c 1a 36 d3 66 0f c0 7e a3 c8 68 18 5b f3 3f
       -3.925207541158265 1.2097400754084613
000480 e6 20 5c 9d 7a 0e 06 40 3a 4a 4a 02 b2 bc fd 3f
       2.7570698064556494 1.858568200059962
000490 4a ef 3a de bc 9b fe 3f 5c 61 e3 c8 3f e2 06 40
       1.9130219155185437 2.8604732221976246
0004a0 8d b8 24 24 f8 98 04 c0 ac 11 78 6b a5 59 ea bf
       -2.574692041750558 -0.8234431361202517
0004b0 ec 0e 7d 7c e6 2e 0b 40 ea b9 db 79 58 cb 0b 40
       3.397900555197216 3.4742898483448146
0004c0 78 78 f7 79 6e 91 f5 3f 6c 6a 88 01 37 2d 00 40
       1.3480057491611017 2.022077571845605
0004d0 8b 35 cf b1 a6 1c 0b 40 cc 7c 63 b2 48 e0 04 c0
       3.3889898196563926 -2.6095136582003757
0004e0 99 92 30 bd b3 d2 14 c0 fc 41 db 6a 87 2b c9 bf
       -5.205763774957313 -0.19664089887238834
0004f0 02 21 b1 81 21 22 fb bf ca 39 21 9b 7d 23 05 40
       -1.6958327356424552 2.6423294181360903
000500 9c 90 ea 30 51 45 0e c0 d8 25 d0 33 e0 13 1f 40
       -3.783846265943863 7.769409951762519
000510 8c 7e 62 6b f4 a2 d3 3f 9a e0 d0 70 56 a2 f9 3f
       0.3068209694556365 1.6021332175132899
000520 40 9e 88 0e cd 9b a6 3f ea d2 9e e0 65 09 02 c0
       0.04415741732037448 -2.254588847014351
000530 c3 b7 63 85 28 3a f8 3f 28 af cc fa a6 68 13 40
       1.5141988001373512 4.852199476950581
000540 d5 25 44 2b 5f fe e7 bf 04 89 65 ab 9d 77 fd bf
       -0.7498012394946111 -1.8417030997448487
000550 61 96 0b 2a 48 ad 12 40 b6 d5 04 ce a7 79 ff 3f
       4.669220597226372 1.967201046715997
000560 20 91 bb 8c 32 1d fd bf 40 6d 6c 1e 7a 4d 02 c0
       -1.8196282861109196 -2.287830579456255
000570 c8 0a cd 46 3d 34 fe 3f 4e 9a 05 61 b0 74 02 c0
       1.8877537503873771 -2.3069770412287545
000580 08 21 f3 c6 7b 92 f6 bf c7 d0 a7 69 71 05 12 c0
       -1.41076257433639 -4.505315447681091
000590 25 e2 61 af 22 cd 12 40 b0 b5 79 c9 67 46 cc 3f
       4.700327625607803 0.22089860284488116
0005a0 2e ce dd 3f e1 6b 0d 40 4e 33 83 ad ab ce dc 3f
       3.677675723034347 0.4501141733606361
0005b0 cf 48 83 2d 08 a4 1f c0 75 75 54 0c 52 1b ae 3f
       -7.910187445772137 0.058802188878170826
0005c0 42 ef 41 62 1a 1f 14 40 aa 81 67 5d 61 33 e2 bf
       5.030374083780602 -0.5687720131209535
0005d0 70 ef 61 bd 4d d7 ec 3f 1c 05 f8 a6 1d a1 e8 bf
       0.901282186401188 -0.7696674595937654
0005e0 4d 90 32 b3 a8 70 02 c0 86 04 98 67 07 ee fb 3f
       -2.305009269695836 1.7456125303872638
0005f0 ee 96 de 81 9d 0b f7 bf 38 77 bf 94 08 4b 08 40
       -1.4403357575442288 3.036637460797376
000600 ce c6 b8 df ee a2 0a c0 98 fc eb 47 ae 31 0b c0
       -3.3295571783317888 -3.3992581957714485
000610 12 f1 37 2c 6a 83 11 c0 4d f6 08 82 39 39 01 c0
       -4.378334704317483 -2.1529417189583797
000620 ca 6f 11 90 01 38 18 c0 06 9f 82 7f 7b 26 0c 40
       -6.054693461479426 3.5187902414071486
000630 59 43 35 ac 7d 66 b3 bf 63 4c 08 7c 43 10 e3 3f
       -0.07578263716028512 0.5957353041179768
000640 9d e9 68 dd 62 68 01 c0 36 74 0c e2 56 a2 f8 bf
       -2.1759698197976847 -1.5396336393380472
000650 bc 43 82 45 5f 25 fb bf f2 e6 6b a8 0c 07 f5 bf
       -1.6966240611256884 -1.3142210558857497
000660 e8 42 b1 ed 9b f7 07 c0 97 48 40 b0 97 b1 db bf
       -2.9959028787346718 -0.4327143880083297
000670 0c 2d 36 40 aa 53 e4 bf 77 36 6e 77 43 d9 15 40
       -0.6352130178578661 5.4621714268702055
000680 74 b3 6b e7 63 08 11 c0 18 36 b9 fb 39 82 ff bf
       -4.258193603466555 -1.9692935784290793
000690 1b fb 4b 51 ee ea f1 3f be dc 88 e0 4d 47 0d c0
       1.1198561835914862 -3.6598165075079967
0006a0 7c e7 f0 97 f5 59 13 c0 ff c4 82 dc e0 af 10 40
       -4.8378509274278905 4.17175621555475
0006b0 95 12 b0 f3 ca d6 03 40 0b e8 40 ae 1e a4 e1 bf
       2.4798792875393 -0.5512841609372584
0006c0 04 99 ef 62 82 a6 05 40 3e 4d 48 d7 62 7a fa bf
       2.7063033799523755 -1.6548794183225506
0006d0 39 30 20 2e 26 2e 06 40 89 df 68 b3 b5 55 ff bf
       2.772533760411559 -1.9584252365293386
0006e0 ec 42 55 dc 5f 20 da 3f 0d ee 47 b9 e7 d1 01 c0
       0.4082259799661603 -2.2274927592350253
0006f0 16 6e d0 cc 4e 91 fe bf b2 c6 2d e9 20 c2 17 40
       -1.9104755402139566 5.939578669947581
000700 28 2a 4b 5e 66 b4 12 c0 cb de 77 48 62 58 f3 bf
       -4.676171754205406 -1.2090781050482515
000710 9a e1 48 6b 82 03 14 40 b8 63 45 5b f6 4d e1 bf
       5.003427196811026 -0.5407668860090018
000720 d4 48 de 3b 28 a2 08 40 e4 06 88 78 c0 94 c8 3f
       3.0791783024988977 0.19203954587287975
000730 b8 f7 48 02 fb aa db bf 59 1f bf 74 3b f2 ea 3f
       -0.4323108217539544 0.8420693664747702
000740 70 82 1a 6a 12 bd 90 bf 6e 5a 40 07 39 cb d4 bf
       -0.01634625218014424 -0.32490373333113254
000750 a1 ff 69 06 13 24 f4 bf 1d 2c 2a 9b 43 df 22 40
       -1.2588072062062354 9.436062668703068
000760 98 c8 bb 7f 0a 95 b7 bf 02 cc c0 48 90 58 09 c0
       -0.09211793535704016 -3.1682439502560564
000770 6d 5d 34 b9 1c 52 d0 bf 3a b7 42 de 0c e5 e3 bf
       -0.2550117310178937 -0.6217102376010424
000780 b0 e6 d4 0b be 30 dc bf 64 d8 69 a0 37 68 0e 40
       -0.4404749980491074 3.800887349348203
000790 7b a0 6d 2e e6 05 e0 bf 43 56 d1 cc e6 0f 16 40
       -0.5007201105882041 5.515528869892992
0007a0 6e 25 76 aa 71 26 ea bf 00 91 2b 63 3c bc 17 c0
       -0.8171928719831791 -5.933824109586794
0007b0 12 b1 2e f6 7d e6 0c 40 1e 7e b8 fb b1 fb 18 c0
       3.612544940280835 -6.245796139846361
0007c0 e8 9e 4e 49 a3 3b e3 3f 7c b4 c0 d8 39 5f 10 40
       0.6010300094394241 4.092994105111867
0007d0 44 84 4b 8d 12 d3 1b c0 0b 98 37 4a 1f 67 f4 3f
       -6.956125457510158 1.2751763247592887
0007e0 86 29 65 ad 97 61 01 c0 00 f2 f4 71 99 dc a3 bf
       -2.1726525827882055 -0.038792414818519916
0007f0 ff fe 97 10 8a a1 f0 bf 4d ee 7f 0b 85 57 15 40
       -1.0394383094971429 5.3354684635956575
