enemy_7_runs/enemy_7_run_3/best_weights_enemy_7_run_3.npy (npy, 2248 bytes, 1 tensors)

array f8 [265]
00000000: 67df 4a1f b069 02c0 4c44 88b6 f5ec eebf
00000010: 4ce3 eeb1 bdf9 d13f 783d 5057 8e32 febf
00000020: 546c 6f06 6a3a db3f 0aa9 a3b2 35d6 fe3f
00000030: 4b93 04e8 4eb2 fe3f 4b63 e082 1d36 fd3f
00000040: 9a0a 0f89 3af3 d0bf 7c1f c09f d883 06c0
00000050: fa29 1521 11b9 e0bf 9267 f21e e522 f9bf
00000060: 8005 b3f5 2ef1 a93f 084f 0dca 6677 f0bf
00000070: 1536 a281 2a6f 05c0 72b7 abd1 3a18 0940
00000080: 1a93 fa5f 3cf2 d03f fd53 7a7f 90c6 0040
00000090: 20b6 58dd ba5b bdbf 6859 8d74 4ead f7bf
000000a0: 22cd 3a64 450d ed3f be1e a5f9 5c09 d2bf
000000b0: ca41 386e bd31 f7bf 1885 68c8 98e2 ed3f
000000c0: eab2 61e3 18db d43f 1574 384e 2b2d f53f
000000d0: d572 76e4 84c9 14c0 257c eec8 54fb f93f
000000e0: fb28 41b0 fb6e f43f 19c1 f131 dd32 d63f
000000f0: dcd7 9fc5 e160 d73f 57d0 b496 99bf eabf
00000100: 70fa 53ac c00e dfbf d6a9 4650 32c4 f7bf
00000110: 6e08 7b93 e285 cdbf 688b fe59 75f0 fdbf
00000120: 7762 0a18 b7c1 06c0 3808 39f0 9dd3 f6bf
00000130: 511f fc5b 6dc1 0040 e0d5 6fd6 9afa debf
00000140: 28e6 5c79 dec6 f0bf d29c 2f54 692d f23f
00000150: 537a 49ea 14e2 f1bf 31ef 9d2c 0aa5 10c0
00000160: ce3c 5a8f ac36 edbf 342f d417 6826 d93f
00000170: 1d3a 9db6 fdf6 e93f 3def 8791 fa1e fc3f
00000180: 54e9 250e ab79 b8bf 8016 3b1b 62fe febf
00000190: 3bad b705 ba50 fb3f 7ed2 10fa 3bac f33f
000001a0: b4e6 ace2 9ebf f7bf 0300 1202 f704 0740
000001b0: f81a 8ba4 ad69 fe3f d664 7103 640e f0bf
000001c0: a897 b94b c106 ef3f d5d9 c39f 57d8 05c0
000001d0: ebb9 7fca 4cae 0040 149d cf8f 2ba3 fb3f
000001e0: b1ab 635d 1c39 f0bf 62d4 ef1a 75db ffbf
000001f0: 60c6 d9de 6786 f63f ee8f bc16 5b99 01c0
00000200: b0e1 3742 fab3 e73f ee6b 486e a462 1340
00000210: a4a7 6dac 65f6 d1bf f8e6 5ea4 6ffa 0240
00000220: b9a3 2a25 5b7a fdbf 904d 14c2 4af4 b93f
00000230: 9581 1cc0 5006 0dc0 e8cb 0a28 0d7a e73f
00000240: e445 8be1 ec81 debf 02b0 82ad 24c3 c03f
00000250: bf74 fed8 d12b ee3f f8d1 ec77 0f1d c93f
00000260: 70ee 1070 4eca c33f 70c1 aa43 9ea0 0fc0
00000270: 1959 3d3b 3ac6 f13f e7de 8db6 6390 06c0
00000280: ad02 947c af65 e33f 8aea 65aa a42d c53f
00000290: 1a0e a3fa b415 eb3f 5c15 da7c 5aad 0d40
000002a0: 54d1 5a6d e7c6 f73f 0641 d5c9 9e6f d03f
000002b0: f028 07fc 7695 0ec0 20ca d8b1 747f 0140
000002c0: 8fe8 65f8 f5b3 f0bf 78f7 19c1 e6b9 bfbf
000002d0: 4d51 b0ef 7b4f 0040 54b1 66c1 9986 d13f
000002e0: 3e4c becc ba52 e3bf cf4d b7cb 9056 e53f
000002f0: db78 fee6 7d95 ea3f de8f 3571 cb17 fb3f
00000300: 6a2a aa70 7391 eebf 0720 67c8 9980 f8bf
00000310: be50 3280 ffc2 ed3f 18bd bd4a cf09 b2bf
00000320: 7d6d 2769 b30f f9bf 3373 a52c d1ec 0240
00000330: 0c1c e389 e9b4 e53f 81d3 95b1 de49 e3bf
00000340: 76b7 d8a2 df49 e5bf 659a dfc8 7e5b e13f
00000350: 683f 49cc f9b2 ffbf 269f 954a 819e 0d40
00000360: c682 3f33 d39a 04c0 d2c0 0f3d 360d e8bf
00000370: 80b4 f4f9 3e0f d4bf 4df8 b8e7 9c8d e3bf
00000380: fc8b 2ad7 394c 0740 f9e2 f9ae 2159 f5bf
00000390: a0dd 2630 e1ac f2bf aaea b38d 8555 cc3f
000003a0: 2284 712f f846 0440 7045 37be 1f97 e4bf
000003b0: 5dba 4cd6 0d22 df3f 215a a995 8ecf f8bf
000003c0: 38fa 3fa0 8ec1 0240 a0bc c7e6 0bc4 f13f
000003d0: c100 bbf1 9463 fcbf c0ac 14db beb9 b3bf
000003e0: a464 16f6 5d11 06c0 aef0 c3cc 504f e03f
000003f0: 02cd 8c07 5597 fc3f a89f a7d9 87b1 f93f
00000400: 8304 fc68 0be1 1040 413c 0a93 8f0a 0440
00000410: 87a6 ea97 e7a0 ef3f 0802 c4e9 a6db f3bf
00000420: 20fb df40 119b ba3f be95 8b3e ced9 ddbf
00000430: 9c9a 6944 1206 ccbf b54f d307 e1b5 d43f
00000440: c457 bdb3 ed8c e33f 3cf3 6e15 70b4 ff3f
00000450: 5881 b0ce ddc3 fc3f 7ab8 2f75 03b3 0240
00000460: 3dc8 3aa3 c80b e03f ee59 4f2b 3248 d23f
00000470: e01e 4fa5 4d6d c33f d4bf a52a 63b2 eb3f
00000480: 41f0 487a 800e e7bf 74db ff66 5f89 0440
00000490: 5abf 496a 4ec8 f63f 743d 8353 c392 08c0
000004a0: 6c15 41b9 f6d1 02c0 b9b5 45f7 4ed1 0040
000004b0: c888 9798 42c2 c53f 74d1 077f 476c fdbf
000004c0: 4f95 d50d 9996 e53f c79c d54f d809 f2bf
000004d0: 9874 f9c2 7d88 ff3f b41a c1f3 cad5 0dc0
000004e0: 4efb 732a bcae e2bf a860 f3c1 20d1 d0bf
000004f0: dfe1 a9cb 155e debf 408f d5ed a379 bebf
00000500: 2a82 f7c2 b1c8 f93f 9256 0e23 c249 0e40
00000510: 02ae eb42 d9e4 d9bf d479 15b7 ee33 dbbf
00000520: 0e93 d080 f8c1 0240 a8d9 dc10 910a e6bf
00000530: 904f b0d9 5501 0240 6b81 81ad 90b8 0040
00000540: 2046 4922 8e09 ccbf 34eb 5e83 2d8a f83f
00000550: 30f8 5175 663b f93f 0816 8b43 7dbf 00c0
00000560: b233 25a8 50ce e9bf 8c44 c0bd e2a9 f13f
00000570: faec 7b60 445b d5bf e5b4 7f74 0417 ffbf
00000580: 20b7 f1b4 05e0 f3bf 56c9 02a6 4ab6 fc3f
00000590: e817 8823 d422 f9bf 5e3f 433a c32a fd3f
000005a0: de65 54dd 60a1 ff3f 402e 7123 4fe9 f93f
000005b0: 8998 de61 2995 f1bf c2a0 367e 7566 0940
000005c0: 64c7 6927 cf03 9d3f 223a c07f 7955 c53f
000005d0: 8cb4 38b3 9bb0 fe3f ae98 f8de 2fc3 e2bf
000005e0: 56d6 551a 6ef5 f1bf c8b4 d4d9 9c3a 0440
000005f0: fde2 7406 7332 d13f 301a c78a 3bd8 aa3f
00000600: 08e5 31a7 a79f f4bf 1c8b c6e8 42d0 d2bf
00000610: 4607 db77 70d5 d83f e6d2 9605 7c67 ed3f
00000620: 203a 8aff 8e97 d83f 40bd c004 bc8d f03f
00000630: eaf6 5d71 7cf4 d3bf 5e12 f886 b7db d8bf
00000640: cc9d c373 79af 0a40 f312 9b67 bb92 eebf
00000650: e85c 51ef 64f1 da3f b286 cb75 723f 08c0
00000660: 2af8 f907 88b1 e73f 003f 27e7 c865 c8bf
00000670: 3493 0a73 a759 0440 dfc7 888c 2d18 d33f
00000680: da3e 6d31 3f43 f93f 6ce6 3505 a06c febf
00000690: 046b 6ad1 8342 f13f f8d3 e7dc 2e8a 08c0
000006a0: 9650 49c0 d458 fb3f 99f5 d49a 2d1e e5bf
000006b0: bfd7 af60 a980 ff3f 3ab0 c7ec 72f0 13c0
000006c0: f04f 3448 0cc8 f83f daa8 42a2 07e2 e4bf
000006d0: 72c1 ddac f977 f43f a0d5 2eb9 a4b4 b03f
000006e0: 68e5 f6c6 f1e5 05c0 6ebd 391f fee2 e4bf
000006f0: 638b 73c4 3282 0540 b93a bd8d 6398 e73f
00000700: 0cdc b4d5 a97c 08c0 ba24 4413 5287 f7bf
00000710: f7c2 dc3d 7bf8 f73f f969 8bdf 6488 f43f
00000720: af71 2f37 40a0 fabf 3ea1 fa7f 28fa ef3f
00000730: e795 4af0 608f f63f 9c67 99f9 93b4 02c0
00000740: f741 347b 3bc2 fd3f 90e8 255f bafb 0240
00000750: eedf 3444 29d0 eabf 5c1c ea28 5c5d d8bf
00000760: b72e c1d0 53ff 0340 0aec 4def f201 ea3f
00000770: 0017 eaf6 9cad dd3f 72d8 3ddd 3de9 e8bf
00000780: 660d a042 ebf3 0ac0 b637 de7a ca40 f7bf
00000790: 7421 2009 c859 db3f aab1 aea7 8de5 e13f
000007a0: 8298 5372 eb62 f33f d81f f7a3 347c ccbf
000007b0: 0524 cad4 7425 ebbf 408d 9676 2971 01c0
000007c0: ecbd 9c2d 9186 dabf 4e7b ada8 af7d efbf
000007d0: 8236 4f80 23df 0ac0 a467 a163 7ff6 f3bf
000007e0: 0b5f f0e5 060d 03c0 daf2 c6ee 53dc e8bf
000007f0: 6485 516a 77cf 0d40 5290 f8f2 1d35 0440
-2.301605457756455 -0.9664257588466483 0.28086798073086494 -1.887342778270833 0.4254403174251753 1.9272973039720136 1.9185322821806092 1.8257117378581877
-0.26484549889225095 -2.814378021288517 -0.5225911756654675 -1.5710192879546168 0.05066820859202448 -1.029150761857581 -2.679280293238444 3.136830938389658
0.2647849023144758 2.0969552954870765 -0.11468093780487054 -1.4798111489122565 0.9078700025187667 -0.2818214834155518 -1.4496435456713805 0.9339107431625591
0.32587263303029934 1.3235276275147545 -5.1967960068984285 1.6238601540460504 1.2770954976027145 0.3468544948327846 0.3652882032323512 -0.8358886664850712
-0.4852754290476815 -1.4853995452673323 -0.2306483478660683 -1.871205665149967 -2.8445875051659715 -1.4266642936422738 2.0944468675915364 -0.4840457052335676
-1.0485520115602274 1.136086777545462 -1.117695727523501 -4.161171624316737 -0.9129240798810316 0.3929691536620681 0.8114002768214196 1.7575631794743025
-0.09560650916492835 -1.9371052802756878 1.7072086547221506 1.2295493858520383 -1.484282384348643 2.877424255537336 1.9008003642535964 -1.0035133490076098
0.9695745924952819 -2.730635879673381 2.0851074047306972 1.7273364656082935 -1.0139430664082563 -1.9910784771175476 1.407813902388078 -2.199880769376242
0.7407199185682227 4.846330378694786 -0.2806638893003941 2.3722832528554783 -1.842372079069021 0.1013838504625737 -3.6280837067317386 0.7336488515924176
-0.4766800119951695 0.13095530006592077 0.942849086586328 0.19619935374943487 0.15461140129069717 -3.953426865242527 1.1108953775452106 -2.8205026876492982
0.6061627801101018 0.1654554206869146 0.8463997740986458 3.7096452478460105 1.4860605498953037 0.25681276045089907 -3.822980851143363 2.1872342962535782
-1.0439357474374764 -0.12393038000479162 2.0388106084521156 0.27384036909895326 -0.6038488387006351 0.6668170908764582 0.8307485114671879 1.6933092519984636
-0.9552552414400683 -1.5313966587291377 0.9300534728850136 -0.07046218466506493 -1.5663332088068664 2.3656333435050327 0.6783340161426863 -0.6027673214399415
-0.6652677708241146 0.5424188540753901 -1.9811952571799 3.702395041171161 -2.5755981448895424 -0.7516127770050167 -0.31343054208520726 -0.6110367322760425
2.912219696985174 -1.3342606387142821 -1.1672069436006964 0.22135991496164326 2.53465306344198 -0.6434477534441339 0.48645349433619406 -1.550673088660581
2.344510318710743 1.1103629126408023 -1.774311966190041 -0.07705300186778441 -2.758479998167404 0.509682083065419 1.786946324817848 1.6058424474849549
4.219770088560042 2.5051566588877283 0.9883916823502695 -1.2411259776564538 0.10392864068851937 -0.46641880138335157 -0.2189352830930219 0.3236010147495521
0.6109531889476263 1.9815522038690707 1.7978189538772167 2.337408938902681 0.5014384449079966 0.2856564925145041 0.15177317210895236 0.8655258019407435
-0.7205202473046556 2.5670764967757638 1.4239029075506182 -3.071661617701176 -2.3525213692652667 2.1022013967655906 0.1699908490255153 -1.8389353716021022
0.6746335287286146 -1.127403556683747 1.9708230606259232 -3.7293910067849882 -0.5838299588357161 -0.26276415768144057 -0.474492501154172 -0.11904358440875473
1.6114976516620438 3.786014818072382 -0.4045928147813528 -0.42504470710073616 2.344712263455569 -0.6887898759221587 2.250652027791098 2.0901197009226755
-0.21904160188800947 1.5337348109885172 1.5770020087070513 -2.0935006405659387 -0.806434944542721 1.1039760028982384 -0.3336955015399351 -1.9431194830643161
-1.2421929424412568 1.794504784088152 -1.571003092570658 1.8229400897871169 1.9768990178766823 1.619460237928152 -1.0989164183643274 3.175028787653077
0.028334843426314107 0.16667097795330316 1.9181172371711765 -0.5863265375999356 -1.1224194554064488 2.528619481853273 0.26870418196226337 0.05243097371162653
-1.2889782458353825 -0.2939612649153547 0.3880273027863165 0.9188823804057307 0.38425040202210603 1.034603136602371 -0.3117972476101004 -0.38841045551843034
3.3356808704445253 -0.9554116271543464 0.42098353739625205 -3.030980034135461 0.7404213100232984 -0.19060622488768075 2.5437764155962217 0.2983507034688255
1.5789176874858897 -1.901519794801426 1.0787389927197077 -3.0674721964119236 1.709187270277686 -0.6599338554439554 1.9689115311461902 -4.984813403785717
1.5488398380739419 -0.6525915307186338 1.2792908432566859 0.06525640030925794 -2.7372775596710888 -0.6527090654252967 2.6885733936082246 0.7373521583884531
-3.0608708091563184 -1.4705372574410789 1.49816440739613 1.2832993252001172 -1.6641237407376186 0.9992868899908343 1.4100045572644093 -2.338172864908257
1.859920007005824 2.372914069504141 -0.8379103023680707 -0.3806982421451204 2.4996715840296377 0.8127379106439332 0.4637215052865571 -0.7784718819737135
-3.3691010670751664 -1.4533180999310225 0.4273548211208642 0.5592716479346127 1.2116503206139275 -0.22254045492286312 -0.8483223110243904 -2.1802548660940886
-0.41446332411120923 -0.9840925497518158 -3.3589544319318643 -1.2476800815406728 -2.381360813520478 -0.7768954909912182 3.726301985371423 2.5259360296350133
