best_weights_enemy_1.npy (npy, 10368 bytes, 1 tensors)

array f8 [1280]
0	0x3ff28aa7645bf5d1	1.158851043728067
1	0x3fd2272c3b51acb0	0.2836409167563927
2	0x3ff263f57fa66997	1.1494040476160075
3	0x40001bc7802bcba2	2.013564111076861
4	0xbff47301ae692550	-1.2780777752799004
5	0xbfef8f657700962e	-0.9862544368995196
6	0xbff55c575abac18c	-1.3350442451593123
7	0xc0067f156dc04495	-2.8120525907803064
8	0x3fe6313d79c022c1	0.6935107591571851
9	0xbfd96015fdfc358f	-0.3964896183323043
10	0xbff3f5b385eedd9f	-1.2474856597672
11	0xbfd38a29ff2f9eaa	-0.30530786438473945
12	0xbff52a113e621b74	-1.3227703511090256
13	0x3fd266c280cf57e7	0.28752195910544603
14	0xbfdcb1ac893ebdab	-0.4483443584712982
15	0xc00521a2892f7d9b	-2.641423293840217
16	0x3fd61c531d403bcc	0.3454788003591005
17	0xbfda3d2fbe5f19c6	-0.4099845275017312
18	0xbfe52c2ad0ad5631	-0.661641509602026
19	0x3ff56ef19d69c49a	1.3395858906699574
20	0xbfef8016e1e21aa6	-0.9843859111577629
21	0x3fe5adac8e58a506	0.6774504451942966
22	0x3ff72c9469e4bb3c	1.4483837257827892
23	0x3fd9fa55315dd586	0.40590410061789617
24	0xbfdab342a716824a	-0.4171911842077277
25	0x3fdb0ea78d86fc1e	0.42276943989776494
26	0x3ff747a30aecf3f0	1.4549894739895954
27	0xbf822a3290d5f578	-0.008869547886883863
28	0xbfee27497c1cff46	-0.9422957824790295
29	0x3fd6b7f27ab7c08b	0.354977245179733
30	0xbfe52bc77b7146a8	-0.6615941439615272
31	0x3fdaff062951a1fe	0.4218154338364285
32	0x3feb1ac740483f4a	0.8470188384544397
33	0x3ff7edfb07703d96	1.4956007280887653
34	0xbfdd418589e7e3a4	-0.4571241232620713
35	0xbfed0f15aa5ef96a	-0.9080913856085264
36	0x3fd962faeae28e45	0.39666626871096283
37	0x3fe57c40de973c62	0.6714176509357339
38	0xbfd5c4887dbf212a	-0.3401204326624049
39	0xbff4cfafedb74c56	-1.3007048879415115
40	0x3fec3c65ab3efcec	0.8823726982735969
41	0xbfea475523089376	-0.8212075886009262
42	0x400100100744c3b2	2.1250305717334976
43	0xbfecdf31447f5a0d	-0.9022451722947281
44	0x3fecc4018253fbce	0.8989265008420888
45	0xbfe43f4563c1a311	-0.6327235172621802
46	0x3ffa358af9910c5e	1.638071989888679
47	0xbfcbd91ed9ea8fcf	-0.2175634922069762
48	0xbfe31bfb6c71c3b6	-0.5971657865576308
49	0x3ff5f17c069163a6	1.3714561707076682
50	0x3ffebb2bbe113d45	1.9206960129266275
51	0x3fed33a1f8a53612	0.9125528198580375
52	0x3fd8d0be7690faa6	0.387740722453524
53	0x3fb8969e49e8f460	0.09604825310175746
54	0xbffaff89e1874717	-1.6873873529152144
55	0x3feb70060f0a8e47	0.8574247640394298
56	0x3fe5c6b0b91a01b8	0.6805041899934201
57	0xbfe39468b0e6fa96	-0.6118663268205917
58	0x3fe8aa89ce3969dc	0.7708176639383129
59	0xbfe767b52d007c60	-0.7314096335357014
60	0x3fac83b347fd98e0	0.05569229368011164
61	0xbfedc92f82f75032	-0.9308087881022458
62	0x3fee09cf32452ed9	0.9386974317398781
63	0xc0004f2502411503	-2.038644807444713
64	0x3ff2883ab5a8d1de	1.158259114844547
65	0xbfd381913b20537a	-0.3047831609158532
66	0xbfe54243f5788f11	-0.6643390459398423
67	0xc0001017b2b898a6	-2.00785770059436
68	0x40019a4222ad90d5	2.200321455880934
69	0xbfda3f75c22fc3d8	-0.41012329066785247
70	0x3ffa5a29eabb1ae4	1.6470126313376392
71	0xbfd2739620655ee6	-0.28830483592672207
72	0x3fcaedb4cfad387a	0.21037922039471707
73	0x3fe3b053647bfe16	0.6152741396508101
74	0x3fbb6770e80a7bf0	0.10704713501989693
75	0x3ff4d1fc2635eb89	1.3012658588984058
76	0x3feb6b49f5987367	0.8568467900073359
77	0x3fedddb320c558b0	0.9333129539543474
78	0x3fd93f5afccdb0b9	0.394491907957455
79	0xbfb72d7710cc7848	-0.09053749237179531
80	0xbfdbb1637a8924fd	-0.4327019402158639
81	0xbfe3c0d27bb0583a	-0.6172878661916521
82	0x3fe6cdf872c01155	0.7126428834167579
83	0xbfdef0dfc4ee6c1a	-0.48345178824973944
84	0x3fe1da97ca1a442c	0.5579337069813213
85	0xbff2c805c5a6550d	-1.1738336296742233
86	0xbfe4a22153e20906	-0.644791282495391
87	0xbffdffd7e5bd2546	-1.8749617551969364
88	0x3fd5b2ae1474412a	0.33903076169464674
89	0x3fa92cde0f4adf88	0.04917043625522327
90	0xbfe089f7e3325667	-0.5168418347772786
91	0xbfd0009658e3208a	-0.2500358455695354
92	0x3fe8a813b12e3750	0.7705172024304634
93	0xbfad26de68d45000	-0.056937170311499585
94	0x3ff48e1d5b179f40	1.2846959646503393
95	0x3fde02f035547d13	0.46892934043894846
96	0x3fe204afc2f68184	0.5630720908994111
97	0x3fc9cf5c9d262e75	0.20164067910478747
98	0x3fe5cc588185157e	0.6811945466694593
99	0x3fe7331a5a7f3366	0.7249881522671842
100	0x3fefd98bffcb39d4	0.9953060146306663
101	0x3ff16e71f564e9ac	1.0894641481123513
102	0x3ff6f48167f9531c	1.4346937238198683
103	0xbfe07624550a320b	-0.5144216214117149
104	0x3ffcb891628cee7c	1.7950605249051526
105	0xbfd57eedfc3a0694	-0.3358721697951321
106	0xbfcb1d8379dfe17a	-0.21183818293480866
107	0xbfe9e5182cfba12d	-0.8092156294415297
108	0xbfeda7de59ae6c98	-0.9267417670811424
109	0xbfdc57d4788ac880	-0.44286071559611884
110	0x3fea13fd8e5848ff	0.8149402408764955
111	0xbfe93571df5d415d	-0.787774025209767
112	0xc000b50742ad8ee2	-2.0883927544799556
113	0xbfef150af57a05cc	-0.9713187021699752
114	0x3fbf79e85e954c1a	0.12295391377601597
115	0xbffba48d801289d5	-1.7276740076855408
116	0xc0031cff3aec89a7	-2.389158687919195
117	0x3f8877c91144bf80	0.011947222556585535
118	0x3ff8a3c2a27844d7	1.539980539939554
119	0x3fff1f16024a6592	1.9450893487431569
120	0x3ffab183ebab6d21	1.6683386998982501
121	0xbfc6d82b0feb103c	-0.17847193028694786
122	0xbff44bfdca0cb7f2	-1.2685525791707701
123	0x3fe7ac8c7ee1b42e	0.7398130872876487
124	0x3fb0637b925a9338	0.0640179855641464
125	0xbff20bc03455fbac	-1.1278688473100642
126	0x3fd4f2bcb44bfd22	0.32731549841988017
127	0xbfd30453f1d662d6	-0.2971391545957379
128	0xbfd3c34af09cdbf8	-0.30879472253167206
129	0x3fd722a805256b6b	0.36149025442653365
130	0x3ff08696407ffa60	1.0328581351783654
131	0x40001ec2422f89f1	2.015018956256647
132	0x40051fcebcda76ce	2.640531039635653
133	0xbfe8b6b3ff94fde9	-0.7723026267848897
134	0x3fddc4c7a82b1f6a	0.46513549254131326
135	0xbffe147b24a9524c	-1.8800002510153204
136	0x3fe441a7b8522695	0.6330145454423525
137	0xbfdc4d74578f80d8	-0.4422274451335517
138	0x3fafa78eec784540	0.06182524334520645
139	0x3fdfb9cd7af514fd	0.495715494227923
140	0x3ffe08bd6a070081	1.8771337644284645
141	0xbfd563372e320eff	-0.33418063651355107
142	0xbfdcc13b737bd115	-0.4492939594049557
143	0x3fe452d08b9845ae	0.635109207769508
144	0x3fe9e77a8864da17	0.8095066703743353
145	0x3feafc28906f4de2	0.8432810612670745
146	0xbfbb6d03513f4d54	-0.10713215573860185
147	0x3fc10dcb6184bbe4	0.13323347341199032
148	0x3ff8e56ba48556a7	1.5560108591647948
149	0xbf9abc8ac9739760	-0.026109856172204515
150	0x3fd0a47d2b7db625	0.2600396084515942
151	0xbfe9953bf4718bff	-0.7994670652664125
152	0xbfe9642202ef82e4	-0.7934732491813432
153	0x3fcae1aa77ad083e	0.21001177638578555
154	0x3fe6c95a631c8648	0.7120792327661514
155	0x3fd3e4b86716f0fe	0.3108349806532401
156	0x3fd24c6849a38531	0.2859135359886578
157	0xbfc7728bd208a88a	-0.18318317180211735
158	0xbffdf86981373b44	-1.8731474921693954
159	0xc00872331e6a9c44	-3.0557615639004627
160	0x4006b28ad6dfd0d4	2.837178877549471
161	0xc000888a96cbee24	-2.0666705876335687
162	0xbfd8769884ce8463	-0.38223851174740825
163	0x3fefb48ff66ab44c	0.9907913029507056
164	0xbfe100440446f4fa	-0.5312824328936181
165	0xbff56e1805d6beae	-1.339378378684994
166	0xbfd4dc2ca61cc315	-0.32593837949666354
167	0x3fd3336f3de5972e	0.30001431507695286
168	0xbffc11eba8c40694	-1.754375132790675
169	0xbfab8c34cbcec0b8	-0.05380406368146978
170	0xbff20d1031053750	-1.1281892695291909
171	0x3fde095b134865f4	0.4693210304554605
172	0xc00080060877a9b0	-2.0625115071790887
173	0xbfebcc3ed7472bd0	-0.8686823086403539
174	0xbfe631ab6994eaf1	-0.6935631811278126
175	0x3feb37ae4a496554	0.8505469752227932
176	0xc007eeb4298ba5d0	-2.991554569791994
177	0xbff0d4db3b1c446c	-1.0519668873787635
178	0x3fe0c53e8a116062	0.5240776726377698
179	0xbfd309698361c098	-0.2974494727159338
180	0x3fcc25f30d9f5f35	0.21990812459147838
181	0xbfe2da0ca139cd3a	-0.5891173504773299
182	0xbfe670dace55916d	-0.7012762098279787
183	0x3fca362fb0b29f98	0.20477863433665955
184	0x3ff3fbeb28808b40	1.249003561221528
185	0xc002af879e3a3a1c	-2.3357078897017924
186	0x3fd1280c1c48d8b1	0.26806929361499515
187	0xbfb4cf16a35f9e4c	-0.08128491867648185
188	0xbfc31fe18a0147e4	-0.14941043127561138
189	0x3fe4b09629e2c3c5	0.6465559785921121
190	0x3ff5845cde7c57a3	1.3448151293609747
191	0xbff9520b433c370e	-1.5825302721381749
192	0xc0008e8dd9135513	-2.0696064909958607
193	0x3ff48feda17b8699	1.285138731757263
194	0xbfc56b9da4b3d6e2	-0.16734667341341153
195	0xc0014995c08459fe	-2.1609301605597
196	0xbfd63ef83d541ad8	-0.34759336461176593
197	0xbffe978bf561ed3c	-1.9119987092261246
198	0xbfec2c06f1d4e634	-0.880374405219476
199	0x3f9bf741d98669d0	0.027310398961711446
200	0xbfeb1498e4c5b573	-0.8462643116196616
201	0xbffc9dae427ad250	-1.788496265112503
202	0x3feeef140886cff8	0.9666843573127144
203	0x3fd48682f92c427d	0.3207099374131202
204	0x3fb14c716d890064	0.06757267879675194
205	0x3ff67235a5a76df4	1.4028831930980887
206	0xbfdbce93f55a8a72	-0.43448351822204423
207	0x3fe2050d96e14ec2	0.5631168314816579
208	0x3fe67a1889957cfe	0.7024042784868525
209	0xbfd39ca256e70231	-0.3064351891189601
210	0x3ff7c3ec60c7cfae	1.4853328495491769
211	0x3ffcf556ee6adab6	1.8098973572902373
212	0xbffc27f2d7d1684e	-1.7597530775442638
213	0x3fd5c1a0fa271e1b	0.3399431651018589
214	0xbfe32c2bd64fb6fd	-0.5991419969338662
215	0x3fe1ed2886fc7a84	0.5601999889803015
216	0x3fdf56402533234b	0.4896393168715362
217	0x3fe95d94f5ac9202	0.7926735685655901
218	0x3ff0a2d29e898469	1.0397516434534515
219	0xbfb33965eeecb9f4	-0.07509457667467939
220	0x3fccf8ac8480e806	0.22633892507457193
221	0xbffbc5024937771c	-1.7355978832269505
222	0xbfe967c48ae3d46a	-0.793916960973218
223	0xbfe48cd370ea4920	-0.64219066671129
224	0x3ff229b8f3ae531e	1.1351861494815192
225	0x3fd8b573e74645b1	0.3860749968090103
226	0x3fccdfe500ebab20	0.22558271927786055
227	0x3fe5e2f32d267625	0.6839538461533193
228	0xbfdc0eb9333bd28b	-0.43839864733971784
229	0xbfe36ea373076f1e	-0.6072556730900691
230	0x3fd68b0c90f8210e	0.35223688275483844
231	0x3fc1beccee733120	0.13863526957573757
232	0xbfcdcae460bf4d0d	-0.23275427555072561
233	0x3fec62b8d1464d26	0.8870510184664553
234	0x3fe3dcc0a2b90d45	0.6206973245793185
235	0x3ff012ffd3bc2a76	1.0046385069751103
236	0xbfede12a6a021ea1	-0.9337360449289528
237	0x3fdc5b876e979289	0.4430864887238291
238	0x3fd9935c26546c68	0.39961913817541594
239	0xbff0b69155226035	-1.0445721936757881
240	0x3fe0f28622435d4d	0.5296049756242752
241	0xbfd4800b6cb47229	-0.3203152238436667
242	0x3fc69967965716a8	0.1765565380175549
243	0xbfcbcca05144a574	-0.2171821972672593
244	0xbfdb37acda4ce7e8	-0.4252731448974587
245	0x3fe102ade20897af	0.5315770544736916
246	0xbfc468a87fa217b6	-0.15944391471947278
247	0xbff1608631c0c548	-1.086065477702805
248	0xbfd6b71ed860f459	-0.3549267876695175
249	0xbff9317e70d52152	-1.5745834739228326
250	0x3fc88348ffcf88c5	0.19150650492435353
251	0x3ff903add7726fc0	1.563398210134423
252	0x3fe569442004ec5e	0.6690998673797244
253	0xc001501a5398e2a5	-2.1641127139121914
254	0x3fbdeb85d7988314	0.11687504304473989
255	0xbffb8aa1798129ca	-1.72134540045464
