best_weights_enemy_2.npy (npy, 7528 bytes, 1 tensors)

array f8 [925]
00000000: ca4c 837e 0b41 eebf 94eb 4fb7 e9be de3f
00000010: 781b 418b 2679 e93f 9613 59d3 57d2 d83f
00000020: a126 956f 7f2d f23f 4073 a7a4 37a1 e4bf
00000030: e2fb 17d5 8314 f0bf b0fd a102 9b03 f53f
00000040: c073 e613 c41e a0bf b489 27b0 9e57 fe3f
00000050: 18b1 33c7 2993 f9bf b8c1 3d85 56d2 ed3f
00000060: 98a9 f431 c2a5 d7bf fc0e 5104 7ede 08c0
00000070: e1ad c64d fbd9 f63f fdc9 9bf5 fcae 0040
00000080: ac87 1dbb 4f1e df3f c07f 7a8a 37dc e63f
00000090: d334 34dc b638 e53f b39b 5336 d209 f0bf
000000a0: 4672 54fc 7168 f5bf 7b1c 56ec e8b3 c63f
000000b0: d1b7 f45e 7cf8 f6bf 6a24 d603 1d9b f53f
000000c0: eb7f aa66 a4db f5bf 9c92 cf91 a6fa 90bf
000000d0: 8c77 9734 2882 05c0 39e5 b16c 4bf6 f03f
000000e0: 8cb7 cb92 8a49 f1bf fad3 eea5 dde0 eebf
000000f0: a4e1 4fb8 bb84 e9bf ae6d c9c2 7cde e33f
00000100: df57 d2b4 e747 f0bf 4eb7 64da 28f1 e6bf
00000110: 4f0f 0f9e a8a1 e73f 9291 dace e4af febf
00000120: d091 d2a7 77eb a5bf 6f93 7d65 5a54 f1bf
00000130: fea2 2122 1814 02c0 786c 39df adfc e73f
00000140: 5e3d 7bc6 6ffb fd3f 66f2 b68c 5219 fdbf
00000150: bb42 029f 4e3f cd3f 8931 3905 4c88 f33f
00000160: ab59 4d51 d783 fcbf 5069 347a f91c ffbf
00000170: d495 8767 f586 f1bf a4ad 5b02 170d fb3f
00000180: f9f4 7646 87c4 ebbf c3f2 ef1f 87ff eabf
00000190: ecf3 740e 4d85 c93f 506f 03b6 025e e73f
000001a0: 82c6 617f 3775 f4bf 5875 f12b 88b1 8e3f
000001b0: 308a 7893 d2e7 a6bf 204e f53d 50ef f1bf
000001c0: e378 00de f619 d2bf 9538 e5b3 6287 f2bf
000001d0: 000f 5a68 18a2 c5bf 7cb3 00b2 6dde d23f
000001e0: e660 9a9b 3a92 f1bf 95c9 904f 3003 ebbf
000001f0: 76f2 bbe0 b4d9 d13f 9fc9 a225 e8d0 ee3f
00000200: e5a7 bd51 cfb5 ee3f b09e 8cb9 5f7b f23f
00000210: 0873 5bc4 380a e03f c30e 776f 5fc4 e3bf
00000220: 0247 fe14 b891 edbf dfb2 ed33 1dfd 00c0
00000230: 7bb4 1bd2 f509 ffbf 11d9 3d28 4302 e9bf
00000240: ea7d 12af 48a7 ebbf 2693 e14c 967f da3f
00000250: 26c5 a3ed ca0a debf 4e0a 2ac7 c258 d53f
00000260: 469e a039 d0b1 e43f 200f 12af 0077 b53f
00000270: 905e 7942 be20 b53f 602a 807f de51 d33f
00000280: e20b f1a3 065e febf 4afd b544 ecfe f13f
00000290: 77ca d7e0 0625 c4bf 4ac2 9896 fa53 debf
000002a0: 36ac 675e aceb f93f 2294 d725 71bf ea3f
000002b0: be1c b83e 5db2 f7bf 5234 8f89 4fe4 b53f
000002c0: 267d 7a8c 7345 ffbf 2a6f f026 04a9 e93f
000002d0: 7ece 4c7b 2bd0 eb3f c6d7 ce6c f6a6 e0bf
000002e0: d6c3 165d 6dd3 d63f 174a 9f75 0224 0640
000002f0: c8c3 5e76 00df 05c0 94f6 6da6 c156 ffbf
00000300: e5ce 2fc9 bfd1 e6bf ee9f a707 64c2 d8bf
00000310: b6c2 e71f 571d ee3f 0f7f dde2 ac89 d43f
00000320: a01e 2f31 37da ec3f b21c c89f 937c e5bf
00000330: 8327 0ea0 fe80 fabf bed9 9731 28b0 e03f
00000340: d37d 3ad3 9d58 c8bf a814 c765 3c3c f4bf
00000350: 4046 6985 9801 95bf e981 65c5 47c7 f0bf
00000360: 0087 a04d 9bea a0bf ede8 8ad7 be1b 03c0
00000370: dadf b4dc 45cb 04c0 893e be4c 4a5a e73f
00000380: c857 ab89 392f ee3f eb08 d697 9a07 ef3f
00000390: 152c 11d7 3aac e8bf 4a4c 827c f2be e23f
000003a0: ce38 2088 e65e f03f 893a fd9a 0a96 efbf
000003b0: d337 2ba5 2e7a f4bf b6e8 d917 b076 f0bf
000003c0: d65a e952 7317 d13f 24b9 f10b 4c04 ed3f
000003d0: 2053 10ad a887 9a3f e6c2 c6f1 3ae4 f2bf
000003e0: 6205 49c5 b640 e63f 57a4 adab c5c1 f73f
000003f0: 7ef5 5fe5 c4a7 e13f 3108 d25c 98a0 f2bf
00000400: 70af 6bf1 d720 b23f 157e 27ae 6c39 0540
00000410: 5ac4 4137 23eb c63f 21c6 4890 4a81 d8bf
00000420: 7cdf c2ae 24cc 02c0 9e96 068a e238 d5bf
00000430: 2049 729a 8a76 b0bf cb86 07d2 33d8 c5bf
00000440: 7d39 ddef 4b84 f93f aed7 5136 ee36 e2bf
00000450: 3c83 7c10 0da0 fbbf de06 1269 8f6a ec3f
00000460: d968 2997 ade6 da3f 4eed e8e7 c903 d23f
00000470: 5d33 19f5 b3d7 f9bf e074 f2a8 872b d5bf
00000480: 0b37 cc61 8eab e4bf 985b 9791 0782 f03f
00000490: 3ff9 0476 ae0e febf c6db 9637 2725 e7bf
000004a0: 3ec8 7035 23e6 e53f 6a34 72e1 5f1f de3f
000004b0: 8803 fba3 11b4 eabf 0327 95f2 cdaf f23f
000004c0: 0e15 0d88 cf53 f43f c78f ce99 1640 f53f
000004d0: 6b31 d814 d81e f03f 751a 6865 3365 e33f
000004e0: 32f1 d87f d6c0 e8bf 6aeb b57c e3f7 eb3f
000004f0: 66f6 3c48 72c2 00c0 2e13 69e5 5941 0a40
00000500: d9d5 a276 c14d ef3f 36be fbd1 c231 f0bf
00000510: 3bb9 4176 382c e23f 1ddb 6283 d087 d2bf
00000520: 4e49 7f63 c375 fbbf b245 7471 eea2 e93f
00000530: 0c8e 795e 9fe3 febf eae7 fc67 35fe f4bf
00000540: 46fc 2f47 4b91 e5bf 34f8 3524 ae94 f23f
00000550: 7c45 4cca 8e01 f93f 7221 cb6a ea01 f43f
00000560: 535b e4e2 ec7d f0bf 8ae0 9b93 b007 d33f
00000570: 5097 0814 779f f33f 704c 6f8e 910b 0240
00000580: 531d 1d6a 6274 e5bf eab7 afd7 9321 c83f
00000590: 22a0 b74a 9bfd dd3f a0d6 aac0 85a6 bb3f
000005a0: 9efa 52c4 9366 dd3f e415 04ea 456c f63f
000005b0: 2cdf 0e05 fde9 e13f 0ab1 8353 564f e7bf
000005c0: bffd e5d7 b46a dd3f 3a3a 2497 af54 f43f
000005d0: 8c55 d565 787b fb3f 0624 a2c0 3034 d83f
000005e0: aac9 ee6c 055d e23f 8a0d 637b 2eef f83f
000005f0: 8042 25e6 eb32 d4bf b47a 3cf7 bae3 e4bf
00000600: 7c22 3f64 1fd9 00c0 51f9 f989 b025 f9bf
00000610: e2a6 fc7c ea5a e0bf 7974 3808 208a e6bf
00000620: eb01 7471 4429 e03f 8e5e 671c e8dd bcbf
00000630: 1bf2 d618 0253 d23f d14e b3ce 7197 00c0
00000640: 464e 8fb1 72a5 d9bf 5062 0613 d5c1 923f
00000650: 9466 4ee2 0da7 e73f 8c50 c1dc 4566 ee3f
00000660: 3223 f502 1a33 d2bf 1676 9d83 cfd3 c1bf
00000670: a9b6 fb94 fe12 eb3f 47c7 d780 83ab f83f
00000680: d100 6692 d5d7 f23f 0068 c0ac bbea f2bf
00000690: 85b3 76cf 4372 febf 7cb0 2d8c 041b e73f
000006a0: 0352 4e95 2b5f e5bf 98af 6fec 1594 0040
000006b0: 4d92 8fa6 fad2 f93f 2a07 0a93 9824 fb3f
000006c0: 689d d767 2c0d e13f 6893 c44a 51f4 a8bf
000006d0: 92ef 8919 33d1 e0bf 1b68 3d2f eebb f6bf
000006e0: dd19 7a98 5a49 e23f b5e3 8573 b320 d03f
000006f0: 33e2 3c31 9404 ee3f bb29 2c6a 3245 f6bf
00000700: f4d6 802a 13a9 eabf dcd4 2638 76c3 fb3f
00000710: 9cac 83dd 70c8 d53f cbf8 7ab8 d8bf d8bf
00000720: 6fec 6d00 bf9f e7bf 8fa0 b4a8 f185 e83f
00000730: cc3d e760 21ac d13f cada 07fb 2fc2 c33f
00000740: 234a 6b89 10ab e83f aed0 71a1 eac4 c2bf
00000750: 149d 1151 82d9 d1bf 0a68 6889 8dab dfbf
00000760: ec03 d47d 086e e5bf b67b ca23 986a fcbf
00000770: fca2 b8ed b590 dfbf cd8a 0519 b9be c1bf
00000780: 7629 bcdf 981b d93f dcc1 97b9 b282 f13f
00000790: b02c a339 edb5 dc3f faaf 39e4 5fac b13f
000007a0: 1265 8748 577b f93f 730d 00f0 b0e1 fb3f
000007b0: 0005 6603 0bd9 fbbf 7d2e 76aa 8104 d6bf
000007c0: 0c68 105b fef1 f63f 32c0 f988 6a66 e33f
000007d0: 6ae0 6c5b 18a6 f03f 0042 bd43 d4b2 e1bf
000007e0: a470 5f93 4a19 e43f 64e1 8a8d 472e dc3f
000007f0: 0f20 f8ad 50e4 cdbf 55d2 d250 e4b4 f43f
-0.945440051169862 0.4804024019392099 0.7960388870059054 0.3878383220620035 1.136107860440838 -0.6446798530483662 -1.0050085376712947 1.3133802512019024
-0.03148472540781411 1.896391571143437 -1.5984285146069563 0.9319260218017495 -0.36949210051047876 -3.1086387955891706 1.428218177616934 2.085443419281772
0.4862250640199999 0.7143819527300295 0.663173132024577 -1.0023977396137809 -1.3379993301997657 0.17736541309225004 -1.4356654843536385 1.3503694677222264
-1.366123581923598 -0.016581156396471827 -2.688553248283773 1.0601305242438015 -1.0804544195375199 -0.9649494400861152 -0.7974527931065052 0.6209091000013609
-1.0175549567552407 -0.7169384255882763 0.7384837233625862 -1.9179428177095343 -0.04281209872832259 -1.0830940212701667 -2.2598116556658843 0.7495946273660499
1.873885894124974 -1.8186822411218144 0.22849447979071677 1.2207756237067733 -1.782187764727136 -1.9445738576528875 -1.0954488796354456 1.6906957714189526
-0.8677402855170434 -0.8436923621917106 0.19938052373791437 0.7302259020757251 -1.2786173797470899 0.014987052765884343 -0.04473741579228763 -1.1209261341326808
-0.28283473663203845 -1.1580531146205761 -0.16900925727178873 0.294825958090591 -1.0982004240268508 -0.8441392473235277 0.2789127535504926 0.9630013213230092
0.959693584108433 1.1551205871600523 0.5012477717496902 -0.6177212883998994 -0.9240379724526238 -2.123590856257905 -1.939931698546643 -0.7815261636704084
-0.8641704005603377 0.41403729923176724 -0.4694087334347209 0.3335425324404796 0.6467057347808314 0.08384708666022478 0.08253087160971462 0.301871895325041
-1.8979555515259041 1.1247370418567066 -0.15737997034701198 -0.4738756628676454 1.6200374305433463 0.8358693827727885 -1.4810459566086105 0.08551499470122906
-1.954455898994476 0.8018818626910378 0.8691613586619977 -0.520381176486574 0.35665449228969004 2.7675828160511275 -2.7338876006765283 -1.958680772891431
-0.7131041459492421 -0.3868646692994834 0.9410815833235435 0.32090303568655626 0.9016376457811539 -0.6714571114288417 -1.6564928295287877 0.5215035408607986
-0.19020436109438651 -1.2647060371103098 -0.020513899939322622 -1.0486524306107816 -0.03303990671726176 -2.388547595907872 -2.599254345197534 0.7297717570199477
0.9432647408345867 0.9696782079265892 -0.771024150898827 0.5858089858833264 1.0231690709511443 -0.987065603936416 -1.2798296405703595 -1.028976529282358
0.2670563039477377 0.9067745431218879 0.025908122599577088 -1.1807202762976714 0.6953996518351853 1.484807654016796 0.5517296295144403 -1.164207804279169
0.07081365245875104 2.653039322452751 0.17905082891550955 -0.3828913125063043 -2.3496793416233555 -0.3315969798953605 -0.06430879851021531 -0.1706604743513281
1.594798981637353 -0.569205385296973 -1.7265749591826554 0.8880078365475261 0.42032947313204044 0.28148124358604754 -1.6151618551404774 -0.330781855571173
-0.6459419164764041 1.0317454993398538 -1.8785843477376856 -0.7232853017547931 0.6843429607163285 0.47066494957181837 -0.8344810679192145 1.1679210163005684
1.2704615892883484 1.328146553810244 1.0075302900541725 0.60610360914218 -0.7735397812862514 0.8740098415140498 -2.0949445384601857 3.2819097445193597
0.9782416646109439 -1.0121486856913982 0.5678980169011888 -0.2895394595210961 -1.716250790272699 0.8011390891935462 -1.9305719080374528 -1.3120626508739357
-0.6739860906963109 1.1612988867268657 1.5628803159964653 1.2504676982517506 -1.0307434905023072 0.29734434523516795 1.2264319212494748 2.2556487205234177
-0.6704570839437259 0.18852470428049567 0.468603918996907 0.10800968126099031 0.4593858163097283 1.4014338628052139 0.5598130320349575 -0.728434718240835
0.4596378429777949 1.270675268551385 1.7176441171517096 0.3781854516205957 0.5738551261513767 1.5583939380456706 -0.31560800051833127 -0.6527991131623225
-2.1060169059531386 -1.5717015638070573 -0.5110981408263024 -0.7043609772259877 0.5050375190622253 -0.11276102727367229 0.286316417939618 -2.073947539183657
-0.4007231458647066 0.018317536626997033 0.7391423625988005 0.949984484827398 -0.28436899460625675 -0.13927644659536104 0.8460686597661226 1.5418734581875968
1.1776939123811199 -1.1823078868969787 -1.9028967002916215 0.7220480668888878 -0.6678674617892856 2.072307440908798 1.6140085703165312 1.696434568759694
0.532858088318716 -0.048738994957864545 -0.5255370615773123 -1.4208814473445333 0.5714543321672029 0.25199590951484235 0.9380589448620128 -1.3918937823642483
-0.833139021887034 1.735220164625665 0.3403589404321765 -0.38670938506755864 -0.738250256384516 0.7663505835562477 0.2761310049363288 0.15436362988812952
0.7708819087950513 -0.1466344154647507 -0.2789006988227396 -0.4948457567094243 -0.6696817834455238 -1.7760239980777732 -0.4932074376579718 -0.13863290521393026
0.3923093972122368 1.0944087266653844 0.4486039221635094 0.06903647729785681 1.5926125367316826 1.7426003813751236 -1.740489018702931 -0.3440250553764839
1.4340804631415294 0.6062519717506858 1.0405505725193742 -0.5530797312767959 0.6280873182654614 0.4403246767283433 -0.23353012556640393 1.2941630513352227
