CMA-ES/Group2_run_3/best_weights_Group2_run_3.npy (npy, 2248 bytes, 1 tensors)

array f8 [265]
000000 3a 24 68 fb af 68 f4 bf c6 af de a7 2d 97 a8 bf
       -1.2755584545686944 -0.04802839922135109
000010 00 a3 03 00 64 44 e1 bf 6d 1d cb 98 c3 08 d0 3f
       -0.5395984649922809 0.250534915172884
000020 4f b4 e9 70 37 55 f2 bf a4 78 f4 61 ea db 13 c0
       -1.1458048258457614 -4.964761286302892
000030 8b 2f 3e f5 36 0a da 3f 32 ec 59 84 5f a9 fb bf
       0.4068734545660326 -1.7288508577319246
000040 f0 0b 87 96 74 23 ea bf e8 60 76 94 ea 8c f2 bf
       -0.8168280544272175 -1.1594034003556377
000050 be da 34 62 72 16 0c 40 e2 2d 07 a7 eb 17 07 c0
       3.5109603569393064 -2.8866799401346137
000060 ab f9 b1 5f 59 f2 09 40 16 e0 6f 7d c1 68 f6 bf
       3.243334529513239 -1.4005751514323541
000070 42 74 2d 5c 7d c6 e9 bf ac a1 38 53 1f ad d5 3f
       -0.8054796982138515 0.33869155051300015
000080 0c 73 30 a6 6d 5e c0 3f 21 2e 70 93 07 05 00 c0
       0.12788172354421368 -2.0024558561906507
000090 26 c5 0e 95 61 f3 dc 3f ad 21 72 82 db 95 f0 3f
       0.4523548083917198 1.0365862937488644
0000a0 f4 fc ba ec d0 c7 04 40 4b 75 f8 91 0b d9 0a 40
       2.597566461044716 3.355979099650232
0000b0 94 a8 7a 64 0e f6 eb bf dd a4 5a ff ad 88 10 c0
       -0.8737861597521879 -4.133476247699233
0000c0 19 d7 e4 d9 52 f1 e0 bf 11 10 2b 92 2e 50 f0 3f
       -0.5294584518185018 1.0195756635375839
0000d0 10 a6 24 47 0a a3 f7 bf e8 a3 c4 71 52 08 f7 3f
       -1.4773047236470838 1.4395317501132414
0000e0 5a ca 7c da 9d 61 0d c0 f4 a6 37 2c ce b7 db bf
       -3.6726643628438014 -0.4330935890016996
0000f0 40 f0 b3 e4 cb 39 d7 3f e0 9b 4b eb 6a a8 d1 bf
       0.362902615873967 -0.27590439775525333
000100 74 c3 6c 29 f0 a3 0d 40 87 81 7a 80 3d 32 09 c0
       3.7050479160611136 -3.149531368006311
000110 4d 62 93 c3 fa 33 f4 3f fc db 61 9d 30 95 d9 3f
       1.262690319030429 0.3997308289467012
000120 3a 08 c3 af 9b 88 00 c0 e8 79 32 87 6a a9 f4 3f
       -2.0667031985658726 1.2913613587512547
000130 f1 0f 41 b7 b6 a1 f7 3f 4b 69 55 8d 7c 80 eb bf
       1.4769808920254912 -0.8594343910620322
000140 e3 53 d4 36 7c 9c 00 40 64 6f 53 a9 60 74 fa 3f
       2.07640879474137 1.6534124960225762
000150 fd b3 c1 fc 47 1e 07 c0 2b 6d 86 cb ad d1 f9 bf
       -2.8897857424367417 -1.613691134471831
000160 d0 0e 2a 67 1a 82 aa bf 7c 79 8d 8e 59 8a d6 bf
       -0.05177385815934843 -0.35219420357852704
000170 74 d8 48 85 50 60 04 c0 cf c5 8e c0 b2 3d 04 c0
       -2.547028580937928 -2.5301260989733474
000180 8a c1 74 f0 b5 59 e1 bf ae f5 67 b5 99 d8 13 c0
       -0.5422010132224824 -4.961523851843067
000190 1c 84 c1 f4 ce 15 e3 bf 60 c6 e2 aa b8 6a a1 3f
       -0.5964121609105208 0.03401734434136183
0001a0 df f2 4c 6d a1 26 09 c0 93 d0 41 cc 71 03 f1 3f
       -3.1438625849826702 1.0633409479897054
0001b0 14 bb 69 73 87 73 db 3f 70 72 77 2e 49 a8 08 c0
       0.4289263369636711 -3.0821708326532686
0001c0 58 af 73 68 f2 15 c4 3f cb 21 e5 f1 e4 4b e4 bf
       0.15691976642789984 -0.634264442874206
0001d0 a1 69 0f b8 a0 1d 0e 40 81 00 54 0b 32 86 f0 3f
       3.764466703386646 1.0327625696664031
0001e0 36 16 09 43 a7 4a 04 c0 4e f1 a0 b5 b4 4d e1 3f
       -2.5364518391750392 0.5407355830607601
0001f0 72 b5 f3 32 5f ce f9 bf 86 9e a2 0b 3d 96 02 c0
       -1.612883757621003 -2.3233586224558307
000200 ad d5 e1 01 ba 6a 03 40 89 d6 d2 ff 6e 2e 01 40
       2.4271125933689377 2.147672651883856
000210 88 35 53 5e 6d 4f d7 bf 94 95 5b ad a8 56 03 40
       -0.36422285281590705 2.4173139136862094
000220 00 63 1d 75 50 5d 66 3f 6c 09 a4 08 68 37 0b 40
       0.0027300425944470907 3.4020538973865566
000230 88 55 1b dc fe 53 c3 bf fb 97 5f bb df 54 f8 bf
       -0.15100084063912456 -1.5207211798929154
000240 bf cd 01 19 e7 cc f8 bf 00 e4 2f 97 aa 6c 55 3f
       -1.5500250794255945 0.00130764636264602
000250 c5 72 83 6e 2d 3f 02 c0 ac 1c 24 e2 be 97 f8 3f
       -2.280848372827992 1.5370472749362234
000260 c3 8b 1f 95 dd 1d de 3f 40 32 87 e0 d0 e7 fa bf
       0.47057284891905854 -1.6815956850652043
000270 c6 f6 1f 0b 5e 98 c7 3f 1e cf fb 11 88 6a fc bf
       0.18433738272863404 -1.7760086729512703
000280 e3 b5 7f 97 37 7d d7 bf d8 a0 6e 81 b1 bb cf bf
       -0.3670176486474174 -0.24791544742516325
000290 24 cc 37 68 1f a2 03 c0 d0 4f fd ec a1 71 fb 3f
       -2.454161466791918 1.7152423150446232
0002a0 3c 81 17 e5 47 91 e3 bf 76 4a 13 66 d7 8f e3 3f
       -0.6114844774674917 0.6113087648066784
0002b0 b3 3f 03 bb 8a 82 0a c0 dd c0 34 52 59 23 08 40
       -3.313741169964453 3.0172602102612545
0002c0 50 d0 fe 7a 26 65 d5 bf 3c 57 78 fa 44 6b ec 3f
       -0.3342987252356169 0.8880944149011394
0002d0 e6 28 2a b0 8a 75 f2 3f cb ff d3 e0 0e 91 05 c0
       1.1536967164452618 -2.6958291592309016
0002e0 5c 79 0c af c0 ef ec 3f a7 4e cf ee 79 4a e2 bf
       0.9042666834755368 -0.5715913452390468
0002f0 15 69 43 6b 28 43 00 40 9f 61 3e e9 3b 1e 02 40
       2.0327919368693395 2.2647627088701507
000300 98 ec 83 72 b1 5d d3 3f aa 15 b5 b0 75 cf f2 bf
       0.3025935762704619 -1.1756493475562402
000310 1e af 28 9e fe d9 d9 bf 37 f2 60 bf 2d a3 f1 3f
       -0.4039303345223163 1.1023385501604375
000320 e1 02 c0 10 80 4a c8 bf 61 ae 5e e1 43 9d ef bf
       -0.18977356737015952 -0.9879474069361543
000330 dc 38 6a f7 40 9f d3 3f 36 9e c6 89 3b 6b f9 3f
       0.3065950790559222 1.5886798269147113
000340 a0 29 91 cd 63 b0 f3 bf a9 d3 20 d3 90 84 f3 bf
       -1.2305639295542292 -1.2198646781155082
000350 f8 01 5f ae 0e 1e bd bf 7c cc 19 0d 8d ce 04 40
       -0.11373988873584284 2.6008549712656173
000360 74 5e bb 89 64 9d f9 bf be 47 43 f0 38 d4 fe 3f
       -1.6009259586479887 1.9268121133104468
000370 7e 7e d6 de 6c 7b e7 3f 64 2f bb 0e ec 56 f9 bf
       0.7338165619184591 -1.583721215766638
000380 63 db 87 27 1c e6 02 40 61 16 f0 5c 68 a9 f1 3f
       2.3623583877883205 1.1038592939743455
000390 f8 0f 93 db 68 91 e1 bf fb 07 a3 f0 37 46 eb bf
       -0.5490001953662604 -0.8523215961397449
0003a0 83 18 79 22 b4 2d f1 3f 44 e2 84 b7 08 64 02 c0
       1.0736581179239983 -2.298844751112741
0003b0 57 d4 ac 7d d1 b3 db 3f dd 6d 77 fc 7d 48 db 3f
       0.43285023949585394 0.4262995687001572
0003c0 ba d7 30 ac 2d 66 e7 3f b3 76 79 f0 57 e3 f1 bf
       0.7312229502774621 -1.118003787377728
0003d0 49 e9 03 52 f7 0e fc bf f1 99 da 05 0f a0 01 c0
       -1.7536538318368733 -2.2031536538445313
0003e0 92 84 06 43 8c dd c5 3f fc f9 d6 67 96 f7 dd 3f
       0.17082360527732426 0.4682365430889204
0003f0 54 58 39 0a 3e aa fe 3f c8 3b 0b 37 e3 83 fb 3f
       1.9165630721450002 1.7196991109992599
000400 f3 63 71 3b a9 28 fe 3f d2 2a d5 af be 93 fd 3f
       1.8849270174016481 1.8485705250229114
000410 c2 e4 01 0f 92 e2 f5 3f 53 32 e3 c2 e4 2e e5 3f
       1.367815073607105 0.6619743162533019
000420 13 1d 2d 37 31 cf fe bf c8 8e 05 46 c9 86 bd bf
       -1.9255840449639592 -0.11533792457117464
000430 1f 57 58 8e 79 c8 f0 bf 9d ac c5 83 16 3a f3 bf
       -1.0489440498690283 -1.2016816279745293
000440 1d 7a 41 69 cb 21 02 c0 53 56 b7 18 ca 6d ea 3f
       -2.2665012572390553 0.8259020312058943
000450 cb 39 b5 a5 3b 1f 06 40 3c 2d 7c 8b cc 4b 03 40
       2.765250486939498 2.4120112321158143
000460 c2 06 a6 f9 88 b3 ee bf 0d 76 41 03 2a 2a eb 3f
       -0.9594159007976588 0.8488969863498724
000470 80 e6 f1 ee a7 94 0c 40 33 6a 1c 6c 27 9d e4 3f
       3.5725859325000897 0.6441838370840912
000480 31 fd d6 eb 43 c9 f4 bf ac 8c 4f 76 bb cc ec 3f
       -1.2991370403759215 0.8999917326695104
000490 4e d3 d5 52 88 93 0c c0 36 0b aa 85 ff 55 fb bf
       -3.57203736033481 -1.7084956380137561
0004a0 d4 6c 9e 44 55 76 09 c0 e6 5d aa 09 5c 5c fa bf
       -3.182779823384047 -1.6475487115438852
0004b0 60 c8 29 2c f1 0c af 3f 66 2c 06 f7 7e 2d 00 c0
       0.060645615235345174 -2.0222148226508123
0004c0 de 61 b3 61 7e 69 dd 3f cd e3 7c 58 e3 6c f2 bf
       0.4595638231380955 -1.151584001212757
0004d0 de 7a 05 30 fd f2 03 40 36 5e 54 67 9e f8 0c c0
       2.4936469794914577 -3.621395880949218
0004e0 82 ec a9 85 7d 66 d2 3f 76 fd 72 f6 01 ac e2 bf
       0.2875055127439695 -0.5834970296345279
0004f0 57 ff bf f3 3c bc f3 3f ce 46 fa 80 a6 5b f0 3f
       1.233456565998457 1.0223755872906852
000500 df 16 ec c6 19 aa f2 3f 08 fe 66 f1 23 63 fe 3f
       1.1665284891509413 1.8992041997697715
000510 d0 97 67 ae 77 f2 82 bf f2 91 c0 84 a4 87 e7 3f
       -0.009251532564075321 0.7353079407517369
000520 20 16 8f e8 d2 65 aa 3f 32 8b 9c 59 bb 53 04 c0
       0.0515581044087805 -2.5408846856020313
000530 78 bf 17 0b 3c 0d ff bf 80 da 24 0b 78 a2 b4 3f
       -1.9407310899077554 0.0806040789801532
000540 dc f6 76 1b a1 60 da 3f ce 00 d8 07 c0 11 fc bf
       0.41214778596973445 -1.7543335253140415
000550 c8 3c 9f db 14 2a f7 bf 76 21 00 82 6c 24 0e c0
       -1.447773797892113 -3.7677850872316254
000560 aa d3 3d 4b ee 96 ff bf a5 26 07 cd cb 18 f1 3f
       -1.9743483485337756 1.0685537346748017
000570 40 33 55 d4 39 15 a4 3f de 06 35 39 8b a3 f4 3f
       0.03922444073632514 1.2899276957181693
000580 06 27 d9 ef 63 3e 09 40 00 47 c7 da eb 95 ac bf
       3.1554640520233788 -0.05583130880007836
000590 54 15 e1 bb 64 50 fd bf 5d 1c ba 5e fd 5a 10 c0
       -1.8321273173363197 -4.088857154950429
0005a0 3b ab 91 9f 0b 7f fe 3f 6c 8a 62 12 85 a0 f0 bf
       1.906016944233399 -1.0391894071732635
0005b0 f8 b0 81 fe c0 93 fc 3f 4b 5a f4 7a e7 05 f0 bf
       1.7860727254547424 -1.0014414599333061
0005c0 23 7f 16 aa f9 4b ea bf 14 a9 72 72 96 b9 08 40
       -0.8217743227032525 3.0906189862481686
0005d0 4b d2 75 34 fe 96 f1 3f 14 e2 3b 67 7f 19 f9 bf
       1.0993635224559906 -1.5687250168394984
0005e0 fa ad ef 29 1a fb d4 3f b8 92 92 a9 6b f8 e1 3f
       0.3278260621579815 0.5615747749294178
0005f0 78 90 ee 0e 58 18 c0 bf 53 d0 46 c8 57 20 f4 bf
       -0.12574291924568448 -1.257896215754063
000600 4d 13 de 8a bb cc ed bf 1f 90 0f 65 24 4e e6 3f
       -0.9312417709594257 0.6970388387530909
000610 76 a1 a9 b3 a9 1e dc bf 3d a8 7f 64 53 c4 fa 3f
       -0.43937151475122194 1.672931091854948
000620 54 9c 69 3d 4c 82 07 c0 30 df 84 1a 61 28 e8 bf
       -2.938621978555185 -0.7549291150998894
000630 66 f6 cc 39 13 42 ec bf c7 17 48 17 48 79 e5 3f
       -0.8830658081930778 0.6710548834532738
000640 1b 52 fc e0 83 51 e4 bf 94 39 c5 8e 57 41 fc bf
       -0.6349505800486129 -1.76595264215175
000650 35 5e 91 45 cb 1c 06 40 09 ae c1 3a 77 54 f1 3f
       2.7640595850932876 1.083121518628902
000660 f0 f3 3e a1 b9 c2 ba bf f7 7b f5 04 43 b8 cb 3f
       -0.10453376948039739 0.21656072370657828
000670 ea de 61 ad 2d 92 da 3f 42 72 43 18 fa 3a fb bf
       0.4151720231234167 -1.7018986652175419
000680 24 a5 be de 15 cc fb bf 0d c9 8b ef 84 f3 04 c0
       -1.7373255444493418 -2.618905898526583
000690 01 32 37 d4 2d e1 de bf f3 75 b1 8f 03 c6 06 c0
       -0.4824938366334948 -2.846686480143711
0006a0 d4 32 71 0b 48 18 d3 3f 2a 5c 30 6e 37 1e e8 3f
       0.29835702054405755 0.753688540661533
0006b0 a6 5c 40 46 e9 95 fb 3f 2a ea 4a 1c 9b dc 05 c0
       1.7240994209476326 -2.7327177248346475
0006c0 26 2d c9 f3 2a 93 ed 3f 91 a8 28 71 1c dd e1 3f
       0.9242148171846665 0.5582411012776608
0006d0 e4 96 5e 43 81 27 0e 40 c2 84 7a 3c 10 12 f4 bf
       3.769289518665447 -1.2544100153393605
0006e0 a2 b8 b5 b2 5a 8a f4 3f 14 2b c3 e5 cc ea de bf
       1.2837779026845415 -0.48308107793552435
0006f0 94 c9 e3 a7 ea 50 e3 bf 54 26 22 a5 dc b3 ef 3f
       -0.603627517614131 0.9907057976972262
000700 90 6b 23 1e 91 c7 06 c0 64 55 d4 98 bb d3 da 3f
       -2.8474447588500382 0.4191731445765383
000710 cc 37 14 05 3b 0d f6 3f 50 83 3c c0 ce 0a f7 3f
       1.3782301138303295 1.4401385792954962
000720 e3 cd 2e 71 cf d8 ea bf 84 6e 02 5c e3 23 ce 3f
       -0.8389661036111956 0.2354702185883647
000730 01 90 d8 3b 2b 58 e2 3f 57 04 29 97 86 f5 ff bf
       0.5732628029695662 -1.9974428085991087
000740 bb 12 48 c1 42 21 05 40 6d 2e 1a d3 a9 2a ea 3f
       2.641240606319426 0.8177079318133572
000750 37 43 a8 a3 5e 52 ec bf 0d 34 99 d7 ee 6b 09 c0
       -0.8850548931533017 -3.1777016490582413
000760 5c 48 02 37 46 74 11 40 b4 1b b0 b4 4e f4 0a 40
       4.363549098505327 3.3692907444232905
000770 f0 0c 4d ab 66 1c 00 40 5a 1f 41 67 e1 18 fa 3f
       2.0138677008522947 1.6310743363737488
000780 06 63 4a 1d b9 9f f0 3f 08 b6 eb 22 5e 83 e4 3f
       1.0389948982394244 0.6410360986753298
000790 21 ca 71 00 ab a0 ec bf 6c cc 5e bd fc 2a ec 3f
       -0.8946127899819808 0.8802474688185504
0007a0 ba c0 3b e3 6b 22 ba bf 6f d1 24 87 00 bb f6 bf
       -0.10208772943201697 -1.4206548003249642
0007b0 80 79 97 a1 45 7a 8f bf a2 cd f2 02 51 2b fd bf
       -0.015369934076201686 -1.8230753054784619
0007c0 3a 09 43 18 0f ef 04 c0 6d 7a d3 3c 77 40 d1 3f
       -2.616728009744432 0.26955967845962087
0007d0 35 2f 5e a0 e4 fb f6 bf d0 be 8a 23 c3 22 10 c0
       -1.4364973320361518 -4.033947520583482
0007e0 72 28 a7 b9 fb 39 e9 3f 15 6c 88 6f e9 75 06 40
       0.788328039744796 2.8075741494663
0007f0 09 2d 6b 95 56 a1 03 40 5e 60 53 e9 db d2 02 40
       2.4537784264881606 2.3529585102624386
