CMA-ES/Group1_run_3/best_weights_Group1_run_3.npy (npy, 2248 bytes, 1 tensors)

array f8 [265]
0	0xbffb67e5c534370c	-1.7128656104354745
1	0x4007b00eb22b5a9a	2.9609655303459705
2	0xbff3abf4d01c8b68	-1.2294815186839632
3	0xbfdeac455466b38e	-0.47926457636167974
4	0x3faedc73c1d29078	0.06027566662786027
5	0xc008cd02475e9a0c	-3.100102002691761
6	0x3fe41ab80c7996a5	0.6282615893985236
7	0x3fcb55dfcbf99c3f	0.2135581727954747
8	0x3fe4f3e63a4a45ae	0.6547728670577067
9	0x3fe3dfde85fe56ee	0.6210777871189899
10	0x3feb75f887183122	0.8581507338108489
11	0xbffb991db5f3fea2	-1.7248818500083094
12	0x3ff1654279f16bec	1.0872215999031551
13	0xbff4e1ed8597a1f0	-1.3051581591081423
14	0xbfa2560f833d0730	-0.03581284024268283
15	0x3ff7b9621928abf0	1.4827595694321154
16	0x40001edb116fd7b5	2.0150662767655043
17	0xbfc7f0cfc3ed5748	-0.1870364863086087
18	0xbfe3b5c8a204109e	-0.6159403957722309
19	0x3fc0dcfd21087be5	0.13174404252001107
20	0x3ff5b88cdf39fcef	1.3575562209878702
21	0x3fa3933b3fd41de0	0.038232661763739406
22	0xbffeb9a8968c5cb6	-1.9203267937462392
23	0x3fe8f2a30bd98b24	0.7796187621537212
24	0x3ff3418239da3e9c	1.2034933338035563
25	0xbfd19e85bacf19ca	-0.2753004383379475
26	0xc000bf1d87ccca54	-2.0933180436489156
27	0x3fd5bf65b2b49108	0.33980696155255474
28	0xbfe0842ee5b22bd2	-0.5161356436013824
29	0xbff5259c679c7f9f	-1.3216823623006133
30	0x3ff4ad3fec5c4a05	1.2922972901184278
31	0xbff33da691846aa5	-1.2025514301555316
32	0x3fef2c0c1dbd09e9	0.9741268711880454
33	0xc00c7fbda1f2e985	-3.5623734142547527
34	0x3fec0bbb863c4607	0.8764321920190817
35	0xbfebc717d47a32d3	-0.8680533552120216
36	0xc00301d146eefe50	-2.3758874456105232
37	0x3fd335fb84debbfd	0.3001698300894871
38	0x3feb744c6fb673b9	0.8579466039551483
39	0xbfd30e2ceda0ee7e	-0.29774020391389644
40	0x3fe6347efb48108c	0.6939082057802053
41	0x400acb282015400a	3.3491976267323524
42	0xc0000f3fcb0d7429	-2.007445894573284
43	0xc0051c63c1f31938	-2.6388621475518015
44	0xbff01d7703f6983d	-1.0071935801329481
45	0x3ffa31a9a6065480	1.637124680074777
46	0xbfe4692378f7d4f8	-0.6378342974336695
47	0xbff1451c4f1861ee	-1.0793727006586056
48	0x3fb838ac9b1d73ec	0.09461478030193832
49	0xc0021799541b015a	-2.2615229197255475
50	0xbfeb24b4cecafd1d	-0.8482307471203147
51	0x3ffbf3fd362da034	1.7470676533066696
52	0xbff231faab17229a	-1.1372019465654035
53	0xbfcaf25120e1df1c	-0.2105199251707227
54	0x3ff8c6e75b8ed034	1.548560483596714
55	0xc00208c27ff52498	-2.2542772289931
56	0x3fdb845062a652a2	0.4299508059860192
57	0xbfe29fb58a155b24	-0.5819957444135508
58	0x400bb35be11fda38	3.4625775897832476
59	0xbff21662ab10eeec	-1.1304651911040606
60	0xbff36a23ea6b007e	-1.213413158126087
61	0xbfeabdaa352e5b76	-0.835652450436881
62	0xbff03f541fe7f9af	-1.0154610868772627
63	0xc003ae847bf50ca3	-2.4602136310728198
64	0x3fe0eb7ba8af741d	0.5287454886089368
65	0x3fe3c6283bf8f363	0.6179391070687469
66	0xbff6cd51da85272f	-1.425126889795546
67	0x3ff2ba48466bbae6	1.170479083138781
68	0x3ff03d1d0cb02bb8	1.0149202819472816
69	0xbfe2b4b71587b033	-0.5845599575527615
70	0xbff6ea676f83961d	-1.4322275501266468
71	0x4005a3f895f886c2	2.7050639835805166
72	0x3fd0534b26aaeea0	0.2550838353742879
73	0xbfc7a3a62aea2f74	-0.1846816739601952
74	0xbff2b04a4cf12ae0	-1.1680396085309255
75	0x3fead605a089e56c	0.8386257300873416
76	0xbfe140195aae1e35	-0.5390745898338937
77	0xc002bdaefe7fd404	-2.342618931079871
78	0x3fe42f9befa9176a	0.6308116608495145
79	0xbfe9e982c987e22d	-0.809754747023424
80	0xbfcf5eb238690024	-0.24507739786531701
81	0xbfef4a8da63d61cf	-0.9778507468100147
82	0xbfdc8d0f408e6b06	-0.4461095934326952
83	0x4002c74b94176606	2.347312123264376
84	0xbfb841f3268e7cf5	-0.09475631419489956
85	0x3fbfc2c4593f0959	0.12406565836775964
86	0xc00bed330e576bce	-3.490820037882691
87	0x40048abc2277fee0	2.567741650855041
88	0x3fff1e7aaeb47776	1.9449412178432488
89	0xbfd5129c5b8fb5b8	-0.3292609113840075
90	0x3ff2ad46bfe1f02a	1.1673038001454281
91	0x3fcd32e890a540d4	0.22811610281724504
92	0xbfbb9aad05942f20	-0.107828916418097
93	0xbfcbbf1911652476	-0.21676934575433265
94	0x3ff604b0b9873b6c	1.376145100326279
95	0x40019b98beba267f	2.20097493177019
96	0x3fe1e9b206cb0a44	0.5597772724798422
97	0xbff628c48ee39b3a	-1.3849530774693464
98	0x3f81e92c1f2b6c80	0.008745522214147039
99	0x3ff221babc80adbf	1.1332347262749491
100	0xbfd3f0e862f12060	-0.31157884275717684
101	0xbfd2db702c5d1a16	-0.2946434434165054
102	0x3fd44e7c72eda479	0.3172904131266204
103	0x3fd4d02ca8b9714e	0.32520596005430924
104	0xbfc177d7f2b636c4	-0.13646983481560515
105	0x3fe82ca304acb46d	0.7554488269139604
106	0xbfe02b364995c3de	-0.5052749097068234
107	0x400c31b86e1b7e18	3.524277553762442
108	0xbfdfa8f2f6935ec6	-0.49468683318762563
109	0xbfc2032560ac9260	-0.1407210084954782
110	0x4004f82860ac94e4	2.6211707642238355
111	0xc002fbdbb7cdb0ea	-2.372977672543233
112	0x3ff8392abf2ac641	1.513956782099186
113	0x40040ee929712f12	2.507280658499334
114	0xbfeb9af0feb47790	-0.8626637434679072
115	0x3fa1ef4b793f8db2	0.03502879958230255
116	0x4007f590cd7d8abb	2.994905095475898
117	0xbfe24d0cd9f08dbf	-0.5719055420526543
118	0xbfd58fb8102f90e8	-0.3368969114365101
119	0x3fb9c4950ee29e5b	0.10065585721405894
120	0x3feacdc498ad5252	0.8376181585286508
121	0xbfde70fe24af574a	-0.4756465299845912
122	0xbff82f28286338eb	-1.5115129068031432
123	0x3fd6377c2c2ffffc	0.34713653865037464
124	0x3ff76ff212583a28	1.46483046689867
125	0xbfe34263b9b18511	-0.6018541933846412
126	0x3ff31c77b9a98b6e	1.194450116389557
127	0xbfad61310a37b254	-0.057382137772809344
128	0x3ffd23238e47a60c	1.8210788305099213
129	0x3ffdcdcce21d99e3	1.8627442200319073
130	0x3fdd5eeba4a6b4e1	0.45891848639696603
131	0x3fbb0540ae8d8f28	0.10554889928385747
132	0xbff10e2195193e32	-1.0659499954380292
133	0xbfd0761ee0c5ac9e	-0.2572095103302646
134	0xbffe08c4f92004c0	-1.8771409732292312
135	0xbfc80de09db5aa1c	-0.18792350483575226
136	0xbfd7362600b7ed7a	-0.3626799590126307
137	0xbff1e616f57afd08	-1.1186742390708009
138	0xbfe0b99b080fbdff	-0.5226569325877221
139	0x3fd6d61c8ecb3614	0.35681833214479863
140	0x3fa7f3b06a2b7390	0.046781075439617514
141	0x3fea47c71739b228	0.8212619260426139
142	0x3ff42f183cde1fb3	1.2614977243083387
143	0xbfe3eed3f96e89a6	-0.6229038116182906
144	0xbfeb0e970ea93980	-0.8455310140941918
145	0xbfbcaeffc57f6612	-0.11204527446479798
146	0xbfe1733ce7530bab	-0.5453171270422578
147	0xbfee708553e1242b	-0.9512354505797068
148	0xc003191629ed186b	-2.38724930529411
149	0xbfc5af2399d9980c	-0.1694073201389873
150	0xbfd5edf9f7a50ab5	-0.3426499288945409
151	0xc008fbe82b975224	-3.123001423411795
152	0x3ffa34a44982c437	1.637851988936985
153	0x3fd738232877f43e	0.3628013510895619
154	0x3ff093800811c31a	1.0360107722482952
155	0xc0070a78d9c8175d	-2.880113316935349
156	0xbfeac8ce9a8c6f8f	-0.8370125788237476
157	0xbfd26e0c8aac23a2	-0.28796685735920324
158	0x3ff4a848268cce27	1.2910844331607991
159	0xbffbad731c01e19e	-1.7298461050068918
160	0x3fb6d994dd710ee8	0.08925753027238736
161	0x3ff348f568d1a36e	1.2053121656883508
162	0xbff19c300d4b9ac4	-1.1006317633961524
163	0xbfcc678d9aebf5c5	-0.2219101911977487
164	0x3ff7404401d10a02	1.453189856620725
165	0x3fd5e916d30f1cbb	0.34235163317903144
166	0xbfecfebfd1fd053a	-0.9060973264060188
167	0x4006b52d7524505a	2.838465609713279
168	0xbff4fd56c618324f	-1.3118503320757957
169	0xbff9f1c62d80919c	-1.621526887648634
170	0x3fd668d15a60822b	0.3501475699031597
171	0xc0059cfa748a1962	-2.7016495804447667
172	0xbfed00c62b57bdce	-0.9063444944894685
173	0x40006575b795dda4	2.0495409338579567
174	0xbfdd25a1c0cd5040	-0.45542186573334575
175	0xbfe07905533f8208	-0.5147730470599194
176	0x400112dfe3decfca	2.134216099011586
177	0x3fd7958f1c45aaf1	0.3685033584685434
178	0xbfec265e3b32db05	-0.8796836048339577
179	0x3fd2e00bc426c1c7	0.2949246802845917
180	0x3ffda1673d961624	1.8519050985063439
181	0xc00264fb21d3f21e	-2.2993071215444294
182	0xbfd2ba39e6700764	-0.2926163435332596
183	0xbfdc53dad54e9d7a	-0.44261809187670276
184	0xbff3a056f846fe26	-1.2266454408962857
185	0x3fc17fa02c7af826	0.13670732662097967
186	0x3fdf9704545e7a88	0.49359234084287396
187	0xbfd81d8acc743077	-0.3768031117076655
188	0xbff01eefd938a21d	-1.0075529561237382
189	0x3ff957648ee3d82f	1.5838361341134364
190	0xbfe5ceedc3fdcd8a	-0.6815098598439573
191	0xbfef51e18f8ba5a1	-0.9787452510474176
192	0x3ff7622369a65426	1.4614595534269568
193	0x3ff86a81dcc67e44	1.5260027526891387
194	0x3fe48426721f0cee	0.6411316136294809
195	0x3ff5cb84673aa614	1.362186816443118
196	0xbffd4539a316cfae	-1.8294006701153012
197	0xbfe515faea9d9f19	-0.6589331228578629
198	0xbfe9a580827baa48	-0.8014528797624019
199	0xbfe09468c8b3dd1a	-0.5181163711521635
200	0xbfa0f05e6161e4e0	-0.03308386744260772
201	0xbfce28d50f7f8e46	-0.2356211019206162
202	0x3ff364f37f44756c	1.2121462794669595
203	0xc006b3ef768d6cc3	-2.8378590833577575
204	0x3fd5a2948140b7d2	0.33804810163826204
205	0x3fe62cc66d2e0dba	0.6929657108707297
206	0x4001a6ef6b3c194b	2.2065113427844714
207	0xbff567cffd3cc1a0	-1.3378448383410628
208	0x3fe9da510bffd98f	0.8078999742854637
209	0xbfe41f35caf42a64	-0.6288098300877434
210	0x3fe829df37e09a64	0.7551113215784651
211	0xbfe48ae241a5ecc1	-0.6419535906019506
212	0x3fef6a57326d4bf8	0.9817310318852597
213	0xbfd5aaa918a07704	-0.3385412922378779
214	0x3ff6d9bcaa7e4181	1.4281584415331
215	0xbff7ad187e1f7cfc	-1.4797596861533853
216	0x3fe0c99dcfb0d4c8	0.5246113831004999
217	0x4004b6734809191e	2.5890870692993664
218	0x3ffae5a715e0c8a7	1.6810675482379709
219	0xbff040f794dc5ddd	-1.0158611121058734
220	0x3fe8e015710e6085	0.7773539741638308
221	0xc005ae10cb7d7030	-2.7099929711967192
222	0x400019d49c661f53	2.0126125544228812
223	0x3fc550b368909e2c	0.16652529340466182
224	0xc003a03b97156a80	-2.453238659230294
225	0xbff99a5c896b8071	-1.6001859062162362
226	0x400c85a1b585c597	3.5652498418282437
227	0x3ff146f385b1dbe2	1.0798220846606843
228	0xc0000a47efd7520e	-2.0050200212083444
229	0x3fc24f132c7f7da0	0.14303817436937738
230	0x3fc2ae3caea71c83	0.14594229248016086
231	0x400392284e19c0af	2.4463659383401004
232	0x400ce93a39bb8aee	3.613880587612008
233	0x3fc5fbb59229ba84	0.17174405705323548
234	0xbfe7a0c99a6e8228	-0.7383773819202064
235	0xbffe1bb352c77fde	-1.8817628129545407
236	0x3fecafd241cfe2de	0.8964625630752285
237	0x3ffcc1fbb22d9a33	1.7973591766436925
238	0x40039463e122b712	2.4474561299056257
239	0x400238692f0093aa	2.277544371800521
240	0xbff17f5ceef0773f	-1.0935944875304384
241	0xbfe68e7764524e3d	-0.7048909148601933
242	0xbffa9f897671ed49	-1.6639494539984574
243	0x3fd73a7e1a01e8d0	0.3629451040248002
244	0xbff1a2be61ef158e	-1.1022323442024091
245	0xbffd34295e9d87ff	-1.8252347656166419
246	0xbffbba856bf2d6fd	-1.7330373970739281
247	0x3fc77e3a43829b00	0.18353966041942016
248	0xbfd675373179a937	-0.35090427238050687
249	0xbfe8d6f54a5c8f9a	-0.7762400104879703
250	0xbfd8595c54d9dd2b	-0.380454142439208
251	0xc006686f1436e94f	-2.800993116307985
252	0x3fd8554b4a2e9ac6	0.3802059387620996
253	0xbfa7e54664e82a90	-0.04667110425733256
254	0x3fe4fa8ef554943e	0.6555857459649201
255	0xbff7310e8995d588	-1.4494767546105738
