CMA-ES/Group2_run_2/best_weights_Group2_run_2.npy (npy, 2248 bytes, 1 tensors)

array f8 [265]
000000 a4 37 1d 4f 36 4e b2 bf 10 41 8f 22 09 82 d9 3f
       -0.07150592261788674 0.398561748265835
000010 16 57 90 a4 8b 6b ff 3f 1e 48 fd bc d9 83 fd bf
       1.9637562206530155 -1.8446900732419702
000020 4f 81 65 a4 f3 46 df bf d0 36 14 2c 8d 43 b6 3f
       -0.48870554975839736 0.08696825338503378
000030 a5 7e e8 16 82 8a ee bf 82 bc 2e 5d b9 6d f0 bf
       -0.9544077346253813 -1.0267881050056364
000040 d9 32 2d 87 ad 3b ed 3f ce 62 d6 db 40 7a 02 c0
       0.9135348930518276 -2.3096940207291032
000050 e3 c6 57 5f 09 c5 dc 3f 90 70 9b d0 63 41 f7 3f
       0.449526160343437 1.4534643315046516
000060 5c b5 66 3a 31 c0 e0 3f 83 04 a5 50 e2 85 e2 3f
       0.5234609738014728 0.5788432669725271
000070 e3 3e e6 df d0 b8 e7 3f 1b da 0f 0d 9f 87 f0 bf
       0.7413105366740321 -1.033110667250759
000080 c2 27 2d e5 b7 2a ff bf a6 c3 8a f5 a8 cb f5 3f
       -1.9479292823984768 1.362221678875565
000090 54 60 c9 39 d7 d5 08 c0 e0 ee ba fc ec fe a4 bf
       -3.10441441674997 -0.04100742898068943
0000a0 14 ba db 69 ef 5f f4 bf 7a bf 3c f9 f9 76 f8 bf
       -1.2734216818895492 -1.5290469871360686
0000b0 96 7e f5 16 99 be bb bf 66 1c cb 40 f4 e7 f2 bf
       -0.10837704477807572 -1.1816294222824353
0000c0 cc ac 73 df a2 dc ca bf 68 eb bd 79 c3 58 d7 bf
       -0.20985828314528587 -0.36479269875387965
0000d0 70 5d c7 7c 30 aa b8 3f ec 3e b0 5e 27 3a c9 3f
       0.09634688421589543 0.1970872127862927
0000e0 11 9b a0 75 09 40 da bf dc 30 87 b9 5e 65 d7 bf
       -0.4101585053162334 -0.3655621349141833
0000f0 44 b2 5b 08 3d c3 04 c0 08 5c 0e 35 eb 84 dc 3f
       -2.5953312542899614 0.44561271840342487
000100 cd df 19 25 3f a6 fa bf 89 c7 54 d8 37 66 ed bf
       -1.6655875634441941 -0.918727800866905
000110 60 35 05 26 a8 25 8c bf 9d 76 21 e2 29 23 cc 3f
       -0.01374369970349204 0.21982310811556696
000120 e6 2b e6 7b b6 36 ff bf 76 58 88 1a af 86 ea bf
       -1.9508576240357285 -0.8289409177985039
000130 c2 bc c0 93 40 68 ff 3f df 18 e3 1f 06 5f 04 c0
       1.9629522105786212 -2.5463984004191924
000140 da 9a 66 84 5d 5b d8 3f 24 f2 5d f1 ee 2d f6 3f
       0.3805764954544607 1.3862142017743588
000150 4d 08 26 c4 6b 76 f5 bf cf ae 66 1c 53 57 ff 3f
       -1.3414113676121986 1.9588194951456221
000160 a2 1b 3c 33 85 a1 eb 3f 08 7a 61 25 cc 7f c7 bf
       0.8634668350867865 -0.18358756852372005
000170 b1 f6 1a 38 8f 8a f6 bf 30 2f 95 c4 a0 d4 a0 3f
       -1.4088279906858754 0.032872222897451286
000180 8f b0 98 9e 5d 74 e1 bf 78 46 ab cd 35 22 09 c0
       -0.5454547975146101 -3.141704184331328
000190 f2 33 62 52 9f d2 f1 3f bc 27 c9 b2 b5 93 d0 3f
       1.1139214723691535 0.25901548823878406
0001a0 3b 01 88 83 2b 95 fe bf 59 06 7a 96 fa 1a c3 3f
       -1.911418451112765 0.1492608294247926
0001b0 04 cf 65 24 17 43 ed bf 86 d4 a5 de 23 8b f7 bf
       -0.9144397459881195 -1.471469754903667
0001c0 e3 e6 22 ab b7 fd fa 3f 74 e9 ff 03 9b 4f 00 40
       1.6869427380574329 2.038869887587845
0001d0 6c cd 85 5c a4 50 ee 3f ce b7 74 82 21 6d e8 bf
       0.9473439986308398 -0.7633216426818252
0001e0 3a 5f fc 14 b6 09 c3 3f 9b 85 fd 18 d5 3f 11 40
       0.14873386406611094 4.312336340402363
0001f0 7c 27 33 b2 4f 7e f7 3f 3c c5 29 89 ff 9d ed 3f
       1.4683377228670613 0.9255368880241472
000200 2a ca 73 49 40 42 fb 3f b0 ea 8f cd 31 65 e7 bf
       1.7036745900374037 -0.7311028494726397
000210 68 a9 ad 19 30 c7 fe bf ee 03 16 10 a8 82 e2 bf
       -1.923629856401556 -0.5784492792300833
000220 4c e4 d1 dc c4 a5 ed bf 45 f6 03 53 9f 28 eb 3f
       -0.9264854729546044 0.848708784236529
000230 a6 5c cb 82 9c 83 dc 3f be 04 bd 84 e1 cc c4 bf
       0.44553292057885086 -0.16250246983876154
000240 72 8f 72 7e 8f f7 d5 bf 15 61 2e 05 a8 a9 e0 bf
       -0.343234895213974 -0.5207100011057572
000250 d0 69 fe a7 ad bf d8 bf 80 8a b4 cb bc 98 9d bf
       -0.38669911771435483 -0.028902959759884883
000260 51 2b d2 43 40 4a d0 3f ca 85 c8 15 86 6e f7 bf
       0.2545319235147661 -1.4644833422574828
000270 f8 11 56 f0 65 9a ed 3f 5b 1e 57 c5 a0 a9 fd bf
       0.9250974363390574 -1.853913088665556
000280 88 78 5f a2 47 35 ec 3f ec 96 be 6c 9f 0f f8 3f
       0.8815038844438883 1.5038141486961036
000290 ba c0 3c 79 1f 8a 02 40 2c 6a 04 8a 82 3c 02 c0
       2.3174428435960097 -2.2795458586308737
0002a0 53 fe 15 7b f8 c1 0d c0 30 17 61 f5 4a 85 eb bf
       -3.7197122207724447 -0.8600210945666955
0002b0 e2 f7 9f 00 d2 2f d5 3f e8 e4 56 22 7b 3f 08 c0
       0.3310437208273226 -3.0309965784805293
0002c0 80 eb 24 cb c2 23 11 c0 29 fb 3c df 84 10 11 40
       -4.284922765854276 4.266131866547576
0002d0 a7 87 ac 20 ad 1e ed 3f d8 1f b2 6b 83 a3 cc bf
       0.9099946630633341 -0.22374003180107027
0002e0 64 85 b3 de bc 95 ff bf b1 82 39 61 15 92 e8 bf
       -1.9740570735233058 -0.7678324603003458
0002f0 96 c8 e8 20 dc 16 00 c0 43 3d e4 81 fa ed e7 3f
       -2.0111620493926905 0.7478001152939345
000300 b1 58 4d d5 7c a0 ba bf 08 e9 41 84 3f 8e e1 bf
       -0.10401134688922543 -0.5486142714646869
000310 f9 d3 7e d1 1b 88 ff 3f b8 7f 78 07 1d e7 f3 3f
       1.970729654637806 1.2439241687606977
000320 04 c6 95 13 81 9c 63 3f 4e f4 a7 a8 8e 71 01 c0
       0.002393962957903952 -2.1804478813415136
000330 14 1b 18 23 b0 05 02 40 c0 d5 b4 ea 88 24 8d 3f
       2.2527773610812662 0.014229840910597313
000340 03 6a 29 87 86 d3 f0 bf af 75 cf 20 74 da ea 3f
       -1.0516419677502433 0.8391667023494643
000350 eb f3 20 2d db c4 eb 3f 6e 33 cc f7 00 2f f1 3f
       0.8677802926464414 1.0739755324932179
000360 6e fb d6 ea a7 25 f4 3f a0 e5 ef 8d 10 b3 02 40
       1.2591933415821717 2.33743391884191
000370 da e1 c3 1b ec 6d dc 3f 12 48 07 00 e0 81 00 c0
       0.4442091246742429 -2.0634155275556703
000380 80 11 99 1e ac b0 c9 3f b7 ad 6e e8 76 e0 0e c0
       0.20070411199607108 -3.859601798894541
000390 5a f0 ad aa df 72 ed bf 82 23 ba 72 13 da 02 c0
       -0.9202726682265265 -2.3564824069075607
0003a0 9b a2 db 0c f5 06 e7 3f ca ac 11 ac 6e fa e6 bf
       0.7195992709285578 -0.7180703507159703
0003b0 7e 2e 03 46 ce c4 c5 3f f4 89 df cb 4b e2 be bf
       0.1700685350282249 -0.12064050414441124
0003c0 9c d0 41 4f 05 49 e9 bf 51 fa c6 96 23 ab e3 bf
       -0.7901636646261241 -0.6146409935825635
0003d0 0b fa 35 42 b2 49 14 40 3c 27 7e 12 2d 25 ed 3f
       5.071969065231779 0.9107880936801176
0003e0 44 6a 64 65 5d b2 07 c0 9d b8 22 3b d9 a0 00 c0
       -2.962092201353956 -2.078539335248094
0003f0 07 31 e2 72 0d 37 f1 bf c7 51 9d f1 ea ff dc bf
       -1.075940560115727 -0.45311997981232505
000400 ca 59 cd 5a 3c 84 f1 bf 20 07 26 31 f8 7f ae 3f
       -1.0947841212233578 0.059570079803064724
000410 81 ec 93 45 21 ef 06 c0 d0 b3 84 0d 7a 84 db 3f
       -2.8667626796500945 0.42996074028161235
000420 5f da 2e 34 0b 5e e8 3f 6d e2 1b ff 59 56 ed bf
       0.7614799517821885 -0.9167909605594794
000430 3f 50 69 81 bc 38 e2 bf b7 b4 c3 33 7d b1 f4 bf
       -0.5694258239332227 -1.293332292752252
000440 fe 7e 0d 7a 99 68 d1 3f 83 a2 04 83 58 bd f2 bf
       0.27200924796305503 -1.1712269895453182
000450 60 0b c8 ac f5 38 05 c0 01 e5 77 31 1b f2 d5 3f
       -2.652812337736961 0.3429019911851157
000460 65 51 80 93 a3 d2 fb 3f 0b 4d 69 9f 7a d7 0d 40
       1.73892552964852 3.730214352990179
000470 8c 9c d1 c5 f6 4b d5 3f 14 c3 30 e1 33 ba d0 bf
       0.3327614719223184 -0.2613649081350087
000480 e6 64 f1 d1 da 89 d3 3f b1 77 e4 b7 fb f2 ec 3f
       0.305288987181099 0.9046610442780915
000490 00 d0 81 d3 df 6e d6 bf 82 26 b2 31 14 d1 ef 3f
       -0.350517231511958 0.9942723246214913
0004a0 d8 e2 2c cb 0f 6c b9 bf be 7f c9 9d 36 fc e2 bf
       -0.09930514059386597 -0.5932877618579295
0004b0 30 7e 8a 3b 4d 04 f4 3f 33 40 cc 61 77 c5 00 40
       1.2510502172298281 2.0964191093881026
0004c0 b9 45 a4 19 98 4a f8 3f e8 be 4c ea bd 90 d5 3f
       1.5182114602688286 0.336959341820132
0004d0 30 af f9 c5 31 e6 de bf 19 44 f4 64 91 5b 03 40
       -0.48279995282676946 2.419710911468894
0004e0 df bd 88 0e 54 80 f6 bf e2 07 52 23 97 9b e2 bf
       -1.4063301627864957 -0.5814929666378215
0004f0 fe 55 49 33 14 11 e7 3f da c4 9b 43 7d eb e5 bf
       0.7208348275841556 -0.6849962540128687
000500 c8 4c 68 dd 4a db c9 3f c2 1d 57 18 e6 e5 e4 3f
       0.20200477419766671 0.6530638194462244
000510 e0 41 04 e0 cc 5b f9 bf f0 4a 02 46 38 45 e7 3f
       -1.584912180962526 0.7271996848452016
000520 9b d9 62 e0 24 39 fb 3f c3 3f 4d 0a 48 83 f6 3f
       1.7014511838038746 1.4070511248028061
000530 2e e2 11 e4 84 7e d4 3f c6 21 f8 67 e1 59 e5 3f
       0.32022211334654826 0.6672217398309435
000540 26 b2 b2 5b 88 73 fe 3f aa a8 07 19 08 45 06 40
       1.9032062131838159 2.783706851526479
000550 e1 cc 1c af 8e 9a 02 40 7a 52 7b 4c 70 c0 f5 3f
       2.325467460695663 1.359482096440074
000560 ad 54 d6 62 fb e6 03 40 81 1a 74 c4 a6 84 e0 3f
       2.4877841684015807 0.5161928021414753
000570 16 02 98 bc 33 64 ea bf f3 2e 37 bb b7 da e1 3f
       -0.8247317012283613 0.5579489380411061
000580 c6 d8 b7 ee c1 7c e5 bf 02 b1 4c f4 04 3f dd bf
       -0.67147919296874 -0.45697139603977643
000590 ad 9d ac d1 04 50 f6 bf 22 97 22 93 c1 62 f0 3f
       -1.3945358457948303 1.0241103885140963
0005a0 d7 c4 95 91 11 6c 01 40 6e 37 39 d9 8c 88 f1 bf
       2.177767884619793 -1.0958374486249016
0005b0 f3 da 25 43 aa 07 e4 3f ea 79 13 c9 36 70 ea bf
       0.6259356795770529 -0.8261979987399262
0005c0 e0 e8 62 d2 16 16 f1 3f 27 d3 86 a0 8d ee 0c c0
       1.0678928583352487 -3.6164810696740406
0005d0 8e 08 eb bb d7 31 df bf 46 d2 f2 2d fc fe ba 3f
       -0.4874171576631249 0.10545326349058212
0005e0 b4 b6 bb 6a e3 73 f3 bf c8 f8 ba 39 8a be 00 40
       -1.2157930535571895 2.0930370817360178
0005f0 48 82 d9 14 33 76 03 40 80 b5 ba c4 ce 48 ec bf
       2.432714617622228 -0.8838876573915257
000600 8d 5a 02 0b 66 e6 d5 3f d2 82 36 2a 38 81 f3 3f
       0.34218741488567944 1.219047703642151
000610 1a ec 93 e4 8c 06 e1 3f dc 63 e7 74 7a d3 e0 3f
       0.5320496048365186 0.5258152278212225
000620 82 92 5f e5 a4 dc f2 3f 78 93 23 91 85 86 ea bf
       1.178868194570129 -0.8289211115594375
000630 0a d9 d6 2c d9 f1 dd 3f 6b 23 68 88 06 41 02 c0
       0.4678862512477201 -2.281750741651583
000640 74 90 4c ca cb 14 e1 3f 0a 14 07 02 36 68 f1 bf
       0.5337885810045138 -1.087942130966669
000650 62 f0 a6 52 cc 3e 06 c0 00 9e bf 25 1c 52 99 3f
       -2.780663152427267 0.024727287105546836
000660 00 31 07 cf 77 36 da 3f c3 62 9b b6 c2 74 05 c0
       0.4095744630583482 -2.682012011162756
000670 d2 5b c2 b4 a7 13 f5 3f 06 e6 6c 95 df e6 d0 bf
       1.3172986088663845 -0.2640913924438738
000680 b8 2b 5a 07 d3 cd ed 3f 00 66 b4 ff bd d8 46 3f
       0.9313750403974757 0.0006972244004003758
000690 58 d8 5b 91 83 f2 e6 bf da 15 ec f0 63 1c e8 bf
       -0.7171037520445322 -0.753465624381245
0006a0 e4 51 91 31 5d db f9 3f de c7 02 8d b5 e8 e1 3f
       1.616055673240333 0.5596568826788333
0006b0 79 ca 78 dc 97 7c 01 40 23 8a d0 5c bd 23 00 c0
       2.185836527286764 -2.0174510241643175
0006c0 70 66 95 7b 75 e5 c4 bf d9 19 e2 81 18 3b f0 bf
       -0.16325253042559806 -1.0144276689112444
0006d0 d9 b9 6a e2 8a 1e 04 40 3a 06 80 8d 00 f5 c3 3f
       2.5149133385486775 0.1559143725317414
0006e0 50 89 38 9a a4 a3 d4 bf 7c 4c be 36 5e ab f6 3f
       -0.3224879747450773 1.4168378961956298
0006f0 ea a6 1d 9a 6c ee f1 3f d0 ca 87 50 9d 61 f7 3f
       1.1207090397023713 1.4613316674919368
000700 80 16 c7 02 6e c5 b2 3f b6 9f b6 d6 42 81 fa bf
       0.07332503860296846 -1.6565578829995338
000710 04 4d 3e 06 01 16 f1 bf 43 9d 05 cf ae c0 f4 3f
       -1.0678720706826548 1.2970417105478453
000720 76 b7 61 87 6f 1e e8 3f a4 23 df 62 7d 88 fc 3f
       0.7537152904676379 1.783322702615103
000730 b4 b5 60 6b 90 7a c0 3f c0 03 a2 a3 a1 08 b9 3f
       0.12874036067061712 0.09778795475905522
000740 5c e8 49 e9 7f 02 ed 3f 68 47 b0 42 39 b6 9d 3f
       0.9065551334781605 0.029015440650318608
000750 6f 9a 12 dc 4d 80 c1 bf 22 3f 9e 6b 2d 1c d1 bf
       -0.13672803159461774 -0.2673448134382729
000760 d0 48 cf 92 97 92 de bf 38 cf 60 31 53 da e2 bf
       -0.47769727074513657 -0.5891509975831246
000770 89 35 d5 a0 5c a5 dd bf 9c bc 33 29 07 03 ca bf
       -0.46321788507778955 -0.20321740638562324
000780 d9 6c c3 f9 15 ab e6 3f f5 43 33 c3 5d 44 df bf
       0.7083845022383698 -0.48854774534726114
000790 ce c5 c9 5d cc 98 d3 3f 75 e5 f8 36 31 18 f2 bf
       0.30620106848718087 -1.1309063098290981
0007a0 c4 6e 52 68 92 65 d0 bf ea 79 87 68 32 31 ea bf
       -0.2561994570512349 -0.818505481871225
0007b0 fc d6 5c 79 7c a9 df bf 9c d6 4b f6 f2 92 04 c0
       -0.4947196183378393 -2.571752475919153
0007c0 78 49 c1 b1 20 9c 06 c0 a5 c6 2b a3 1e ff ea bf
       -2.8262342345344074 -0.8436425387319174
0007d0 57 a5 65 ff 3c da dc 3f 30 e7 44 9a 70 8c d8 3f
       0.4508202070342881 0.3835717684302038
0007e0 65 08 a2 08 87 ca f1 3f 52 70 e6 f7 65 b0 c2 bf
       1.1119451844429247 -0.14600824932574824
0007f0 b6 25 af db ac 10 01 c0 d0 b5 da 45 ab aa fa bf
       -2.133142200739452 -1.6666672447857884
