enemy_2_run_3/best_weights_enemy_2_run_3.npy (npy, 2248 bytes, 1 tensors)

array f8 [265]
000000 fa bf a6 9b 20 32 c8 bf a4 78 91 77 4c ae 04 40
       -0.18902976608433147 2.5851067868489555
000010 8e a9 a7 7e 60 4e d9 3f 04 4f 8e 93 d2 6e fb 3f
       0.39540874832769013 1.7145562900449827
000020 cd 01 99 66 f7 14 e6 3f a3 25 75 82 27 2e 03 c0
       0.6900593761311541 -2.3975362960815843
000030 39 99 ee 65 80 87 d6 bf 23 84 36 90 75 80 e1 3f
       -0.3520203586034714 0.5469310585650685
000040 6a 4f 6f 75 49 15 f8 bf 78 8e 26 ff e2 5e f0 3f
       -1.5051970088288393 1.023165699655605
000050 9c 58 c5 6c f4 0f d3 3f 78 e6 1d 0d b8 d7 07 c0
       0.2978488027778299 -2.9803315186261976
000060 98 db 94 e3 9e 14 fb 3f 08 0f 86 b3 26 8b ee bf
       1.6925343408490559 -0.954486227638399
000070 a6 9b c6 00 ca be ec bf d4 91 e9 8c e5 51 02 40
       -0.8982896819260204 2.289988613965969
000080 52 91 5a 1e 68 2a ed 3f c0 dd fd 17 37 01 bb 3f
       0.911426600727774 0.10548729263051992
000090 00 07 58 46 41 c3 e7 bf aa 10 c5 a2 8c a4 f7 3f
       -0.7425848363784269 1.4776731832689998
0000a0 a8 3e be 11 3d b5 fa 3f 28 a1 31 a6 a7 ac cf 3f
       1.6692476933566613 0.24745650877890424
0000b0 a0 9b 99 9a 30 0e b2 3f 68 1e 9e 13 35 65 c8 3f
       0.07052902006544892 0.19058860261815203
0000c0 45 c3 9f 9d 5b 67 db 3f 6b a7 f9 d7 97 55 e3 bf
       0.42818346398330603 -0.6041983812585675
0000d0 b0 bf 9d ba c2 07 fc bf 41 4d 70 b2 eb 2c 08 40
       -1.7518946923919252 3.021933931400469
0000e0 bd 30 6a 59 6f 39 ec 3f 60 2d b2 28 97 cb f7 3f
       0.8820111032851156 1.4872047033012095
0000f0 7b 17 3c 73 24 42 e2 bf 71 cd 59 cf 08 6f f8 bf
       -0.5705740214041123 -1.5271080112114215
000100 3b 7d 87 a0 ec 45 01 40 43 54 60 fa 1f b5 f9 bf
       2.1591427365634934 -1.6067199497531568
000110 be 50 7d 11 99 39 e0 bf d3 bf cf c1 b3 08 00 c0
       -0.5070309964744621 -2.0042491094136294
000120 06 4a ca 25 6a 00 08 c0 54 f1 20 75 d9 9a f7 3f
       -3.0002024605139495 1.4753050399150043
000130 c4 4f ae 0f d6 5c 05 40 71 ef 5e 37 f1 13 01 c0
       2.6703301644392656 -2.134737427315422
000140 ec 20 5e 0f 23 3c e3 bf e7 2a 08 79 02 3e f7 3f
       -0.6010909366750901 1.452639076977613
000150 c5 25 e1 ec e2 d8 ff bf 66 ce c6 a0 ae 47 ef bf
       -1.9904507878403461 -0.977500261322757
000160 4a a6 9b de eb 7e 08 c0 97 e3 c4 ac 29 e4 f8 3f
       -3.061973322987602 1.5557038067620164
000170 34 87 dd 56 e1 9e e7 bf 90 e4 6b 3a f4 de ca 3f
       -0.7381445595349079 0.20992901661501095
000180 35 c1 b4 86 31 49 ee bf d0 2a 8a 34 70 31 d4 bf
       -0.9464347487428656 -0.31551747446853273
000190 15 3f 24 41 64 48 df bf dc cf d4 63 7a 3f da 3f
       -0.4887934337757412 0.41012439488554064
0001a0 28 9f ff 44 1b bc ed 3f e4 a6 75 4c 72 70 ee 3f
       0.9292122218730343 0.9512263768530969
0001b0 5c 57 b7 12 d6 97 eb 3f cc b4 fb 61 54 5f c7 bf
       0.8622846952009513 -0.1825967291291931
0001c0 7e 8e aa a3 f7 a6 e8 3f 4a cf 06 10 90 02 ec 3f
       0.7703817555051982 0.8753128350276509
0001d0 bb c4 58 de 2c 4a f8 3f 1e c2 c0 8c 3d 74 e1 3f
       1.5181091962261195 0.5454395054894723
0001e0 07 75 77 a0 21 bf f2 bf 2e 31 7f 54 1e 27 fb bf
       -1.1716629284122193 -1.697050409379766
0001f0 3a c7 6a dd 40 cd eb 3f a5 b2 e2 7f d3 68 0d c0
       0.8688053440621168 -3.6761846533830345
000200 89 03 c9 c5 c1 01 cd 3f 3d bf c7 58 c5 80 f4 3f
       0.2266161170719239 1.28143820457258
000210 cc 9b b9 4d 67 e6 03 c0 98 c9 93 c7 14 6e f7 3f
       -2.4875017235058063 1.4643752857196883
000220 f0 b1 aa 9f b0 13 af 3f 2d 39 81 0e 0f d1 d3 bf
       0.060697097292493285 -0.30963493744356435
000230 bb df f4 be fc 78 f1 bf 7d 8a 8a 46 95 ab eb 3f
       -1.092037912296276 0.8646952035672509
000240 c4 5b 7d f4 fa 68 01 c0 07 fc b3 22 90 db db bf
       -2.17625990874828 -0.4352760638138879
000250 5e 9c 4e d9 85 e6 dd bf b6 48 24 a4 69 d3 eb 3f
       -0.46719499799150366 0.8695572095769168
000260 54 ff 20 01 fd 4a c1 3f 65 e9 4e 20 fc 98 fa bf
       0.1351009612571895 -1.6623498212853403
000270 a0 0f cf 5b 83 b9 7f 3f 37 f9 77 de 3c 3c f1 3f
       0.007745278472558598 1.0772064867192748
000280 e1 97 97 b9 b2 c3 ee 3f e6 e6 50 18 ea 05 ed 3f
       0.961388933643999 0.9069719767496423
000290 38 f5 53 dd 3f f8 d6 3f 82 2f 59 10 45 9d e1 3f
       0.3589019452482094 0.5504479712776489
0002a0 97 ac 4f 68 dd 53 e3 bf 13 d9 f8 ac 51 bd f7 3f
       -0.6039874112442644 1.4837204701157745
0002b0 e2 5e 12 c1 da 65 0b c0 4b 66 b4 12 7b 2a f9 3f
       -3.424733646748664 1.5728712778713028
0002c0 ec bd a4 a0 8d 98 df bf a8 86 25 26 d8 fe f8 bf
       -0.49368611038059274 -1.5622178545094503
0002d0 af eb d4 71 ea bd e0 bf be 1b 81 a4 0c 33 f5 bf
       -0.5231830809856229 -1.3249632287931798
0002e0 a4 96 0f 37 72 76 b3 bf 56 69 c4 0a 2f 69 e2 bf
       -0.0760260948587424 -0.5753398142144686
0002f0 0c c7 1e f5 fb a6 f7 3f 78 4a 2e 16 4b f4 fe 3f
       1.478267629147413 1.9346419207037382
000300 2e 17 cb b5 4c b5 c8 bf 88 f1 24 dc a9 7f f6 bf
       -0.1930328262007434 -1.4061678504359367
000310 97 ec 05 70 19 88 c9 bf b0 0c cc 4f 90 68 e8 3f
       -0.19946592302207897 0.762764125684404
000320 67 9f c5 53 a0 bc 01 c0 e0 43 08 88 b0 7a 91 bf
       -2.217102674931016 -0.017069586088897526
000330 1a a8 29 51 44 64 e0 bf 22 bd 80 7d 71 14 f1 bf
       -0.5122396073541069 -1.0674910452324373
000340 cf fe c2 2e 90 8d f0 bf e0 c4 9b 7a e0 75 e1 bf
       -1.034561331427472 -0.5456392664620147
000350 4f 08 5e d5 7b 4f c8 bf 62 1d 65 42 ec 6d 02 40
       -0.18992565077138798 2.3036732852084905
000360 ba 87 24 34 3f d1 e5 3f 7e 75 ba d2 48 55 f1 3f
       0.6817928331768066 1.0833214027000788
000370 8e 22 ba c4 80 53 ee bf e6 a0 28 09 32 9e d0 bf
       -0.9476932375265095 -0.2596554841461639
000380 b0 09 d5 c9 96 e3 fc 3f 80 92 66 d4 ca b1 a6 3f
       1.8055637249059195 0.04432519762784626
000390 5f fe 18 d0 03 d7 f3 bf d8 aa 35 6b d1 d5 fa 3f
       -1.2399938706220366 1.6772016704441537
0003a0 7c bf ed d1 a6 7f ed 3f 4e 22 0f 1c 44 36 d9 3f
       0.9218324756784422 0.3939371370329682
0003b0 ae f2 9f ab bb 29 de 3f 42 7e 71 9e 60 c2 e5 3f
       0.47129718551858957 0.6799777121158928
0003c0 a6 0c 2c 3e 45 b0 f4 bf e2 6b 25 71 63 5c 02 c0
       -1.2930347851368338 -2.2951115455193625
0003d0 ea 22 6f 19 28 45 fb bf cc f4 2b ae 2c d5 c1 bf
       -1.704383944847161 -0.13931807045438516
0003e0 34 a7 68 9f 39 fd b2 3f 35 83 77 38 d5 83 ed bf
       0.07417640821281851 -0.9223428824298937
0003f0 78 85 9c 5e 25 b0 be bf 38 b8 be b1 64 b3 f0 3f
       -0.11987527427529254 1.043797201458359
000400 e4 5d bf e9 f7 51 d4 3f 58 db 77 9e 8b 7d f7 3f
       0.3175029547396362 1.4681507291949938
000410 94 7c cd c1 68 ee fa bf a2 d1 c9 68 5a 9a d1 3f
       -1.683205372850158 0.2750459693263797
000420 6c a4 37 89 e9 b7 e3 bf fa fd 0b 82 96 c5 da 3f
       -0.6162002258325976 0.4183098096836769
000430 a2 71 ba 83 d7 5b 09 c0 cd 8f 5a 5f 22 f1 cd 3f
       -3.169844655158344 0.23392133384652283
000440 d5 ad 66 20 2e 1b fe bf cf 56 65 30 d4 70 e2 bf
       -1.8816357865970208 -0.5762730546218452
000450 b8 4e 17 2a 1f 00 f8 3f 4c dd 56 68 cb 9b 06 40
       1.5000297207051698 2.826071562910931
000460 07 19 87 8e 5d 5e f1 bf e2 02 72 7c e1 7d db 3f
       -1.0855384414185794 0.42955815461031766
000470 d8 ea 37 dc 57 1e d5 3f 5c f7 70 fc 4c a3 d4 3f
       0.3299770021982744 0.32246708538501934
000480 ae 23 7f 90 f4 a1 fe bf 01 d0 1a 49 6f d3 f1 bf
       -1.9145398754501275 -1.1141198020604863
000490 91 51 93 f6 42 ee f5 bf 90 80 54 0d 62 ae e2 bf
       -1.3706693298200643 -0.5837869892457253
0004a0 ca 61 9f 1c 1c 8a e0 bf 54 49 cd 29 df fa e5 bf
       -0.5168591078791505 -0.6868739906733858
0004b0 50 96 06 9c 09 a7 f2 3f 74 77 7b de 48 73 01 c0
       1.16578064868499 -2.1812913304738064
0004c0 5c e7 ff 11 8d 63 ef 3f 99 4b fe 43 3d 52 ed bf
       0.980902228503719 -0.9162889793391172
0004d0 f7 b3 d0 a1 79 e0 f9 3f 5c 86 16 ab 2b af 08 c0
       1.6173034974010514 -3.085532509446052
0004e0 0a 88 fc 72 f4 ff ef 3f d8 d3 6a 24 45 eb f8 3f
       0.9999944921330564 1.5574389860678277
0004f0 98 e7 c0 7d 0e 8d f1 bf 50 d1 e1 b6 c4 d1 be bf
       -1.0969376480338493 -0.12038831200499556
000500 ef 74 1e e2 0a 72 cb bf 61 8b 4f 05 54 da 11 40
       -0.21441780129399698 4.463211138706215
000510 8f 2d 50 c1 36 75 eb bf 96 b1 86 e9 64 7f e0 bf
       -0.8580583358429282 -0.5155510483796657
000520 f2 70 e3 83 14 ad 01 c0 12 b1 e5 09 cc 6d fd 3f
       -2.2095117858681244 1.8393059145556134
000530 f8 4e c2 b6 42 85 fb bf e0 2c 7d 25 ba 69 e5 3f
       -1.7200343264602775 0.6691561443525664
000540 5a 55 01 7f b2 90 fe bf 80 23 ac 90 a3 2a 8b 3f
       -1.9103264771595918 0.01326492104773691
000550 4b 30 40 e5 38 51 ef bf 54 80 cb 1c 51 47 05 c0
       -0.9786648252061324 -2.6598226785281813
000560 7c 91 7d 68 55 f0 f2 3f fb 1e b6 52 3e ba eb 3f
       1.1836752015743448 0.8664847960908156
000570 b4 0d e3 4e fe 96 bd 3f 1c 02 ac bc b0 02 d2 bf
       0.11558522630644213 -0.28141420769682823
000580 7a fe 74 dc 61 b8 03 40 cf c0 a4 e7 62 e5 fa 3f
       2.465030405350089 1.6810025261475408
000590 0d 2a 6b 03 e0 92 f5 bf f0 63 c1 30 40 31 ac 3f
       -1.3483581670321911 0.055063253356543274
0005a0 4d 21 a1 cd b4 33 e8 3f a4 05 83 40 41 4a fa bf
       0.7563117996406078 -1.643128635405767
0005b0 84 e0 9b 27 e6 b1 c9 3f f1 ca 6b 79 a2 a7 e4 3f
       0.20074154790905052 0.6454632159714874
0005c0 0e b0 df 73 95 4d 0a 40 aa 84 d1 02 96 aa dc 3f
       3.287882714523227 0.4479117419742332
0005d0 89 a5 94 63 e3 79 03 40 52 2b b8 82 f8 66 f2 bf
       2.4345157413233136 -1.1501393419482224
0005e0 ea a3 7d cb 9e 4a e5 bf 84 fc aa c1 30 58 f0 3f
       -0.6653589224271148 1.0215308728363945
0005f0 62 cf f2 0d 64 69 e5 3f 75 8e 64 bc 4e 88 ed bf
       0.6691150925093832 -0.9228891067072725
000600 d6 38 ec b3 79 6f e2 bf 42 75 01 69 a4 a1 11 40
       -0.5761078371158657 4.407853737558357
000610 04 2e 59 28 00 ba eb 3f 40 07 24 2b 32 cb 92 3f
       0.866455153279674 0.01835325611410288
000620 cc cb e1 8f 99 72 de 3f b0 09 a4 af d6 88 b9 3f
       0.47574461985567207 0.09974424160103612
000630 2c c8 f5 cd 6a a1 ea bf 3d 96 c8 5d 8e 51 ee 3f
       -0.832204248681824 0.9474555808744253
000640 e0 eb 31 29 f1 ab ed 3f 87 88 16 f0 e4 87 e9 bf
       0.927239017924304 -0.7978386582583575
000650 0f a4 90 b7 cb d4 e4 bf c8 be fd fe 05 b9 c2 3f
       -0.6509760461095783 0.14627146673909963
000660 5e 9b a5 7a 7b 08 fe bf 2f c1 9d c2 e5 fa fc 3f
       -1.877070883836232 1.8112542726704068
000670 ae ae b7 3a 1a 76 05 40 e8 c4 03 5e 61 47 cc 3f
       2.6826672160439875 0.2209283551269785
000680 22 53 2a 32 99 f4 f2 bf f7 41 79 7e 91 01 eb 3f
       -1.184716411550831 0.843941447275994
000690 a0 4b 66 81 17 cf d8 bf e4 f3 17 78 10 d4 e3 bf
       -0.38763988148383 -0.619636759336228
0006a0 a3 10 91 6d a0 da f9 3f 12 99 f6 44 1e b5 d1 3f
       1.615875652308241 0.27667958006567617
0006b0 e2 75 9a eb 0e 05 0c 40 85 44 78 94 3e fe 01 c0
       3.5024698645126913 -2.249142799301412
0006c0 8c 8e dc df 5b b1 d6 bf e5 3a f2 01 5b e4 c0 bf
       -0.35457512723426343 -0.13196885676412431
0006d0 96 26 8d 28 68 9f e6 bf 1c 98 ca 9c 02 21 ee bf
       -0.7069588462847658 -0.9415295660335263
0006e0 1c ef b3 6c cf 83 02 c0 9c da df c0 4e 8e 05 40
       -2.314360474816466 2.694486147719841
0006f0 a0 53 b9 00 7a 06 f4 3f d0 e3 69 84 10 4e 82 bf
       1.2515811947134594 -0.008937958756392833
000700 20 1a 11 f1 5e af d8 bf 33 b0 04 7c de f4 03 c0
       -0.3857037882011429 -2.4945649804049252
000710 b6 a3 f8 a1 b0 80 fe 3f bf 80 b3 98 fe f4 09 c0
       1.9064184500696064 -3.2446262292652075
000720 92 0f 83 3d 8f 60 06 c0 e2 85 12 2f 0b b8 00 40
       -2.7971482091542805 2.0898650815513387
000730 76 9e 7a 3e a8 78 e6 bf 82 e7 f8 ff 33 86 e1 3f
       -0.7022286625187479 0.5476322173555987
000740 eb 6d 2b 5e ca 7a f3 3f 5c b3 81 4f c9 2a 00 40
       1.2174781492711826 2.0208917819458474
000750 1f 3d 3e b6 db d4 c2 3f c0 f2 0b 1f 4a 99 9b 3f
       0.14712091826047755 0.026951940674723174
000760 7a e3 fd fe c7 db 00 40 d9 0c 55 e1 5b d4 01 40
       2.1073150559645315 2.2286908725815064
000770 3f e4 21 b6 91 f3 df bf 4c 58 cf 61 c8 3a e8 bf
       -0.4992412832867252 -0.7571756277418529
000780 f2 71 a7 2f e0 e4 f5 bf 08 3f 93 76 90 0b f9 3f
       -1.368377863072166 1.5653233177035322
000790 5e 51 5a 37 b4 05 ee bf 1d 77 72 dc ed 4e e3 3f
       -0.9381962853536086 0.6033849053962715
0007a0 00 99 5c cb e2 fd 68 3f ba c4 9f fb 56 57 10 c0
       0.003050749738480296 -4.085292750956052
0007b0 60 32 2f fd 12 ab 9e 3f d8 02 d2 f1 26 4b 08 c0
       0.02994947119059288 -3.0366953747000984
0007c0 4e 5f b3 1e a5 c6 e1 bf 8a a7 bb d1 0b b4 fd bf
       -0.5554986571905631 -1.8564565842338845
0007d0 60 b1 25 6d 2d 6f b3 bf bd 99 52 87 bf 05 04 c0
       -0.07591518320777402 -2.50280671807124
0007e0 f8 32 63 88 f0 00 f1 3f 68 b6 68 a4 44 9d d2 3f
       1.062729389918955 0.2908488851124731
0007f0 d0 4a 5f 98 4e 29 f0 bf 5e 34 27 fb f9 ca c1 3f
       -1.0100847198524896 0.13900685084664394
