enemy_2_run_4/best_weights_enemy_2_run_4.npy (npy, 2248 bytes, 1 tensors)

array f8 [265]
0	0x3ffd5ae48b66865c	1.834690613301425
1	0x3ffd92d6ae60af97	1.8483492671611879
2	0xbffc0103669915d3	-1.7502473838552433
3	0xbfed957e28055234	-0.9244986325889557
4	0x3fe39f277fa05993	0.613178014059303
5	0x400504b544784b35	2.6272988652430294
6	0xbfd922f4231b237a	-0.3927584021408205
7	0x3fe1d8f5c865c7d5	0.5577343858733409
8	0x3ff33f506609b6f2	1.2029575334412894
9	0xbff0016c0c74f0c8	-1.0003471838563645
10	0xc008e4d06d49e398	-3.111725667779364
11	0x3ff45077e90bf3ed	1.2696456054102285
12	0x3f71f43b5e98d740	0.0043833083268987605
13	0x3fe84700e0819990	0.7586674103629765
14	0xbfeaf1167b3dd8ba	-0.841929665285327
15	0x3fc174079f6084c0	0.13635344774323777
16	0xc00708c9e503b69d	-2.8792913333662242
17	0x3fd85a3cfaca572f	0.3805077027440004
18	0x3fe352d81d6b9bea	0.60386281725084
19	0xbfe53ddaf5a95853	-0.663800697143197
20	0xbff0fc6bebd24111	-1.0616263591546764
21	0xbfe29cba78173141	-0.5816318841475906
22	0xbff2904d3dec3284	-1.160229913602195
23	0x3ff5f17fda5c0650	1.3714598207156037
24	0xc012736714a0ee49	-4.612697908708989
25	0xbfd728c47947a556	-0.3618632492421815
26	0xbfe621ae7b2a9c1a	-0.6916115193934076
27	0x3feb0f2b164ffa7e	0.8456016002454161
28	0xbff4a58532558c46	-1.2904102293184834
29	0xc00108afdae5c194	-2.1292416669240968
30	0x3fc5657beeb62b20	0.16715954929198862
31	0x4000bf9c2f5f3983	2.093559618085409
32	0x4000533c3c84c5e3	2.0406422355670073
33	0xbff981b6165a9186	-1.594167792624917
34	0x3ff679cf72d00c92	1.404738853919103
35	0xbfdfcd8005af0060	-0.4969177299026395
36	0xbfe33195f74b9da0	-0.5998029546726009
37	0xc0058243ecf58b96	-2.688606120341727
38	0xbfc482bb33f23edc	-0.16023960148276373
39	0xbff444cfac5e0dfe	-1.2667996152021028
40	0x3fed54ba0ce36a73	0.9165926219678354
41	0x3ff78e2b229c1c3d	1.4722091056771796
42	0x3fe6e9313f6d719a	0.7159658659762045
43	0x3ffe9a053103c1f0	1.9126026072154865
44	0xbfdfba3dfdb0025c	-0.49574231886075437
45	0xbffbb2dc2fa1207f	-1.731167017032959
46	0x3ffb82671a366424	1.7193366073536334
47	0xbffbc6ee3d028569	-1.7360670455167002
48	0x3ffe4b3c90f06c34	1.8933683072743976
49	0xbfe0a85a04b66132	-0.5205507366218056
50	0x3ffa78b6cfffd766	1.65447121858366
51	0xbfb8d177bff9be68	-0.09694622456458435
52	0x3fef5f781fdc72a2	0.9804039594924527
53	0x3fdbcdb80e881ff0	0.4344310895835397
54	0xbfe30707ff281b2f	-0.5946083053139314
55	0x3fefc64aeacf7a21	0.9929556451932663
56	0xc001fbced10bd9e2	-2.2479530650846167
57	0x3ff19545babbd124	1.098943452289924
58	0x3ffd8d726b59725c	1.8470329469047533
59	0x3fd5f51359eec4ac	0.3430832269905959
60	0x3ffd2dd3182c7d92	1.823687643460151
61	0x4003ec58e1196552	2.4904038987994364
62	0xc000db5bfbb137af	-2.1071090377290242
63	0x3fd6c85359d02744	0.35597690363703216
64	0x3feff79b55b588e2	0.9989754365926979
65	0x400016a497da17c1	2.011056124060787
66	0xbfe9e68b4e7aada4	-0.8093925984189139
67	0xc00300885c8a1b26	-2.3752600888868924
68	0xbf8213c11adb2500	-0.008826740867692084
69	0xbfcc022d9a2aed10	-0.21881647136420002
70	0x3ff571780ab4375f	1.340202371418364
71	0xbff022497762bbab	-1.0083708442213986
72	0x3ffde8a1a7ae5c2c	1.8692947912256939
73	0xbfebd219a9f2e259	-0.8693970031082002
74	0x3fb988ce910b2158	0.09974375763988996
75	0xbff2bed02faad01e	-1.1715852605821122
76	0x3fd136d510d64b14	0.2689716972756042
77	0xbfe0b5b34b724096	-0.5221802209434994
78	0xbfafda5ca1defcf6	-0.06221284366574224
79	0xbfdc42db1272a081	-0.44158055116214007
80	0xbff79f06e05260a4	-1.4763249170846757
81	0xc001c284178a6692	-2.2199785079108745
82	0x3ffa4822150c6b3b	1.6426106283385724
83	0x3ff689f2d5428e78	1.4086788492649287
84	0xbfe850951fef87de	-0.7598367332213873
85	0x3fe7d7ca222b3598	0.7450915019377815
86	0x3fed4033de769bb4	0.9140872330652798
87	0xbfed8c4b5c7c2a3b	-0.923375778803638
88	0xbfb48f03f9a2f590	-0.08030724377291265
89	0xbffba88c29724701	-1.7286492938041536
90	0xbff34a03d457ffe1	-1.2055700583150541
91	0x3ff6c2be4a64b098	1.422544756506829
92	0xbfffb96da79c4d9e	-1.982770590523479
93	0x3fc521786cf6aca6	0.16508393593298826
94	0x3ffe28e53761b997	1.8849842227315088
95	0xbfd47790e1ea3f5b	-0.3197977262689073
96	0x3fe2ddb143e95c0b	0.5895620657346411
97	0xbfc9a5605dce68e0	-0.2003593881643786
98	0x3fad6f0c84f84504	0.05748786090055982
99	0x3feb848ebea19a55	0.8599313472048588
100	0xbff1e7382abf6d46	-1.1189500493845386
101	0x3ff5007c9468aecc	1.3126188084815338
102	0x3fc1254219ba04f8	0.13394953018363487
103	0xbfca57eb4c4cc3d0	-0.2058080790098118
104	0xbff409f98e4d6984	-1.2524352606475029
105	0xbfe11a155a676766	-0.5344340100957481
106	0xbff1aa3d0fbdc667	-1.104062139024245
107	0xc007052ab42058e6	-2.8775228569385147
108	0xbff95aabed8427f5	-1.5846366193750303
109	0x3ff11ea912a2e6ba	1.0699854591352236
110	0x4004e4546761a478	2.611489112536727
111	0x3fc11b99334ab438	0.13365473751528767
112	0x4004aa481ade622b	2.583145341788869
113	0x4001103373079e7f	2.132910631818788
114	0x3feebe24b7062304	0.9607108664214086
115	0xbfe8c50e35c03712	-0.7740546274014568
116	0xbff2379905733b97	-1.1385736668487192
117	0x3fd6ad83b4217458	0.3543404826248824
118	0x3fc012dded5b5a42	0.12557577218713517
119	0x3fe4f0eca160b082	0.6544097091587135
120	0xbfeb05110d0f3112	-0.8443684821191104
121	0x4006afacf883f954	2.835779134299779
122	0x3fffc6819f5de0a0	1.9859634614240704
123	0x400155691c6806b8	2.1667043895002642
124	0xbfe381224f9de8b0	-0.6095134310737844
125	0xc00d6f5567801a3e	-3.6793621145218642
126	0x3fe9e664ca2e41f3	0.8093742321817089
127	0x3fd0335fbe7895b6	0.2531356201237388
128	0xbfd926df9fb24312	-0.39299765200944237
129	0xbfe9d802b4927dd2	-0.8076184775163091
130	0x3ffccf6572ea8f89	1.8006338585773582
131	0xbffd699098e1e7d0	-1.8382726642580458
132	0x3ff1ae26982bfe44	1.1050172752583345
133	0xbfe38ff97a925749	-0.6113250154473714
134	0xbff7b7291e5c4f40	-1.4822169481239627
135	0xbfd2f82b37401980	-0.296397022204836
136	0xbff31979d016bc7b	-1.1937196854085232
137	0x3ff0b7d76a04e469	1.0448831693049903
138	0xbfe38e4c4c0b809e	-0.6111203656437458
139	0xbfedf1994ca67a14	-0.935742044170015
140	0xbfcc9dd90187017e	-0.22356712889269298
141	0x40024c9765b425c4	2.287398142395178
142	0x3fe3024603a81ad2	0.5940275260371328
143	0x3ffef81478217cce	1.9355663960084715
144	0xc0009ae9f767d422	-2.075641568046664
145	0xbfe5efc75e49fae2	-0.6855198709089019
146	0x3fff2a377cac3b49	1.9478068227796987
147	0xbfd99fe1348eddf0	-0.40038328297256864
148	0xbfe2bcbd0914c561	-0.5855393578878357
149	0x3fec1448f6e0baf8	0.8774761983712258
150	0xbff44bc3dddab9d1	-1.2684973398387351
151	0xbfdea2527fe8f64c	-0.4786573647614645
152	0x4005f3881051df8c	2.7439118647561767
153	0x3ff7856e2c7797e8	1.4700757729528906
154	0xc00b9d75685692c6	-3.4518840934200368
155	0xbfcbf95ec25d8e54	-0.21854767313480983
156	0x3feeb5f82c26ec2c	0.9597130644173197
157	0xbfe22e3068e07ba8	-0.5681383179070183
158	0x4005266934f73481	2.6437553537312515
159	0xbffde31470b145a9	-1.8679394151734903
160	0xc00198bd99e45a27	-2.1995803854763554
161	0x3fee1ca3840d14d5	0.9409959391711263
162	0x401223dad397c93a	4.535014444484029
163	0x3ff48a7b8574ac17	1.283809205352332
164	0x400094829a40f147	2.0725147296017528
165	0x4005dc79924529c2	2.732653753982249
166	0x3fdffaea9321814c	0.49968971603631895
167	0xc00089ec64ac881e	-2.067345415606737
168	0xbfd1febff79a8997	-0.28117369823498833
169	0xbfd1e340c128d2a0	-0.2794954191515817
170	0x3fe4d5f740b24dec	0.6511188758472009
171	0x4000284369b360de	2.0196598298899593
172	0xbff4a2ea9f2910f8	-1.2897745339587896
173	0x3fe107dd8c3aaa1b	0.532210134396624
174	0x3fb91362f84aaa78	0.09795206605728335
175	0x3ff45c761084abc2	1.2725735326045968
176	0xbff94c051d5de504	-1.5810595652713468
177	0xbfec2cf3bcd1250a	-0.8804873168784593
178	0x3fe46cb506cf937c	0.6382699139618206
179	0x3ff0ed95eebae117	1.0580043149366867
180	0xbfdc249ea1c80fb0	-0.43973508643125125
181	0x3ff554048f74abed	1.3330121616115733
182	0xbfc7fb162b33d5bb	-0.18735005483146758
183	0xbfe56ec0a2620859	-0.6697695895711703
184	0xbf9c9754b28ecc88	-0.027921031378082023
185	0x40041d94e95793f6	2.51444418238179
186	0xbfe15b9e4a895eb2	-0.5424338775437347
187	0x3ff53d70f38fdc38	1.327500296987422
188	0x3fea6c8c1209471a	0.8257503845472656
189	0x3fe8795c10c08c34	0.7648144080343457
190	0x3fea30fe7e606e89	0.8184807270331059
191	0x3ff1105cf89d3948	1.0664949141970101
192	0xbfc64b1d39d824bc	-0.17416730236462807
193	0xbfe710c2ae239a20	-0.7207959557679864
194	0x3fb73e1fc9f6c994	0.09079168968927426
195	0x3fe7f6acfb672765	0.7488617811406867
196	0xbff8b57aa2c73279	-1.54430640778733
197	0xbfe0610055c4658f	-0.5118409800663118
198	0xbffbb0b91d0acf36	-1.7306452879392515
199	0xbff0b1b007396418	-1.0433807642168684
200	0xbfa161e2dc855b40	-0.03394993726640516
201	0x4008df804a60a3a7	3.109131413530537
202	0x3fee0bdf792f352e	0.9389493338473238
203	0xbfe3377a9f72038c	-0.6005223383109395
204	0x3ffabacd124ea1e5	1.6706057276843407
205	0x3ff5645b88cf48ce	1.3370013565186585
206	0x3ff8aac26cbb6e3c	1.5416893241262093
207	0xbfb8447fb9950786	-0.09479521065534699
208	0xbfddc2ff52bbc616	-0.465026694101739
209	0x40063004123b5480	2.7734452652317145
210	0xbf91a9e390f1bf20	-0.01724963733835161
211	0xbfecb465ea0f3b81	-0.897021252772774
212	0x3ff475c39cb7047f	1.2787510034252418
213	0x40055acec3251142	2.6693396802603795
214	0xbfdab1a71f29033d	-0.4170930675791629
215	0xbfe767262db46aa6	-0.7313414471312469
216	0xc01171d6d7f5d5fe	-4.3611711257740335
217	0x400cd0864e85093f	3.601818669733944
218	0xbfed91e8d1b7d6bd	-0.9240612121636428
219	0x3fd46d8d915f67c6	0.31918658443975934
220	0x3fe191f1b1d57b32	0.5490654443090988
221	0xbfec604db71abfbd	-0.8867558075198684
222	0x3ff482d04b37752f	1.2819369257116013
223	0x3f70acba3c1de980	0.004070975761232609
224	0xbff280fd20839959	-1.156491400726358
225	0x3fc24c8a10790fdc	0.142960794490249
226	0x3fd18303c7782020	0.27362150649469363
227	0xbfe0ca48f0a00296	-0.5246929835994532
228	0xbfef7f6484bfa41c	-0.9843008606668522
229	0x3ff007a60d9a894d	1.001867344989097
230	0xbff77c156e54db85	-1.4677938756774165
231	0x3fd1ec5912deb21b	0.2800505337025087
232	0xbfff57d11ae7bae2	-1.9589396525367921
233	0xbfc921d218936b18	-0.19634462547295395
234	0x3fcee0d9ad1b2f3e	0.2412368865246836
235	0x3ff85596f4b7cc96	1.5208959159179236
236	0xbffbf2d73b8e2b64	-1.7467872930889934
237	0xbfcc7c8e41f31f38	-0.22255113811683613
238	0x3fe9ebd75c9c2276	0.8100392159258962
239	0xc00598b0c9dcad9e	-2.6995559473486557
240	0xc0066acea77ba478	-2.802151974163788
241	0xbfe0246cf14c955a	-0.5044464791177845
242	0x3fd3d1c53ed8cdb2	0.30967837464705916
243	0x40108fdf769a1a63	4.140500882297235
244	0xbfdf59db48e4e2d6	-0.4898594104629813
245	0xbff23206e9a8700d	-1.137213623739629
246	0xbffba48eb89ab957	-1.727675171957875
247	0x3f94e60add6795a0	0.020408792270151133
248	0x3fcc94024f2054e0	0.22326687682713153
249	0xbfdf8405c50b8a44	-0.49243301623042535
250	0xbfee6645438db684	-0.9499841994672384
251	0x3ff10ec06c718abe	1.0661014782023552
252	0xbf85364b464d83c0	-0.010357463915797172
253	0xbfd3d826bccc5637	-0.31006782948802275
254	0x3fda0c8fea7c0bcc	0.407016734112571
255	0xbffb5592d846e0a1	-1.7083919952693025
