enemy_8_run_9/best_weights_enemy_8_run_9.npy (npy, 2248 bytes, 1 tensors)

array f8 [265]
000000 cd fd 1e 4e d4 ed 05 c0 27 4c a4 f6 98 9c 04 c0
       -2.7411275962074115 -2.5764636296167
000010 8c 5e de 58 c1 5e 03 40 6e 6e 73 30 aa b0 fd 3f
       2.4212672179090244 1.8556310551274708
000020 8c 88 68 f6 46 4e 00 c0 da e4 48 83 b2 57 14 c0
       -2.0382212877894457 -5.085641909908384
000030 e4 4a 94 af ff 53 04 40 0a 7c 0f 58 65 4d 0f 40
       2.5410150258188526 3.9127909545636657
000040 6b 2d 10 ca 3c a9 09 c0 64 2e a5 82 ac 54 f4 bf
       -3.207635477656074 -1.2706723311738637
000050 bb cd 7a 6b 4b 99 12 c0 6a 87 22 e9 54 4c 09 c0
       -4.649701766367282 -3.1622713292753604
000060 3a b2 f8 78 0e 54 ef bf 95 51 07 21 56 94 1f 40
       -0.9790108072971357 7.894859806129166
000070 24 05 5c 26 93 f8 06 40 91 de 9b 2c c7 5e 08 c0
       2.871374416049223 -3.0462783322398725
000080 be c3 41 fb 21 86 f3 3f 00 c8 18 d4 4d e7 ac 3f
       1.2202472510073075 0.05645220960686004
000090 ad 05 de fb 16 85 e6 3f 6d 57 25 cd 31 a4 10 40
       0.7037463111193368 4.160346227077622
0000a0 f5 4e f4 4d fe 4c 04 40 6e 06 1b c2 a5 7d 0c c0
       2.5375944223577513 -3.5613513149735843
0000b0 02 48 ac 6b 89 2f 0f 40 1f 9b 33 b9 75 54 f0 3f
       3.8982113277388644 1.02062008232469
0000c0 6c 7b 8e 42 b2 2e 1c 40 90 d8 26 78 51 52 11 c0
       7.045601882883471 -4.330388905878991
0000d0 e2 41 3f 4b 88 59 20 c0 e2 20 c5 2a 43 ce f8 3f
       -8.174867965194554 1.5503570242599882
0000e0 10 c9 64 41 fe f6 16 c0 44 de e4 f7 24 7a 07 c0
       -5.741204282547429 -2.9346408240051307
0000f0 85 d6 01 1d 2f 49 0a 40 d8 aa 19 b3 c0 dc 07 c0
       3.2857343927560714 -2.9827894203384453
000100 c0 cb a7 59 45 79 fd 3f 58 03 6d 60 5d 21 e1 3f
       1.8421071531454203 0.5353228457753216
000110 d4 88 2f be 62 cd ff bf 71 bb 3e 56 f7 a6 f2 3f
       -1.9876429967048823 1.1657632225939916
000120 48 13 0b cc dc 9a 17 40 98 c1 83 a7 78 f1 04 c0
       5.901232898879989 -2.617905911167508
000130 5a 17 99 91 53 6f 21 40 28 0a b1 bd 45 41 06 c0
       8.717434453905003 -2.7818713016179295
000140 fc 17 ec b8 64 3b 15 40 5f ac 44 9f 80 a4 0f 40
       5.308001412782684 3.9553234522659717
000150 bb 63 d5 86 f1 22 05 c0 8f 3b e6 ed ab 1b d7 3f
       -2.6420622381087617 0.36106394035680806
000160 58 3c aa c8 2c 70 de bf 73 b8 25 fd da 1f 18 c0
       -0.4755966148013093 -6.031108813693311
000170 9e 0c e7 e3 9c 64 e3 bf c2 27 c7 e4 e7 f9 1f c0
       -0.6060318423482334 -7.994048666625476
000180 9b a1 6b 20 ce 7e 00 40 98 06 a6 8f b3 b3 04 40
       2.0619165928694208 2.5877448294202843
000190 9a 2a 31 bc 01 dd 02 40 bc 5d 3b 0c 28 f8 05 c0
       2.357913465738716 -2.746170135080062
0001a0 a8 d7 e0 e0 ac de fa 3f 38 af 8e b4 1d e1 f9 3f
       1.6793640884693364 1.6174599698087615
0001b0 4e 4e 51 1b b7 f4 17 40 b2 47 c4 d6 57 89 02 40
       5.988979746663587 2.317062070717804
0001c0 bc 81 6a d9 53 67 05 40 a6 ba 2c ec ab 5c f3 3f
       2.675452898562268 1.21012489562751
0001d0 32 ca 48 1b 0c cd 01 40 2a 02 48 95 f4 8d 02 c0
       2.2251207477177326 -2.319314161548637
0001e0 42 32 f0 dd be c5 d1 3f 08 4c 15 8a 24 46 03 40
       0.2776944320073974 2.409249380850728
0001f0 fc 56 d5 49 04 59 03 c0 38 ec 17 df 6d 9c ea 3f
       -2.4184652107459197 0.8315953595441732
000200 b6 dd 17 76 09 7e 11 c0 ed 2b bb 7e 6d b6 0e c0
       -4.373082967001599 -3.839076032721542
000210 74 77 6b 60 48 a5 15 40 a6 60 e2 e5 67 e1 f6 3f
       5.41140890746998 1.4300307254652949
000220 fc e1 ab 9f 01 b5 03 40 38 c4 f5 f6 02 ac f1 3f
       2.463382003243394 1.1044950148464192
000230 be f0 f0 c1 1a 55 02 c0 c6 59 e3 c0 88 45 06 c0
       -2.291554942288797 -2.7839522427923127
000240 74 40 3f 86 9a af e1 3f 44 cd 6e bf 92 ca 10 40
       0.5526859876645305 4.197825423372084
000250 3e 16 b1 65 96 50 11 40 9c 94 2c ad 53 94 15 c0
       4.328698719914938 -5.39485045036886
000260 e6 c5 69 a8 2d e1 0f c0 2c 63 f7 33 83 f1 0b c0
       -3.9849503667144175 -3.4929260311004295
000270 ff 70 76 65 2b 5a f3 3f 52 26 62 b9 7f 08 f4 bf
       1.2095140422234747 -1.2520749322451548
000280 55 f3 10 44 9e b0 f9 bf 8c 31 c8 31 99 36 19 40
       -1.605619684108395 6.303318765491337
000290 94 4e c0 97 0b a3 e0 bf 18 de a8 60 32 c2 06 c0
       -0.519902988804875 -2.8448226501020706
0002a0 4c fe a4 2c 6d a1 f0 bf 05 8c a8 ec 57 c4 14 c0
       -1.0394107574392306 -5.191741655146875
0002b0 f1 e6 4c c2 66 03 11 40 58 5b 4c 01 f1 df 14 40
       4.253321681922658 5.218692798886728
0002c0 dd 22 66 d9 67 db fe bf 47 f9 a5 b5 aa 50 07 c0
       -1.9285658352038617 -2.9143881026531377
0002d0 6e 6b f4 a0 d4 d0 06 c0 da a1 b4 9f 29 e3 f1 bf
       -2.8519680571165997 -1.117959617471675
0002e0 0c cb 6e c4 1e 59 0d c0 b5 da 45 11 ab b5 09 40
       -3.6685157152472865 3.2137051915591095
0002f0 d3 5b 26 66 2d f6 12 c0 0b 7c 07 3a 2e 3e f6 bf
       -4.740407558528164 -1.3901808039443064
000300 6e 55 f5 3d 57 9a 07 c0 df fb d1 06 52 ce 03 c0
       -2.950361713456622 -2.475742390902709
000310 52 86 6d 65 42 63 fc bf a9 0e 0e 10 3d 0e 04 c0
       -1.774233242227997 -2.5069524053850114
000320 57 3c 4c 42 cc e6 17 c0 bd 51 8f 30 32 cb 07 40
       -5.975388561156328 2.9742168229806496
000330 a2 a7 4b 5e 48 07 fb 3f 4b ed 70 12 2e dd 02 c0
       1.6892780002039918 -2.357998031684166
000340 4e f6 56 f2 ee 85 f4 bf 77 2d 3d 89 29 a4 0c 40
       -1.2826985803980224 3.5801573488039895
000350 72 08 9c 2d d5 c1 00 40 00 77 1a 2c 38 02 d6 bf
       2.0946448863260736 -0.3438854628274015
000360 1a 74 e3 60 bb 68 12 c0 37 d8 28 db 21 ed 16 c0
       -4.602277292139684 -5.731574463241535
000370 0c 5d 19 5b 49 8a da bf 5e a1 04 06 90 aa f1 bf
       -0.41469034096140045 -1.1041412577706846
000380 53 0c 3b 45 58 5b 10 40 6a 8f a9 5c a1 c8 f7 bf
       4.089203912476552 -1.4864820117590747
000390 14 d9 5c bb 36 3c 02 c0 07 bf 2f 06 c1 33 d8 bf
       -2.279401267786975 -0.3781588135161517
0003a0 e6 fb 0d 00 e6 df 18 c0 38 71 f6 92 32 f3 ff bf
       -6.218650818685068 -1.9968744030694108
0003b0 9c 76 f1 da 8d 54 01 40 ae ed 96 ff d9 f7 0d c0
       2.166286192411304 -3.746021267693968
0003c0 54 be c9 e4 96 cd 07 c0 e8 e7 db 86 6d d2 fd bf
       -2.9753854631488057 -1.86387398413944
0003d0 4c 4d 05 f3 a5 9e 00 c0 9d 2c 5f 6e cc 03 00 c0
       -2.077464960669806 -2.0018547652048952
0003e0 2e 1d fc 3b 78 ef ea 3f a8 d5 1d 91 f5 c7 d5 3f
       0.8417321368769188 0.3403295437959408
0003f0 6a 0f 9a 9e c9 04 1e c0 9c c8 49 5e 8d 8f 06 40
       -7.504675367501344 2.820093857409189
000400 74 7a ba fc 53 c1 0d c0 3b 2d a6 b8 ff 25 20 c0
       -3.7193984741600676 -8.0742166235783
000410 00 2c d1 cb 82 2d c4 3f 53 c3 2d cc a5 6c 09 c0
       0.15763888313298935 -3.178050608774734
000420 77 57 f9 43 ea e5 11 c0 cb 2b 15 c7 5a e3 e1 bf
       -4.474526464551551 -0.5590032471021628
000430 3a 56 c9 03 fe 3d 01 c0 c4 c6 d4 f3 f6 35 0a 40
       -2.155269651014149 3.276349930697366
000440 40 6b b3 14 f3 c4 01 c0 0e bf 0c 69 cf 08 f8 3f
       -2.221166764951164 1.5021509269244606
000450 5e 51 3a a4 cf c6 01 c0 c3 a8 79 89 82 4c eb 3f
       -2.2220757322594826 0.8530895886481392
000460 d5 18 cc 31 11 a1 fc 3f 75 5d 1b 1e 9c c4 09 c0
       1.7893230385976058 -3.221000895700565
000470 c4 d1 2e d3 91 72 f9 bf 66 c2 9b 5e 04 2e 16 c0
       -1.5904711007434438 -5.544938543564603
000480 75 3b 7f e5 4e 7a 0a 40 ab 9a 99 27 4b 8c 0b c0
       3.309720795579262 -3.443502721190574
000490 d5 9d c2 76 56 76 f5 bf 85 9b 13 48 54 26 f0 3f
       -1.3413910521575094 1.0093577208988063
0004a0 30 74 90 1b 67 a1 0c c0 03 85 3c 42 35 95 04 40
       -3.5788099435290164 2.57285548922721
0004b0 f5 ba 5c 24 0e 75 11 c0 f6 55 ed a8 76 06 d9 bf
       -4.364311760101136 -0.3910195016554491
0004c0 a2 bd cb bd 15 1b c7 bf 73 f5 91 02 ee 4c 11 c0
       -0.18051406638504114 -4.325126686247461
0004d0 a8 f1 12 16 e3 cf d0 bf 33 21 ff 19 e3 2b f4 bf
       -0.26268841891922046 -1.2607146277897072
0004e0 9c 87 05 bd 87 9b d8 3f 3c 7b 54 f6 54 a1 f7 bf
       0.38449281176701233 -1.4768876669183575
0004f0 da 79 5f 9a 17 19 c9 3f 78 2a c1 7f 47 6b 04 c0
       0.19607825315229271 -2.552382467348533
000500 d4 34 40 03 b6 c5 fc bf d8 d7 36 3b db c8 16 c0
       -1.7982692839607823 -5.696148801061973
000510 d1 16 d5 16 97 6a 06 c0 38 e6 b9 57 54 38 f6 bf
       -2.8020459922580376 -1.3887523104480248
000520 20 8e 82 a7 d8 15 ba bf fc fb 02 f6 86 72 0a 40
       -0.10189584817504072 3.3059214801464787
000530 40 83 35 2e ea 6e a4 3f b0 50 6f b1 29 a2 ca bf
       0.03990871252131578 -0.20807381786165058
000540 74 2c 68 3d f4 f8 21 c0 98 0e f8 47 93 f0 06 40
       -8.986238402334699 2.867468416459655
000550 54 1d 7f 60 29 4f f9 bf 48 db ce 13 08 a1 0f 40
       -1.5818265694996017 3.9536286876204123
000560 84 95 2a 2a c1 53 0a c0 10 3d 2e 0f ea 74 e4 3f
       -3.2908957761998767 0.6392717644211263
000570 5a 7f fc bf 40 f3 d4 3f ea 1c d6 6b ab a5 05 40
       0.3273469805590047 2.7058933663098417
000580 bc 13 48 de a2 ac 04 c0 cc 91 3f 98 b9 b1 f8 3f
       -2.5842950216051275 1.5433898875427188
000590 64 6e 28 a2 68 e9 09 40 96 2b 38 63 ce c0 e9 bf
       3.2389691036785724 -0.804785913265152
0005a0 d4 67 c8 41 5c b1 01 c0 30 4d 25 89 15 bd e3 3f
       -2.2116017474445275 0.6168315580966119
0005b0 a3 9b 4c c7 99 59 f3 bf e0 ea 0c 9e 0b 5e f2 bf
       -1.209375170242972 -1.1479602979513217
0005c0 ae 41 45 57 54 3a 0e 40 57 7c e6 0e a1 c8 18 c0
       3.7784811800012994 -6.195926888292056
0005d0 d0 96 49 40 e8 0e 0a c0 fc 30 3a b8 c2 20 00 c0
       -3.2572789213616957 -2.0159963982351865
0005e0 64 fb ed ef a1 25 13 c0 29 18 fd 90 b8 16 01 c0
       -4.786750553989666 -2.1360942198980593
0005f0 56 ba 44 24 16 41 08 40 f6 56 00 47 84 b4 02 40
       3.031780513141068 2.33814292402064
000600 0e 6c c6 b3 8b a6 ea 3f c5 00 a1 82 83 8b 01 c0
       0.8328302870971827 -2.1931219296821802
000610 20 05 05 68 16 41 13 40 10 01 fe c3 9e 12 1f 40
       4.8135620358528115 7.768183767679389
000620 4e 4b 81 52 88 c3 0c c0 e2 83 63 47 a1 3a 08 40
       -3.5954748578746267 3.0286279275173777
000630 83 f8 1b 91 fc 67 11 40 a6 2c a3 a0 d0 7a ff bf
       4.3515494035074225 -1.9674841189287604
000640 aa 78 17 0d b4 cc 11 c0 ca 17 4e b6 06 49 fd 3f
       -4.44990559058912 1.8303286668101344
000650 64 3e 90 b9 e4 0b ef bf 50 c6 d8 70 eb 65 0d 40
       -0.9702018379484341 3.6747654739527107
000660 46 00 c3 4d 9d 39 e6 bf dc c3 3f 2c b8 a5 f9 bf
       -0.6945330160888339 -1.6029588440398959
000670 8d 08 ec a0 aa 85 ff 3f a0 b2 c1 fc 62 64 f0 bf
       1.9701334272399749 -1.0245084641748363
000680 9c a1 2d e0 2a 22 00 40 4c 71 c1 62 1e b2 f0 3f
       2.016683341400677 1.0434860093729013
000690 cb 9d 03 1c 9b 89 f0 bf 14 a3 34 d9 fe 80 10 40
       -1.0335951895047966 4.125972169721326
0006a0 58 c6 a8 bb 58 65 18 40 3c 12 de 9c 8c 68 f9 3f
       6.098971302200503 1.5880247237811451
0006b0 c0 03 9a 85 38 c0 f7 bf da d7 8f ad 5d db f5 bf
       -1.4844289034665366 -1.366056135154841
0006c0 3d 59 b1 3d 27 5b f3 3f f1 67 2f 8a 96 1d 15 c0
       1.2097542199968097 -5.278894576209482
0006d0 da 9b 8f ac 6a 59 20 c0 47 9c 9e 5c e0 ed f1 3f
       -8.174641983538027 1.1205752962066684
0006e0 24 ac b9 b8 7d 9c cb bf 23 35 82 df 62 ad f2 3f
       -0.21571322936810688 1.1673306208425138
0006f0 80 99 fc cd e2 2d e6 bf 65 cf b6 4f bc 97 1b c0
       -0.6931013129404135 -6.898179288418622
000700 0e 0d 27 7a d2 4d f0 bf 8a 32 72 5f 62 9e 08 c0
       -1.0189995547851285 -3.0773360687947546
000710 3f ab b3 a8 49 e2 f0 bf 92 fc 2e 9d ca c9 05 40
       -1.0552460279383948 2.723530986782472
000720 b8 35 b8 f9 2e 5e 01 c0 db 3a e1 0a af 5f 07 40
       -2.17098803609289 2.921720585821601
000730 17 0f cf e6 ba 3d 20 c0 b2 86 84 dd 1e 91 0b 40
       -8.120566571021795 3.445859652144315
000740 40 75 13 8e 03 8b 12 40 60 60 f8 89 a7 7e e4 3f
       4.6357557486892915 0.640460748169982
000750 29 a9 75 26 9e 08 03 40 e2 4d 2d 24 17 58 20 c0
       2.3792078976304265 -8.172051554231931
000760 62 76 63 5f 48 a8 01 40 3c d6 d8 94 04 51 15 40
       2.207169289801457 5.329119039282485
000770 86 94 eb 23 60 0a 20 40 81 88 b6 68 2b 35 19 40
       8.020264742381425 6.301923404828018
000780 5f 76 a0 5c 01 df 1f c0 88 e5 d4 1b e8 25 f6 bf
       -7.967778632444236 -1.3842545592472977
000790 79 4b 79 f0 2d 02 16 c0 90 93 2d ba 6b b9 1b 40
       -5.502128369715927 6.9310750093763005
0007a0 ee ec f5 87 e3 c8 17 40 35 ad fe d5 e3 07 14 40
       5.9461804622508065 5.00770506255076
0007b0 d0 19 67 59 6a 0b 0b c0 bf 14 03 99 0e fc 17 c0
       -3.3805739388073803 -5.9961494358187215
0007c0 7c 16 e4 fe e2 07 04 c0 c8 9b 01 af c6 20 ef 3f
       -2.5038509286267168 0.9727509897319289
0007d0 48 df 47 09 ce 54 09 40 d8 8f fc 54 0c c7 eb bf
       3.166408607965341 -0.8680478725332206
0007e0 11 51 da cd 95 f8 09 40 e0 82 bf 1b 5f a4 20 40
       3.2463794786691627 8.321038119438015
0007f0 f8 a9 a0 1e 99 7f f6 bf 92 61 cb 71 80 95 f7 bf
       -1.4061518856420872 -1.4739994473548887
