enemy_2_runs/enemy_2_run_9/best_weights_enemy_2_run_9.npy (npy, 2248 bytes, 1 tensors)

array f8 [265]
0.6295307920500162 1.9066870608686326 -0.7931500596041023 -1.7951311758082555 1.9410523086688767 2.161443613572218 -0.4295682149564444 1.7934852790745253
0.40622602443038813 2.3142740154641865 -0.27944276981414795 0.9581888951891443 0.23205216722864275 3.7989445487886377 -0.34246420106170666 1.0892420726581267
0.5566803038159712 1.6224860547471893 -0.9635791801849994 0.254039721172576 -0.6979782881666851 -1.5048523782010945 1.589188229983133 3.0928712336391664
3.2880014720170223 -1.486956480307628 -1.486195596705159 1.69538010433808 0.45402974191861956 -1.5643544953230892 -2.108444877680932 1.7025240983852448
-0.36456316454064497 1.682435677326823 2.169327938213815 1.7155469518052993 -0.3202882372295591 3.351240391582394 1.8763973349938246 -0.9066952334308428
0.9471734417201965 2.0229056654434023 -0.8472445228234434 0.6056369542640476 -0.16595373177727835 -0.17930061984419066 1.364155545314532 0.015485730401925357
1.1546149411807343 -0.32412447818986934 -0.17475341814900353 -2.3352747464890347 1.0182425628015863 -1.1107630015837051 0.8589131242789559 0.7265737125325795
0.3647239534936496 -0.4469408015627092 -0.9529589667460876 0.7753726862679594 -1.8277436971996959 0.7434396685702399 -0.36717083812684126 1.6308593814309549
-1.4727874105683678 -0.7076780007815224 -4.8006653200080605 1.850514286185471 1.2052320389231703 1.6746920741386708 -1.3651189604573783 -0.6998758178947745
2.8235078437959844 -0.04024370738722058 1.0465510341311222 -0.33261221356744863 0.6505605327882179 0.3790271666505175 2.07905808713909 -0.8276310996081869
0.2649222460634799 -2.6019407720798977 1.8551614382049448 -0.4396965404871831 0.9443974501953203 -0.29434417114818956 1.6442775942659646 -1.2266269542676271
-1.231249181611815 -4.1925828709984305 -1.8745749196607115 -1.1932985000607945 -1.6894989166625312 -2.031746694091975 -0.060623942278890564 -0.5671698094924679
0.8127792492887056 0.9532133959992724 1.032187668481193 3.5309612384966353 -1.1411879172206432 0.6264522612988939 -0.8420208117940635 3.4778281919127547
0.6166542956352375 3.7018193378360458 -1.8240243182232534 -0.46847876288938184 -1.1219939260049212 2.380691733010786 -0.6887415395082414 0.6837263054606307
0.7479964362721911 -1.1026714805997924 3.2976127329091103 0.1837315702980503 1.3353769786193381 -0.034069804389481935 -0.28811555944758804 -1.3921141086137334
-2.076015369366375 -0.00754352731795388 -1.1486976659535613 0.15957399529813032 0.5419630090945338 0.93564461857806 -0.27499091610745974 -0.5521446771578002
-2.588369774616562 -2.8724192105163215 -0.8260190845513526 -0.25004438494252135 -0.46622291540007804 4.838186789949878 -3.2694745351472942 1.174282868438576
0.7989628187124218 0.06039451863198042 1.816721921917873 0.2421128007196136 -0.4147029241966059 -1.2506818703537457 -0.672416396453591 0.4515568217851656
1.9985646501498766 0.12206147997020367 2.924205772485527 0.4555168606113207 -1.9927169735653703 0.2000047373739205 0.7109883970435322 0.3215300862254109
1.8322423413474307 0.38757557545504917 0.7013675645289468 -0.9352222280021824 -2.2024032980801493 0.5732859123176217 -0.9335528298625604 -1.884939325978499
-2.4672030808638485 -1.128725215812124 -1.4577173431417805 0.5101046038856616 0.9416805537322355 -1.0137652889140576 0.6474390318489578 0.21709608834344718
-1.5886760132752868 -1.1622148237005236 -1.9227625594347817 0.8953932683900069 -0.4546760313628261 1.1641154671015828 -3.6458168225294845 0.670975051719173
-1.9178191503401476 0.404287769657388 1.1416970196797105 -1.0342410265977935 0.07460610543848012 -1.3413605078594895 0.5007796860031191 -2.343154177245381
1.5002754025621574 -0.8649962048176366 -0.5580873181249295 -1.112488086135858 -0.5006343270018592 1.3219021323327318 -1.6125348597229676 0.7907355223319279
-1.270595661365545 -0.6690654751397412 0.5780273340417545 1.6891126030330001 0.41602311129559844 -0.14164890337710723 3.46575123483338 -2.5208755039770936
-0.7556222875202421 1.7021665804269515 -1.6771885659555652 3.139282477420217 -0.853571175986979 -1.4561953804867436 0.5218280811153507 -1.966493205909133
-1.437874556292829 -0.44782358684615586 -0.13080181027028476 -1.08493941261553 1.9136351522187018 3.1358338510213093 -1.6343861782813427 -0.22496116509969832
2.6445259737777373 -0.9875632056925179 -2.510927490385078 3.15033604564412 -0.44652020908138573 -0.44551431578995254 -2.552337770682936 0.24479996902804924
-2.4533735031825126 -1.8196874480373497 0.5296651889629401 0.19046593142287133 -0.2379210899156422 1.37307485681066 -0.6673535325298885 2.31589041604265
0.17090876068795877 -0.4878694217122156 0.9838498646408643 -1.4555768712554609 -0.3587127729683459 1.4264099908123478 0.5277282205599618 1.8463801111103815
-2.7131343632271316 1.4724199827741444 0.31347158001951125 1.3865954786576264 0.7320153319225695 0.5466738398428841 0.2851278818926511 -1.4592372648648866
-0.8209481739009217 -0.6317445236912533 -1.0317686326301905 -2.346681667310627 -1.8637104472073374 1.9825432877085065 -1.47299487942395 0.1632717046276921
00000000: e4c0 75c2 1d25 e43f b831 a24a ca81 fe3f
00000010: 043e da3b 7c61 e9bf 1406 c277 dbb8 fcbf
00000020: 12ee 98dd 8c0e ff3f a286 03f3 a24a 0140
00000030: d1e5 a8ae 0b7e dbbf 66b8 b79e 1db2 fc3f
00000040: 789b 6d70 9bff d93f d235 5318 a283 0240
00000050: a025 5ded 63e2 d1bf b349 07c2 7ba9 ee3f
00000060: bc41 9baa e2b3 cd3f dbea 220a 3d64 0e40
00000070: 5317 e7f7 eeea d5bf 0ee7 7718 896d f13f
00000080: 2df1 6636 53d0 e13f 14af f5ef b3f5 f93f
00000090: b708 4001 a4d5 eebf 188e 94d1 2f42 d03f
000000a0: a7ce 1f90 d655 e6bf 86e7 5a16 e013 f8bf
000000b0: 7073 2fa3 506d f93f 52c1 f945 33be 0840
000000c0: 901a 3cb7 d34d 0a40 caf1 d7e0 92ca f7bf
000000d0: 02ed b408 75c7 f7bf eabc 66e3 4620 fb3f
000000e0: 26ea 3cc3 d20e dd3f 4936 4c94 9807 f9bf
000000f0: 7277 1859 18de 00c0 d676 b3e8 893d fb3f
00000100: 46d0 41bd 0055 d7bf 84e0 3bac 41eb fa3f
00000110: 686b 279b c85a 0140 9819 4c5c e172 fb3f
00000120: ce71 0c3c 9a7f d4bf 800b 571f 57cf 0a40
00000130: bc99 4136 b905 fe3f 29c9 e0b8 a503 edbf
00000140: 067f 7aad 3e4f ee3f bec7 5f2a e92e 0040
00000150: f3bc a78b a01c ebbf 2e05 fabf 6061 e33f
00000160: f0f7 50cd f83d c5bf e010 319d 52f3 c6bf
00000170: 0287 dcc3 94d3 f53f 802b 0c8d fbb6 8f3f
00000180: ea81 3d84 4d79 f23f c025 6a98 74be d4bf
00000190: 2637 e8eb 515e c6bf c1c2 ba86 a4ae 02c0
000001a0: 730c aab6 b84a f03f 7c8a d66c afc5 f1bf
000001b0: fd43 5c60 377c eb3f 56be ae83 1740 e73f
000001c0: daac 1423 a357 d73f 606e 7d97 ad9a dcbf
000001d0: 3a57 93cd a37e eebf 1571 3761 dacf e83f
000001e0: cb15 cf2c 703e fdbf 43dd e1fc 41ca e73f
000001f0: 2c2e 731d ba7f d7bf 8eee b901 0018 fa3f
00000200: 6ba0 2588 8990 f7bf d491 ae55 4ca5 e6bf
00000210: 6be7 119c e133 13c0 7b28 3fde b49b fd3f
00000220: 3d43 f463 a148 f33f 69bc 94ea 89cb fa3f
00000230: f805 a5fa 86d7 f5bf 5fd1 a3f8 6165 e6bf
00000240: 6ad3 c847 8b96 0640 bc20 32be d29a a4bf
00000250: a902 134c acbe f03f 566e e1bc 8449 d5bf
00000260: 7399 8c52 64d1 e43f 16cf 4329 fb41 d83f
00000270: 43f9 d534 e9a1 0040 a107 3f37 f47b eabf
00000280: 2cd5 b46f 7cf4 d03f 7cb2 d152 c6d0 04c0
00000290: bf3f 9ec2 bdae fd3f 78a2 63f5 fc23 dcbf
000002a0: 5678 6000 8138 ee3f 8061 36ef 88d6 d2bf
000002b0: 9eaf ce05 f64e fa3f 748b cf95 43a0 f3bf
000002c0: fefd 8357 32b3 f3bf 0ad5 b271 34c5 10c0
000002d0: 6a83 5d45 42fe fdbf 0e08 022b c017 f3bf
000002e0: 8816 1b04 3008 fbbf 980c 2769 0441 00c0
000002f0: c085 e2f2 190a afbf f38e e14c 4126 e2bf
00000300: 5cff d1a0 4902 ea3f 90a1 3d61 b980 ee3f
00000310: 2261 7737 d783 f03f 2c4b 169b 683f 0c40
00000320: 29d9 f042 4e42 f2bf 7e16 d99c e50b e43f
00000330: b69e 26a1 d5f1 eabf 0cfa 4a96 97d2 0b40
00000340: cf1e 16ca a1bb e33f 48a6 fd74 539d 0d40
00000350: 870a 9e1f 342f fdbf 6cbf 5e59 8efb ddbf
00000360: 4b07 28e7 aff3 f1bf 721c 791b a80b 0340
00000370: f3b4 72b2 2b0a e6bf 3dc9 2bfd 15e1 e53f
00000380: 1609 ea38 96ef e73f 3287 b6d9 8aa4 f1bf
00000390: 14be d5c8 8261 0a40 fb1f d61e 8484 c73f
000003a0: 8605 3040 b45d f53f 1194 44ef 9871 a1bf
000003b0: def3 523e 7c70 d2bf 24bd 8c71 1946 f6bf
000003c0: 2360 2bf2 ad9b 00c0 4094 0832 f6e5 7ebf
000003d0: 7931 c4cd 1061 f2bf c87b 8cb1 eb6c c43f
000003e0: 1e7d f6ce c257 e13f c213 affb ccf0 ed3f
000003f0: 4c3b d87f 7399 d1bf 10b4 6150 2bab e1bf
00000400: d676 5f36 fbb4 04c0 d48e 4cec b6fa 06c0
00000410: 2ca3 4093 bf6e eabf a019 f829 ba00 d0bf
00000420: c780 92a3 98d6 ddbf 8618 4ba3 4d5a 1340
00000430: dc7f dc43 e227 0ac0 e825 43d5 dcc9 f23f
00000440: e0df 2279 1a91 e93f f097 c3c4 07ec ae3f
00000450: 3804 8901 4b11 fd3f 7850 8460 8dfd ce3f
00000460: 26b8 3e22 7e8a dabf 44e9 2dfe ca02 f4bf
00000470: b8fe 0164 6f84 e5bf 5597 7695 4ee6 dc3f
00000480: ce5d 35ed 1efa ff3f 48c9 92d0 6b3f bf3f
00000490: 4ccc fcfe c564 0740 a88a c630 3027 dd3f
000004a0: 985b 7a31 2be2 ffbf 9274 0857 c199 c93f
000004b0: dc65 24bd 6ac0 e63f 302a 41ed f293 d43f
000004c0: 5ef0 6658 dd50 fd3f 44b3 53c9 09ce d83f
000004d0: 5a10 0464 9a71 e63f 435f 782a 57ed edbf
000004e0: b0da ce9e 859e 01c0 b82c 95b2 5b58 e23f
000004f0: 6622 2b2f aadf edbf da59 8023 b628 febf
00000500: 9434 07f8 d4bc 03c0 7c56 012c 420f f2bf
00000510: 00b2 b96b cf52 f7bf 604b e7e3 c652 e03f
00000520: 54e4 b141 3f22 ee3f 3d4b 9bf3 6138 f0bf
00000530: e23e 7e0f d2b7 e43f 2827 c3fb cdc9 cb3f
00000540: f34f 0f8a 376b f9bf c185 2b92 6e98 f2bf
00000550: 28ee 6bac a2c3 febf 6b65 99c8 0fa7 ec3f
00000560: 3e9e 3e7f 6919 ddbf 4781 3f8a 37a0 f23f
00000570: 24c4 9f02 a22a 0dc0 ae1a f2ab a078 e53f
00000580: b2a7 2522 63af febf 167b 36cf d9df d93f
00000590: be70 1718 6444 f23f 2eb4 9651 408c f0bf
000005a0: f0b0 f0be 6219 b33f 7870 966f 3676 f5bf
000005b0: 324e bc1e 6306 e03f a009 069e c7be 02c0
000005c0: 95f6 cfc7 2001 f83f 4363 5b85 0cae ebbf
000005d0: e015 75ef d9db e1bf 4e4a b24e c0cc f1bf
000005e0: 684b b747 3205 e0bf a31b aed9 8226 f53f
000005f0: b4b8 625a f1cc f9bf 7a6f 0695 b44d e93f
00000600: 7512 c01d 5c54 f4bf d573 d3ff fb68 e5bf
00000610: aee8 fc2d 337f e23f 549c d4ef 9a06 fb3f
00000620: ce43 5966 1fa0 da3f 9c6c c21f 8d21 c2bf
00000630: a772 8dc8 dbb9 0b40 fdf3 b6c6 c02a 04c0
00000640: 98e6 a0ca 0e2e e8bf 5272 3406 133c fb3f
00000650: 9411 80ad c3d5 fabf d067 ab21 401d 0940
00000660: c583 b57f 7450 ebbf f06d fc86 934c f7bf
00000670: b5cb d0cd d0b2 e03f 87f9 7294 c176 ffbf
00000680: 8e73 30c0 8801 f7bf 0a6d f842 24a9 dcbf
00000690: 062a af1c 1dbe c0bf d233 f56d e95b f1bf
000006a0: bc15 b4e4 3f9e fe3f 2e9c de0e 3016 0940
000006b0: 700b 0c1f 7226 fabf d093 7c07 87cb ccbf
000006c0: 2c62 d63b fd27 0540 48d5 e526 1e9a efbf
000006d0: 6ea6 ee26 6116 04c0 969c 7b62 e333 0940
000006e0: 137d c07f c993 dcbf 2fee 0d7a 4e83 dcbf
000006f0: 196e ab10 306b 04c0 bcc5 84fa 9a55 cf3f
00000700: b255 8849 82a0 03c0 a131 e495 701d fdbf
00000710: 999d 0d69 04f3 e03f 0e51 3b09 3061 c83f
00000720: a4b1 1bc2 3274 cebf fe62 4f57 1df8 f53f
00000730: 0cc0 a2cb f55a e5bf 232f f08d f186 0240
00000740: 2399 e098 56e0 c53f c63b beaa 4039 dfbf
00000750: 2bcf 19b6 b27b ef3f 06b3 2df9 0a4a f7bf
00000760: 009e 236b 26f5 d6bf 8aa0 5348 93d2 f63f
00000770: e666 0f4b 26e3 e03f 5143 13df c58a fd3f
00000780: ebb6 fdc9 7fb4 05c0 8dde 7f41 088f f73f
00000790: 1e31 1a1a eb0f d43f 05db 99bd 7e2f f63f
000007a0: 8ce5 d86a ab6c e73f 9686 f622 5a7e e13f
000007b0: 2907 fa03 893f d23f d52f 9b2c 0959 f7bf
000007c0: 30b1 d31a 3545 eabf 00cb 954a 4037 e4bf
000007d0: 04f7 62d3 1f82 f0bf 71c6 b909 01c6 02c0
000007e0: 3981 bf0b c2d1 fdbf 34cc 794f 7fb8 ff3f
000007f0: 3ed2 2414 6391 f7bf 5f7a de53 16e6 c43f
