enemy_3_runs/enemy_3_run_8/best_weights_enemy_3_run_8.npy (npy, 2248 bytes, 1 tensors)

array f8 [265]
000000 90 5c f3 39 36 c3 08 c0 93 0a 76 fe 69 1c 07 c0
       -3.09531827234202 -2.888874042489371
000010 d4 c6 f6 e1 ce 96 d1 bf de d6 2d 07 fb 44 17 c0
       -0.2748295981101425 -5.81736384599
000020 be 6e 75 32 c0 bd f2 3f db d9 3f 72 ae b8 20 40
       1.171325871567134 8.360705919546424
000030 18 7f 96 d7 55 8a 07 c0 70 0d ee fb 76 a8 0a 40
       -2.942546543388641 3.332258194162641
000040 14 87 11 f5 2e e6 17 c0 87 53 9f eb c0 f5 17 40
       -5.974788502878955 5.989993745421891
000050 c2 3e 2b 7f 12 19 06 40 04 d0 7d 57 e3 06 0d c0
       2.762242311007726 -3.628363307501788
000060 1e c6 14 0c 2d 4b f7 3f a8 ab 80 a9 43 fd f0 bf
       1.4558535072250218 -1.0618321057506623
000070 47 91 86 97 60 7e 05 40 89 b9 0f 6a 23 8e 04 c0
       2.6867076719228495 -2.569403484921342
000080 98 9b a7 a2 c5 18 12 c0 84 7a 34 9f 35 12 c8 3f
       -4.524191419105499 0.18805570863419885
000090 3d 1f 95 89 ad 3e f4 3f c7 0e 62 4a 36 f3 dd 3f
       1.2653022169415202 0.4679694868466239
0000a0 75 9e 96 34 00 35 fa 3f ea a5 93 b8 00 d6 f2 bf
       1.63793964903189 -1.1772467813519776
0000b0 c4 ff 20 d6 d0 96 0d 40 54 9a 8e d8 19 40 f0 3f
       3.6986405114002725 1.0156496485957591
0000c0 9c c2 60 8d ee e8 f6 bf 50 49 e3 97 94 84 ac bf
       -1.431868126161283 -0.05569900850390985
0000d0 30 ad cf 46 8c 51 16 40 3c 56 8d ad 5f af 1b c0
       5.579636675286835 -6.9212634198680085
0000e0 f4 7f a7 7f ae de 12 40 3b 6d c1 b0 b0 1a 01 40
       4.717462534521463 2.1380323227910174
0000f0 06 eb 5b 42 a0 0d 08 40 90 2e fc 94 9a 79 f0 3f
       3.006653326444737 1.0296884364824201
000100 8c f4 b7 a4 4e ec 02 40 9c 89 ae ff 43 89 00 c0
       2.36538437544238 -2.0670242285861615
000110 54 63 13 69 f9 8c 14 c0 46 f8 b1 6a bc 83 f7 3f
       -5.137670175369596 1.4696621101170577
000120 5b b2 75 40 7c 41 d9 bf ee 8e a2 f1 93 c7 0a 40
       -0.3946219090928815 3.347450149320017
000130 4f 40 6c 83 c0 04 f3 3f b2 69 d5 1b 95 0f e4 bf
       1.1886601575570415 -0.6269021552682743
000140 40 da 7e 85 49 f9 fa 3f 85 12 74 42 52 6b 11 c0
       1.6858611311596547 -4.35480598290872
000150 01 a5 e6 72 99 08 f4 bf 49 b3 eb 18 6a a6 08 c0
       -1.252099465209824 -3.081257052128795
000160 db d2 d2 84 30 31 e0 bf 4e 17 61 19 86 2d 1b 40
       -0.5060045808991974 6.794456860114066
000170 e5 97 21 21 36 13 09 c0 dc 4f 41 d4 d4 2f 1a 40
       -3.1343805874230264 6.5467103161681415
000180 84 1d a3 ed 14 43 09 40 04 16 71 97 f6 b3 ea bf
       3.1577547612575376 -0.8344681699606444
000190 70 93 c6 07 7f 95 16 c0 d6 8f b4 9e 9d f1 d3 3f
       -5.645992394919503 0.31162205217901595
0001a0 44 15 fd 6e 65 6f 0a c0 7c cd 89 30 a9 5a 0c c0
       -3.3043926878914665 -3.5442680160573996
0001b0 25 86 48 9c e6 01 00 40 25 53 0c 0f 04 e8 16 c0
       2.0009281358368463 -5.726577983023877
0001c0 42 74 4a fd eb a5 12 c0 9a b2 a6 f2 f5 97 0e c0
       -4.662033040685005 -3.824199577057084
0001d0 9b 0a b5 b5 be 61 16 c0 83 34 7c 67 2a 28 eb 3f
       -5.595454062628643 0.8486530324168061
0001e0 94 51 bf dd ef ec f0 bf 76 f2 5b 7c 7f 72 fe 3f
       -1.05784594173483 1.9029536111621872
0001f0 fc d7 c2 52 72 f6 14 40 5c 8f 74 44 11 b9 12 40
       5.2406704837248945 4.680729932417162
000200 a4 52 2b 49 12 71 10 40 59 82 2d ed d9 c2 03 40
       4.110421317357268 2.470142224265413
000210 ad f1 0a fb bb 8e e6 3f 7a e4 0a fa 09 13 f3 3f
       0.7049236205271449 1.1921481864249288
000220 9d 24 eb 38 5a ae e3 bf 2e a4 86 16 06 e4 f5 3f
       -0.6150332557382573 1.3681698684615742
000230 09 a2 85 32 d1 2f 09 c0 e1 a6 2a 7a 2f 87 07 c0
       -3.1483482310325184 -2.941008524347908
000240 c3 55 6a 53 7a c4 00 c0 e4 7d ff 24 94 c9 0b 40
       -2.0959364430261487 3.4734270945043466
000250 34 c4 f3 dc 4d 10 09 40 b3 dc 6a 93 95 50 01 40
       3.1329610120669944 2.1643477932917334
000260 60 84 95 3f d5 2e 0f 40 67 3a 43 88 70 ec 03 c0
       3.8978676764968867 -2.4904490132824324
000270 9c cc 06 c2 d7 c9 ea 3f 20 38 c9 31 7f 97 ab bf
       0.8371390142041437 -0.05389020426501667
000280 08 a2 29 c1 ee c9 ea bf ae 23 40 8d e8 ec 0a c0
       -0.8371499798495856 -3.365677932281378
000290 67 8d d7 c0 95 52 04 c0 8a 6c 95 ca 4b 23 15 40
       -2.540324694231163 5.284468808527103
0002a0 be 92 4e 92 bf f8 0e c0 14 7b 28 0c 22 b9 14 40
       -3.8714591436604158 5.180793943377257
0002b0 1e 46 70 7d 43 70 f5 3f 28 bd c5 7f fa a0 06 c0
       1.3399081134742867 -2.828602789136898
0002c0 d0 d2 24 b8 df ee 09 c0 e8 ab ae 2c a4 aa ff bf
       -3.2416376482236515 -1.9791604752924687
0002d0 ea 6d 3c b1 8e 1b e3 bf fd c1 b8 c5 02 8b b6 bf
       -0.5971139394418377 -0.08805863692465006
0002e0 56 06 5c d7 06 93 1e c0 eb b3 03 7c 4c 73 14 c0
       -7.643580784789796 -5.112596452451707
0002f0 65 f1 da 33 eb da 11 40 fb 0e cb 53 3e fb fc 3f
       4.4637878515608 1.8113387368366023
000300 60 cc 0c a9 6c 2f 01 c0 d3 d9 8b ea 2a 93 04 40
       -2.1481564719229453 2.571859199898634
000310 a2 6c 35 b4 41 ae 09 40 4c 59 80 a8 54 69 fc 3f
       3.2100862578204934 1.7757155019840694
000320 6a e3 22 a8 d1 fe b4 3f 10 e5 a7 98 fa d6 05 c0
       0.08201322893991195 -2.729970162032835
000330 fc 4c d9 67 d2 a3 dc 3f 8a bd c4 e1 ac ab f4 bf
       0.44749889508712193 -1.2919129199106885
000340 b2 0e bf b6 92 5a 0d 40 f4 58 52 bd 7d 4f f5 3f
       3.6692251469665615 1.3319070239427306
000350 f0 54 26 e2 27 1d ea bf f7 08 83 65 3b 1f 07 c0
       -0.8160590569483741 -2.890250008641597
000360 fe bb 25 cf cb 62 d1 3f fe 2e b7 1c 03 77 12 40
       0.2716550372051073 4.616222809486997
000370 0a a5 20 3d f3 6a 15 c0 cd 1e 54 e3 ea 47 17 c0
       -5.35444350730655 -5.820231964120194
000380 6d ec 3e 74 41 02 f7 3f 56 fa a2 36 b3 16 ea 3f
       1.438050703129899 0.8152710024949765
000390 00 b8 5c 4c 53 e6 ea bf 14 64 27 35 de 53 05 c0
       -0.8406158915947799 -2.665951171173683
0003a0 1e 44 6f f0 64 24 06 c0 e4 c9 01 43 b4 04 01 c0
       -2.7677706512408937 -2.1272969469948624
0003b0 17 98 35 78 56 d2 17 40 c2 9e b0 df 8c 67 f3 bf
       5.955407980223774 -1.2127808320891948
0003c0 a8 8d d4 b8 5e 1f d7 bf 54 c9 3d ce 05 7b 18 c0
       -0.36128967332680384 -6.120139334221978
0003d0 08 6a c7 51 f5 3c d1 3f 85 2a 10 e5 df 71 0f c0
       0.269345598089473 -3.930602826648569
0003e0 0c 8c e5 ce c0 71 0f c0 ca db 82 dd d8 9c 0d 40
       -3.9305435336878016 3.7015855126914845
0003f0 ca 91 df a8 8d f0 f6 bf 74 f3 05 41 06 04 f8 bf
       -1.4337288471807477 -1.5009825267763661
000400 73 d9 bb e7 60 f4 0a 40 26 90 f9 04 ed fa 11 40
       3.3693254570200053 4.495044782383081
000410 16 10 f8 90 21 7c ec bf 19 ae 2d 62 39 64 10 40
       -0.8901527244020169 4.097875150716868
000420 af b7 5a 26 31 3b 0e c0 3c 94 fe c5 71 76 fb 3f
       -3.7789023395952976 1.7164170965345553
000430 20 d4 0b d9 3c b2 08 c0 fe 21 44 e1 4d 39 10 40
       -3.0870301205382162 4.055961150916572
000440 0b 2f 6d d8 77 5a 16 40 90 68 e0 7b 25 cb 05 c0
       5.588347798980759 -2.724192588601973
000450 9e fe c8 aa 66 c4 14 c0 ca a6 37 d0 1d e3 09 c0
       -5.191797894017922 -3.235896708200788
000460 e7 39 97 77 8c 7c 14 40 89 05 37 5f 03 39 07 40
       5.121629589657892 2.902838462702395
000470 d2 21 2a 0d 8d 38 13 40 f0 ed 60 1d ce a7 f8 3f
       4.80522556848196 1.5409680507281074
000480 70 fc 38 9b 13 59 1a c0 1c 5b cb f2 59 0a 0a c0
       -6.586988854745059 -3.2550543754872603
000490 c2 4c 3c d6 8e 0f f2 3f ed d1 b0 6c aa 6d 03 40
       1.1287983292175316 2.4285477153264226
0004a0 a8 9d 3f b0 d3 da f2 bf 24 77 13 3a a9 49 19 c0
       -1.1784245381075866 -6.321934611738275
0004b0 0a f0 b9 31 27 61 e4 bf ea da 19 05 0b b1 ec bf
       -0.6368595095841567 -0.8966117000225868
0004c0 8a 4a dd 9e 4a 1d fc 3f 00 e2 a2 33 35 7c 9a bf
       1.7571512418404915 -0.025864440228106744
0004d0 51 9e 26 49 36 7b 09 40 2c d3 ba eb ce ea fb bf
       3.1851621355924995 -1.7448262413210598
0004e0 85 c6 8c f5 74 4d e3 bf 43 22 8a 73 50 db 06 c0
       -0.6032051845451895 -2.8570870424776174
0004f0 24 a4 ac aa fd 09 ea bf c0 70 0e f4 9d 6f eb 3f
       -0.8137195905193306 0.8573751227118223
000500 51 c5 e0 34 c3 c4 01 40 b0 70 5e 4c ed 2c 0a c0
       2.22107545195528 -3.271936985618673
000510 94 ae 57 d4 28 3d e4 3f e6 26 94 a4 b3 28 0b 40
       0.6324657580675699 3.3948738916122805
000520 f9 ba cf aa 21 50 ca bf e2 84 0c 49 23 bf 20 40
       -0.20557041969683335 8.37331608083554
000530 2e bd 13 54 ef 80 fa bf 80 94 fc 48 50 52 fe bf
       -1.6564782413732462 -1.8950960970917379
000540 5a e9 3c 20 a3 f1 11 40 41 8d e6 0e b7 5c f0 bf
       4.485973838536973 -1.0226355154089364
000550 b8 f7 52 19 16 2b e5 3f 54 c2 24 52 53 79 07 40
       0.6615095610247783 2.934240953203963
000560 30 fb ed 1e dc 44 f0 3f b0 af 9d ba a4 d4 08 c0
       1.0168114860714006 -3.103829820573047
000570 c3 81 41 f3 7d 41 07 40 74 12 7e 59 d2 cd f1 3f
       2.906978512226688 1.1127494331168721
000580 23 1e 75 9b 8a 6c ef 3f 9f 96 d9 8d ff dc e1 bf
       0.9819996868399737 -0.5582273264414715
000590 78 ab 15 7b 36 f3 12 c0 02 f4 12 46 f9 16 fe 3f
       -4.737512515256519 1.8806088197009108
0005a0 0c df 0c 56 51 50 de bf 44 1d 91 f8 e9 00 ed bf
       -0.4736522045454741 -0.906361566049704
0005b0 82 5a ff b3 ed 7d ff bf e4 d6 f3 9b b9 b7 0d 40
       -1.9682442694808349 3.714709490183724
0005c0 3f f7 eb ba 76 89 0d c0 d2 b8 3f 20 c8 d9 fa 3f
       -3.6921209910641717 1.6781693706248473
0005d0 f2 7e 7f 5e 45 3f fe bf 77 e2 34 2c 97 bf 10 c0
       -1.8904470149354293 -4.187100115516492
0005e0 bd b6 e5 8e eb 26 11 c0 a8 cf 48 7b 05 e8 c4 bf
       -4.288007958193416 -0.16333073158022882
0005f0 2b 57 48 41 c0 38 1f 40 ae cc 65 7a 49 d7 13 40
       7.805420894661249 4.960241234267569
000600 cc 23 46 eb dc b0 1b c0 e4 0e 07 a8 05 34 fe 3f
       -6.922717739253994 1.887700706823062
000610 c7 f9 b9 bd 37 1e 01 40 83 71 c0 63 d1 68 0b 40
       2.1397547552471425 3.426180629072577
000620 e3 bd 60 1b 08 04 f3 3f e4 b3 ef ab 09 9d f1 bf
       1.188484293885147 -1.100839301706622
000630 0b e4 41 54 9a 74 f3 3f a8 ff 88 98 b6 a1 f9 3f
       1.2159674922279489 1.6019807775883042
000640 62 b9 5d 87 52 d7 fa bf 6a 69 7e 31 d1 ca 13 c0
       -1.6775689399470015 -4.948063634243548
000650 6c 7a aa b0 f0 0a e2 3f 00 32 c0 2c 7d b1 c2 bf
       0.5638354731089072 -0.14604153332801673
000660 c7 11 1a 78 39 08 f9 bf 48 88 41 ae 08 53 e2 bf
       -1.5645079318502313 -0.5726359752118322
000670 e4 6d 99 60 76 57 d1 3f b4 e7 4b 47 94 ad e3 3f
       0.27096328195122354 0.6149388687620019
000680 0d 2d de 2f d4 17 24 40 73 90 9b b2 11 eb 04 40
       10.046540733214465 2.6147798494076198
000690 90 fc 83 1a d4 72 e1 3f cd 45 da bc 02 fc 16 c0
       0.5452671544916416 -5.746104193517977
0006a0 02 f4 62 29 25 69 0a 40 c0 9f a4 cf 02 3d 0d 40
       3.3013404115031344 3.654790518008639
0006b0 50 0d 84 ed 0c 26 08 c0 ce ee f7 6a f8 3d 08 c0
       -3.0185793453144143 -3.030258975688276
0006c0 dd 6a fd af 6b 36 f1 bf 96 d6 db 18 8a ab ed 3f
       -1.0757862925153667 0.9271898732683492
0006d0 ab b0 79 44 8b ce 09 40 1f 77 8f fe 0e 62 11 40
       3.22585156914109 4.3457603240074425
0006e0 63 47 a1 38 d1 d5 03 c0 dc 41 5d 0a 72 7d fd bf
       -2.4794029640406037 -1.843126335607045
0006f0 5f c9 5c cc ea 4f 00 40 84 3d 5e f3 4f fb 13 40
       2.0390220609489655 4.995422175051662
000700 80 88 b4 99 8a ed d9 bf 6a d1 93 8e a6 8c 1c c0
       -0.4051233769442959 -7.137354114315125
000710 e8 11 a0 0c 24 5c cb 3f 6e bb 3f c2 ff 1a 06 40
       0.2137494146010248 2.7631831336688526
000720 be ab e8 cc 62 86 00 40 8c b8 28 8a 26 e0 f5 3f
       2.065618134356071 1.3672242543066515
000730 ec 98 d0 83 b1 ac e3 bf 26 8f 72 74 ec f7 16 c0
       -0.614830739451262 -5.7421129412576075
000740 98 b5 fc 9e 13 4b f5 3f 1e 0c 53 ce 9e d6 0d c0
       1.330829258960284 -3.729795085820583
000750 60 b9 a4 04 d5 1d f1 3f f8 60 f3 38 72 49 f0 bf
       1.0697832280526072 -1.0179311966549545
000760 de ea eb 6b 15 e9 0d c0 ed ce 18 e3 54 6b e9 bf
       -3.7388103896495144 -0.7943520007597421
000770 21 78 c8 bb 0d 59 02 40 fa 8d 24 61 0f 56 18 40
       2.2934832258752214 6.084043042999378
000780 00 ea 55 80 5f 8e 1c c0 0c 72 be a6 91 be 23 c0
       -7.139036183589724 -9.872204981563321
000790 c6 f5 13 6e 96 1c 16 40 49 bd ac 4b 70 01 18 40
       5.527917594879403 6.001404936235596
0007a0 aa dc a6 d9 4c 7e fa 3f e8 56 b2 d0 90 56 22 40
       1.6558350088142029 9.169073602457004
0007b0 d2 e4 bc d1 ef 3f 07 c0 00 59 c6 78 01 53 94 3f
       -2.906219137742121 0.019847891804226414
0007c0 c4 2f 74 de f5 32 e8 3f 28 15 43 1c 8c 4f f3 3f
       0.7562207550813516 1.2069207290636061
0007d0 b5 42 32 94 aa 62 07 40 74 e9 83 70 eb aa 09 c0
       2.9231769159162817 -3.20845687773288
0007e0 eb bd ec 08 7d 47 0e 40 f6 98 a8 b2 0f f7 07 40
       3.7849064538238415 2.9956354100896716
0007f0 de ad 11 a2 43 24 02 40 f3 ce ae c1 62 ce 1a c0
       2.2677071248669867 -6.7015486014313295
