enemy_4_run_3/best_weights_enemy_4_run_3.npy (npy, 2248 bytes, 1 tensors)

array f8 [265]
00000000: 3ff1 5554 4e81 edbf 5956 58a5 3f2d 0840
00000010: c4c9 4516 5ad2 c7bf d407 1aa4 bc00 cdbf
00000020: 4436 27ff 4276 f2bf 3f69 cac3 2cab f2bf
00000030: bedb 2181 f694 0540 96fa cde5 8cde 0140
00000040: 6142 6ee0 b958 eebf 2a8d 0793 3ed0 f7bf
00000050: ff97 80f1 e9be f03f 56b3 83c4 73ea f3bf
00000060: 7834 91d4 390d fa3f 824c 8bd8 75c1 b03f
00000070: 9ced 7530 d007 d6bf 9361 99be dd6f fd3f
00000080: 6473 7cd3 cbad da3f c3a7 22ed 4db7 e33f
00000090: 0c7e 219d ad14 01c0 b9df d8f7 7785 f4bf
000000a0: fcef 58e1 9cc2 0440 aab1 d8f6 0812 f13f
000000b0: 0c6d 773b ca75 02c0 803b aafc 03ab 943f
000000c0: a834 95c8 e091 e03f 1a2d d6ac e332 f13f
000000d0: 2015 bd35 7149 f1bf 4001 fdb1 ae44 adbf
000000e0: fa59 40f0 0959 eebf e22c a41e d149 dcbf
000000f0: c4af 7578 afb2 d33f c0e3 e8a5 c124 81bf
00000100: 5d0a a6a6 afbd ec3f d027 c5fb a01f 00c0
00000110: 43e4 e64e e110 b9bf 9095 e44a 3628 00c0
00000120: 4718 5291 abac fbbf 5c15 2289 6720 f73f
00000130: d6b4 e3b3 d24c cb3f 3ec6 73bb a320 f8bf
00000140: 4c13 5959 97b9 c33f 34f6 cfe8 9b6d 0a40
00000150: 1ee0 7919 3468 0cc0 3835 ef8d 0032 cf3f
00000160: b218 e614 f9f2 f0bf bef7 f6a4 cafe f63f
00000170: 3c61 5609 7626 b63f 3d6b f946 c9d2 e8bf
00000180: fe5b 87be c542 febf bab1 c54c 26a4 ebbf
00000190: 7661 c2db 8a34 e6bf 4893 a946 5eba f6bf
000001a0: 15aa a2a7 f963 02c0 6f3c 43c6 02c8 d3bf
000001b0: 22e1 1be1 dca3 f23f 90ab b8ad 6441 ddbf
000001c0: 71f1 13bc d0c0 f2bf b5e7 e4c5 fea7 debf
000001d0: d416 cf05 9676 0140 0667 a806 ade5 e9bf
000001e0: d3c3 aeff 13b0 f5bf efca d12d a93a 09c0
000001f0: 7af5 0f89 2c66 dfbf 78e1 ac90 1d68 04c0
00000200: d62c 31d3 8afe e3bf 6634 5d82 bde8 fb3f
00000210: d94f 1a62 1f3f fcbf f0cc d000 f439 96bf
00000220: 86b5 d5b6 80b8 f1bf 79ca b477 537e f33f
00000230: e81b 6105 964c f2bf 96d4 9a56 74fc c63f
00000240: 9ff3 94f5 e54e 04c0 22f1 46a3 9719 c93f
00000250: a248 36a5 b897 d7bf d22d 60b9 21bb f63f
00000260: e6fc fa42 8d8a f13f aa73 e3b6 1d04 f1bf
00000270: da25 db00 04cb e0bf 7ee4 51a2 00a7 d0bf
00000280: a13c b3aa 2e79 ee3f 29b9 0153 319a e83f
00000290: da08 e2d5 6420 f3bf dc69 b5ee ff05 fd3f
000002a0: fc84 a58c aa04 d2bf f82f 5ccc f328 ed3f
000002b0: a141 6c82 cf29 0cc0 35f3 6e9f 7b7d f63f
000002c0: 88be d4fe ad42 f13f 4866 7eab 6ae3 f0bf
000002d0: c01b a567 e9ef dfbf dc05 ab52 1fe4 dc3f
000002e0: 80b2 fa7d 1151 60bf 9ba5 b1c4 949d cdbf
000002f0: 705c ca88 be8c d7bf e814 77c5 bdd9 b33f
00000300: b400 954c 40c7 ed3f 85d5 4cb3 86a5 f1bf
00000310: ead1 f9a1 676a f0bf d231 604e 4417 0340
00000320: 16be 6a6d 41bf da3f e0cc 5f85 14b3 73bf
00000330: fd44 5a8b 31e3 d8bf c805 2368 1a72 d43f
00000340: 35cb e74f ea82 f13f 6068 2f9a 38ae 923f
00000350: e9cc f107 0333 f4bf aec7 2110 d7d5 fa3f
00000360: b2a7 cab5 9546 c13f 155f 8b3c 8d7b db3f
00000370: 60e7 e71b 227e bb3f eb8c 752d 1fc4 f4bf
00000380: 8ef6 95a7 2a63 0140 a00a f98a bf0f d0bf
00000390: 7226 24a6 f1b4 c83f 1ea5 2aaf 89f8 e0bf
000003a0: f3cd c114 3d53 f73f 628b ce71 38fe e83f
000003b0: 4cf6 fdb3 c889 e8bf 9bda a6a5 c99c d43f
000003c0: e0f7 9c12 4a35 e23f f3c8 3c67 4be3 b83f
000003d0: 827d 2024 6f95 e5bf e6dd 189a ff4e eebf
000003e0: 44ee 43f1 bd14 eebf 494b e7fb fe8e e03f
000003f0: fc06 c870 23dc cb3f eb53 6a77 36f3 f13f
00000400: 1e6b 99c1 7815 f93f 4443 f9bd 2737 0140
00000410: 8812 549a 32ff c43f fb64 dd62 695c f13f
00000420: 08cd aee8 eb2f b43f b837 ffed ab75 bd3f
00000430: e4bd 9f88 3eab d9bf 2082 46fa 4150 f53f
00000440: e01a cff3 6a79 913f 2654 f8e1 7a9f cbbf
00000450: 5648 834a 360d e93f 5bff e281 670d ef3f
00000460: 80d3 98b7 4df9 f5bf d689 4d71 32cc e13f
00000470: 4001 cbca 18fc f03f 3e38 7507 39c4 f6bf
00000480: d4fa ba57 a405 c3bf 2f8d 84ca a87f dcbf
00000490: a447 343d 7651 fbbf 6e19 8dd9 b3b7 fabf
000004a0: 1a18 f03f 1b2c 09c0 d60a ca1a 9a87 f73f
000004b0: 0702 eb01 feff dfbf 6b1d 1b5f 14b8 01c0
000004c0: 9b1f 7530 f8f4 e33f 448a 0f87 62aa c83f
000004d0: ea95 e0c2 596e f03f b940 6b4b 97fc 05c0
000004e0: b55a 45c0 892a e3bf 4240 7a43 e690 f03f
000004f0: fcd3 0079 8760 c1bf d0f7 3558 9262 a33f
00000500: e597 f480 04e3 e93f 96d4 2168 c232 0440
00000510: 9548 658f de1f dfbf 3a0a f202 2919 e83f
00000520: 5e60 7169 3eb7 fe3f a0d3 47ad 9960 c03f
00000530: f7fd c53c 4ff2 dbbf b062 1d41 7bca d93f
00000540: 46c5 1be3 bcc8 d13f 9d65 b014 4146 04c0
00000550: 85ad 2e9c 809c 0040 cf16 63ed 502c 05c0
00000560: 8d2d 72a4 ff2a cb3f 7637 6a72 c377 0340
00000570: 23e2 1ac4 4153 d23f 48db cabe 4f3d 9abf
00000580: 5b90 e2c4 0ee6 e53f 9d17 2bb5 e5f7 e73f
00000590: f0bc fc8d 3dc7 debf ec66 0097 8d9f bfbf
000005a0: 00ee d790 632a e53f 3053 371d d148 c7bf
000005b0: e696 a668 6586 edbf 56c9 7e87 e755 e2bf
000005c0: 3934 4859 24be e23f 7672 e28e 5d36 e53f
000005d0: 8061 db60 2dda 89bf ce18 67e0 ac18 f0bf
000005e0: 248b 1693 ddb0 f7bf 526e 5574 b514 ebbf
000005f0: 55c9 f3ed 657b 06c0 5edb 1159 97d4 00c0
00000600: cc37 02fc f044 bebf 96a3 46de ea98 0440
00000610: 4029 8933 6ea9 d4bf 9921 95d9 34b9 e73f
00000620: c0c4 c45d 61b7 adbf e7f1 66d1 9deb e73f
00000630: c9b1 b35b 8684 ebbf 48ca 45b1 befa f93f
00000640: f8e4 d448 e989 e6bf 2e86 3cfe c0c8 d1bf
00000650: 82ac c35a 3d7c f83f 8080 f185 3a74 f4bf
00000660: 2ca3 a21e 2c6d b73f cafd cb51 5033 f23f
00000670: 18e2 7262 bb65 d83f e201 b9dd 21af e8bf
00000680: 47cc 5edd 6c34 dd3f f851 0154 4c54 edbf
00000690: c6f7 208c 44f8 dc3f 2cbd 448b 3e4d e3bf
000006a0: 26c0 eded b3ba e2bf cac8 c9fa 79d8 e13f
000006b0: 2fe7 834d 6e22 ea3f d049 c9f3 22fa 06c0
000006c0: aa86 57ba e214 ee3f a09a 4722 46fd abbf
000006d0: c888 3d52 23d2 0940 9095 b292 3aea b23f
000006e0: d091 f580 5009 f1bf ea61 c296 226a ccbf
000006f0: 10ea cc9b e296 0040 0c35 b284 b538 cebf
00000700: 8cc5 ea3e 4072 efbf 58f6 7bdc e1a3 0dc0
00000710: bed4 7939 1ca8 0340 2de1 58f8 c057 f1bf
00000720: 1aa0 4ce4 50ed f5bf 6cab 9e75 a4c0 d2bf
00000730: d03b 00cd a884 96bf a9f4 11a6 36ed d13f
00000740: 764b aeed 88a5 0240 9e25 fdc5 c3a7 cd3f
00000750: a230 3aa3 3230 dfbf ea48 7209 bccb f6bf
00000760: 160b 1d69 4143 fd3f ea54 b61c ef38 d43f
00000770: f4d1 0b62 eb7e f53f ad66 2e1d 2246 0040
00000780: 16d6 ce16 5984 fcbf 42be b84e 9ee1 f33f
00000790: f8c3 d1ee c400 c53f b617 8341 09c3 f13f
000007a0: ba37 61d2 6e02 f5bf c2c4 5968 9fe9 f6bf
000007b0: ce8c b472 d58d f8bf e6d3 188c e6a1 03c0
000007c0: b8f9 adab f749 e03f 2cde f8fe c2a0 b13f
000007d0: 7d3b 0a66 9631 febf dbac 0f00 94b3 f8bf
000007e0: f27f f6a9 5e1a d6bf b910 2144 892a e73f
000007f0: 51a0 6d19 6f6e e3bf 3ad4 7f90 7606 fabf
-0.9220344206983454 3.0220940511306194 -0.1861069306138018 -0.226584987762236 -1.1538724867745183 -1.1667907379219995 2.697735794873977 2.233667178486324
-0.948330820409023 -1.4883409255351787 1.0466098245319697 -1.2447393108697802 1.6282289794355886 0.06545197045061182 -0.34422688229070686 1.839811081436072
0.41685767796462003 0.6161260253477326 -2.1350967670293866 -1.282585113671287 2.595025787855773 1.0669030802192574 -2.3075146337338364 0.020183622642942378
0.5178073804505816 1.0749241591864291 -1.0804302310146525 -0.05716463015278572 -0.9483689968499782 -0.4420054244262258 0.307781093250693 -0.00837088859144497
0.8981550459723838 -2.0154437703649606 -0.0979138200408594 -2.0196348048218127 -1.7296558071698358 1.44541123931534 0.2132819536558716 -1.507968647227599
0.1541012941617289 3.3035200298752674 -3.550880621940464 0.24371344499960812 -1.0593195740089354 1.4372049755033767 0.08652436950649628 -0.7757307420937206
-1.8913018648652264 -0.863787794061458 -0.6939138691114255 -1.4205000648737087 -2.2988160225406866 -0.30908269273363137 1.1650055688206256 -0.4571162888047917
-1.1720740649025994 -0.4790036137161409 2.182903333074913 -0.809286606792029 -1.3554878223042024 -3.1536429958008436 -0.4906112040042313 -2.550837641025449
-0.6248220562787548 1.7443213550898462 -1.7654107887401465 -0.02170544867494767 -1.1075446264252107 1.2183413196586612 -1.1436977586870345 0.17957929829359348
-2.5385245500642237 0.1960935160876796 -0.36863533147801253 1.420686458705735 1.0963261238501274 -1.0635049003678696 -0.5247821823806433 -0.26019302226593044
0.9522927602755723 0.7688223477578379 -1.1954086642077102 1.8139647793346887 -0.28153480277076404 0.9112490645798053 -3.5204153241431446 1.4056354740016108
1.0787792162263106 -1.0555216502165354 -0.4990180503995667 0.4514234835915809 -0.0019917813914019367 -0.23137149433322865 -0.3679653488010848 0.07754121848036599
0.930572652410794 -1.1029116634284446 -1.025977738111687 2.3863607524019494 0.41792331395387927 -0.0048094560242930295 -0.3888667927613623 0.3194643036805158
1.094461738711016 0.018242725764004653 -1.2624540624936407 1.6772070531992358 0.13496657730621348 0.42941599762478805 0.10739339047714003 -1.2978812957524564
2.1734212010040386 -0.2509611947208814 0.19302197086681222 -0.5303390904638581 1.4578219233343332 0.78103277423757 -0.7668193355054398 0.3220695607846353
0.5690050471819141 0.09721823950238555 -0.6744914727786837 -0.9471433648786245 -0.9400319778646424 0.517455570220002 0.21765559203054596 1.1218781151449047
1.5677421152565283 2.1519312707609135 0.16403801475111757 1.0850614416033852 0.07885622435314954 0.11507677612755074 -0.4010769209116616 1.3320941711791718
0.017064734583778995 -0.21580444368069712 0.7828628020599904 0.9703862702226432 -1.3733651324994014 0.5561763966509783 1.0615470811463439 -1.4229059497188383
-0.1486096790667576 -0.4452917077744187 -1.707388152197816 -1.669849252518897 -3.146536349787323 1.4706059500173772 -0.4999995249491182 -2.214882605566961
0.6236535021243869 0.19269973368416704 1.0269410717386287 -2.7483354465585674 -0.5989426379481616 1.0353758464662097 -0.13575833710061136 0.03786141707222124
0.8089621084843627 2.5247848639797423 -0.48632015231590603 0.753071313622349 1.9197372549879428 0.1279480072113559 -0.4366643994798944 0.40298348769060066
0.2778770654541244 -2.534303819306571 2.076417179274076 -2.6466387315620987 0.21224971322622502 2.4334782541908977 0.28633159781341727 -0.025624509830517256
0.6843332143221333 0.7490109003490378 -0.48091067186301384 -0.12352833687364367 0.6614244297956589 -0.18190969397132895 -0.9226557773551718 -0.572986378325633
0.5857106918134668 0.6628864088739437 -0.012623171346988427 -1.006024242947706 -1.480680059969651 -0.846277930464064 -2.810253008844635 -2.103804298264932
-0.11823946144633551 2.5746667256648363 -0.32284121544639177 0.7413582086237965 -0.058039705940595265 0.747511776913197 -0.8599273482373572 1.6237170147620805
-0.7043348715298228 -0.277878044393307 1.530331949756857 -1.2783761245882772 0.09150958774501977 1.1375277705372917 0.3812092267430969 -0.7713784533044044
0.4563247834987049 -0.9165403023458216 0.45265306171847575 -0.603179237374126 -0.5852908751530819 0.5576753519256041 0.8167029870957999 -2.872136978702862
0.9400495185365874 -0.05466670196965606 3.2276064324406413 0.07388654786571736 -1.0647740399809784 -0.2219889865998675 2.0736744090947994 -0.23610562304785565
-0.982696650395313 -3.7050206399278913 2.4570850839905622 -1.0839242650091123 -1.3704384725515468 -0.2930079601889506 -0.021990430366766678 0.28010336129939134
2.3308275765243094 0.2316822735540826 -0.4873167604462286 -1.42473987283716 1.8289198022836834 0.3159749775307562 1.3434861974648102 2.034244754770802
-1.7823115244804106 1.2425826144280028 0.16408597622969956 1.1101162489953658 -1.3130939691504708 -1.4320367885778045 -1.5346273880648371 -2.4540530152394124
0.5090292313687348 0.06885927891641391 -1.887106321900972 -1.5438423159019325 -0.34535948369921166 0.7239424067161259 -0.6072307106633251 -1.6265779156212958
