enemy_6_run_9/best_weights_enemy_6_run_9.npy (npy, 2248 bytes, 1 tensors)

array f8 [265]
0.20175262813351313 0.6013647219714985 1.236790740236686 2.275942917100713 0.45204439720366807 -1.4877576974392581 -2.000976654786527 0.03226243555689433
1.5972029990219274 1.523494391235834 -1.2586033747535086 2.0952769193069845 0.6362494023520782 1.4903905605645311 -0.2341750376187577 -0.34550083085404776
-2.536548021920766 -0.1754232799152463 0.870904216881045 1.3783597562069794 -1.218627307234741 0.4340898414333626 2.1742638013746163 1.0873319187767259
1.8663215362275656 -0.07747520311492101 -0.4464489057437677 -0.7703012160613865 0.3612614264543587 -1.2665608579280243 -2.4555835633840584 -0.7002475340586773
-0.03130071148323238 1.2099857826620068 -1.927192967593309 3.772163023363655 2.9206577873076025 1.3071904222251862 3.18389866497244 -1.4847432845527953
-0.2151165593119282 0.6730499114953374 1.2032106060934313 -1.255439283634981 -1.06106834916848 1.1134175164766824 -0.8984085800386586 -0.37624184662869753
0.6170427427749485 -2.6273588716286667 1.0030668496670494 -1.3819935608206189 0.14362057789972865 2.2816633393897012 -1.486937306709994 1.6440884511556235
1.4924420675879426 -0.4069177603827068 0.5375134624461592 0.29495998236526544 -0.6449426533651518 -2.9773128378605356 0.4625421973631647 1.9978670677695323
-2.292979523633945 0.5823972665248419 -1.4701236476110884 0.5370325197410206 -0.8250280517938631 0.027162281522915194 -2.232317183542457 -0.06932428979446348
1.3873443487706876 0.4549415240955581 2.606450041079475 -2.8340983055964335 -1.0072306686105823 1.37295938547061 -1.0860419478174856 -0.316295842044507
3.260452227375672 0.06195241895398751 0.24374957746687642 -1.401269156832847 1.5674627747291043 -1.838118724472403 0.9098494277696738 -1.739885814166263
0.4054658968274907 0.3530393909281099 -1.0422327001379004 0.8971998443062272 -2.836537818784756 -0.38798065057433817 1.9780230724024352 -0.6459743515624768
-0.72784007453514 1.9570997729280424 3.146183514764858 -0.41679520667946957 -2.287112759833991 0.8435381320305438 2.904686042831548 0.3613803159300718
1.169802200531508 2.878381925708957 1.0397875402072618 0.5493061982508012 -2.0504829603636336 3.113163658629433 0.8437321095090348 0.6301525444084641
0.9004163473254794 -2.4474522488768975 1.9947138439348737 0.28853656974084124 1.8391281105067856 -0.12534743376626037 -0.8155245428552342 -1.5845110746664766
-3.7259509932312405 -1.2539772308714134 -1.2193547519977657 -0.33226507900130253 -0.7111284738567627 0.6612209190365367 0.3210445088491612 -0.4482704215652499
0.4972988636606732 -2.096549789736174 -1.9870073589560713 -2.5755185220407877 -4.172162615567296 -0.9887562299334935 0.7799282948305342 0.8961717346310698
-2.799583612611503 0.42560518305495615 -0.744397525678402 0.28324748885587936 0.9733338577477048 -0.9184546154029007 -3.6687845593234565 1.0202283645391348
1.4939729788994 0.7461406010902678 1.912952889659247 0.544484862382598 -1.6478298701779361 0.3026483959180047 -0.5702783705208996 -0.003921452669495729
-0.9524238814872703 -0.6400187351730989 1.2380658344632764 0.10413699334453203 -0.36814726434923856 0.5514075270546988 0.6215097990511552 -1.7766079726767225
-1.3756763581033895 0.3552220637513677 -2.4941458677676414 1.5433338756068804 -0.14261238046546212 1.2232250288150985 0.9269191442151717 -1.6768063840818934
-0.8760660565537386 -0.7138310061841159 0.44412212467054035 -0.31891011337283887 -1.8076359122687873 0.6921354960549334 -0.33378653801730906 2.6027722905685438
-0.46066024887270973 0.1363070831367661 -0.7896708622777806 -0.1826469316443582 1.8142669915019056 -1.7671352608455946 1.0298738267469623 -0.8958382167743405
-1.4941221440574863 -1.8755587644314091 -1.4088285305150154 -0.6244184220324734 0.9752857084646585 1.3540425631279298 -0.46413157384384834 0.6441872933184951
-0.4290033862187451 -1.533536509237169 1.0626789219708868 1.2695560176634486 0.8557598586357889 0.10586384780281607 1.770350247348023 -1.780409934511992
-1.5025588901817726 -1.9552140109320102 0.2156170327429531 0.32231392135918413 -0.5095183176269849 -1.258299827638369 -0.9228890173127154 -3.816114115746248
-1.3190958463775249 -3.2758144726495004 0.6184991506460809 0.28848050254729424 0.7825848887198188 2.018819942766068 -0.16941030144787494 0.2559826763175316
0.7361227331795402 0.33013477852948026 -1.2655658713645332 -0.22805528898117977 -2.621313402701629 -0.28112922631565884 -1.8280555140759405 -0.9871523523951495
0.15099026537491766 0.9419752774757766 -0.932632685839437 -0.24874922321324766 -0.6494881404789591 0.2622244457247783 -0.7925225003668435 0.7024829437661165
1.2951524859239136 -1.7725554247095503 2.961362309993871 0.7772044808603156 0.058122079004001126 1.3047446915172476 -0.5995761575468913 -1.5861776691486065
-2.3588398204383294 -0.5053148850701203 -0.025560757702153797 0.11524102437366635 -1.0160395761530225 -0.3219238152594957 -2.3521076576199267 -3.191922562948198
2.4948512461082624 -1.3044972326468296 4.229887146899238 -0.035975466703327214 1.3288345668177874 1.5188291564560918 -1.0314783606464693 0.4265041646626129
00000000: 2095 dbb5 07d3 c93f 35be ba3a 613e e33f
00000010: c3fe 5416 e5c9 f33f 4d15 648f 2135 0240
00000020: 401b 959f 4bee dc3f 66fb ed03 dbcd f7bf
00000030: e0f0 620c 0002 00c0 be5b 36b3 b384 a03f
00000040: eff4 5dbb 248e f93f 17f5 9fa7 3b60 f83f
00000050: 8e39 d34a 3d23 f4bf a4e5 a38b 20c3 0040
00000060: 8074 e6b4 275c e43f af44 bec5 a3d8 f73f
00000070: 685a 0e98 72f9 cdbf d992 5084 af1c d6bf
00000080: c110 77b0 d94a 04c0 6cb5 1821 4574 c6bf
00000090: 887b 2e85 72de eb3f 1081 b0f5 c20d f63f
000000a0: 435f e958 7f7f f3bf 06db 1ec2 20c8 db3f
000000b0: b43e 7e6b e464 0140 fdaf 7027 b665 f13f
000000c0: 9caf 9ef8 73dc fd3f bc29 a137 6ad5 b3bf
000000d0: 3849 606e 9e92 dcbf 98af 61bc 4ea6 e8bf
000000e0: bf60 fb3e e81e d73f f21c 7351 d543 f4bf
000000f0: 2ca3 cafe 08a5 03c0 905f 3c84 6d68 e6bf
00000100: 98f3 5298 a506 a0bf 5488 520d 1a5c f33f
00000110: ab4f 0e4b c8d5 febf 1438 a4ce 632d 0e40
00000120: dc59 7ad4 815d 0740 2ea0 1181 40ea f43f
00000130: 72ad fedc 9f78 0940 0fc2 a12c 82c1 f7bf
00000140: b850 897d f088 cbbf 6657 cef7 9f89 e53f
00000150: 2ef2 b5c3 5940 f33f ef36 9580 4716 f4bf
00000160: 42fd 27ce 22fa f0bf 6af9 c0e2 8ed0 f13f
00000170: 5fc7 b659 c3bf ecbf b60a aaae 5814 d8bf
00000180: 3e7b 0e6c d0be e33f 3301 64ba d404 05c0
00000190: fd58 30d3 8f0c f03f 441d b047 a51c f6bf
000001a0: 8a54 8eba 2862 c23f 8e49 79b5 d840 0240
000001b0: 1259 f8c5 7eca f7bf 7a1d 17b1 2f4e fa3f
000001c0: f76f f7ee 0ae1 f73f ac56 40ca f00a dabf
000001d0: 17b6 cb6e 4f33 e13f a6cd 78d5 9fe0 d23f
000001e0: 19f6 7fc6 5ea3 e4bf 5b93 a464 89d1 07c0
000001f0: 1c77 ac96 4a9a dd3f 7b35 5d75 43f7 ff3f
00000200: 5e3e 03a6 0558 02c0 b320 a097 ffa2 e23f
00000210: bc0d b95f a085 f7bf 16a3 a5d2 5e2f e13f
00000220: 7097 973a a166 eabf 587b 4ddb 6dd0 9b3f
00000230: d2e8 8c1c c9db 01c0 6053 7c95 3cbf b1bf
00000240: 182b e4fc 8f32 f63f e44c e50d c31d dd3f
00000250: edc0 a87a 02da 0440 4e7c 81bb 3bac 06c0
00000260: e25e d3e7 9d1d f0bf 0852 b542 a4f7 f53f
00000270: 245d 7f85 6d60 f1bf bc48 5cea 303e d4bf
00000280: aefd 35fa 6715 0a40 e084 a13a 3ab8 af3f
00000290: a428 d1a7 2f33 cf3f 63d9 1735 996b f6bf
000002a0: ee8a b2d8 5314 f93f 2663 fc2d ef68 fdbf
000002b0: 14c3 118c 7c1d ed3f 1ae5 e981 92d6 fbbf
000002c0: cc1c a13b 27f3 d93f 7a1a 8f87 3298 d63f
000002d0: fa9f 1e32 fcac f0bf 70b0 a872 dcb5 ec3f
000002e0: b161 6cbd 3ab1 06c0 40a5 6ccb acd4 d8bf
000002f0: fb3a 6b85 fba5 ff3f 2980 4067 d2ab e4bf
00000300: 9517 9b44 774a e7bf 6ec2 fbd9 4750 ff3f
00000310: 0209 3943 622b 0940 3058 74cd c5ac dabf
00000320: a602 4ec6 014c 02c0 f300 40ae 43fe ea3f
00000330: 8cdf 3809 cc3c 0740 9e9e 95e7 da20 d73f
00000340: 8625 2183 82b7 f23f 2f8a 621a ed06 0740
00000350: d5a7 7f42 f8a2 f03f e845 9f97 ea93 e13f
00000360: f622 3e9c 6367 00c0 e245 2759 c2e7 0840
00000370: 07a5 1d7b daff ea3f a237 37ab 352a e43f
00000380: a87e 91f1 35d0 ec3f 5b95 3bd8 6194 03c0
00000390: 7b42 4910 59ea ff3f f729 af16 6277 d23f
000003a0: a47e fc98 116d fd3f 51f1 547c 620b c0bf
000003b0: 2ec1 14ed c618 eabf 307a dd48 285a f9bf
000003c0: 486a f364 bfce 0dc0 8057 c86d 4a10 f4bf
000003d0: 6dd7 e020 7a82 f3bf fa75 fabf d443 d5bf
000003e0: 9403 4f80 90c1 e6bf f72c d6c5 b828 e53f
000003f0: 6952 8444 fe8b d43f aac2 186c 76b0 dcbf
00000400: ecac f09c bed3 df3f 02d2 6ae5 bbc5 00c0
00000410: e40a 7a3a c8ca ffbf 6f42 7374 a99a 04c0
00000420: 49d2 8d65 4bb0 10c0 c4fa e81a e4a3 efbf
00000430: c8b5 f02e 2cf5 e83f 92e1 7a58 70ad ec3f
00000440: e8ab d417 8c65 06c0 11aa 8e85 1d3d db3f
00000450: c562 80c2 1ad2 e7bf 1cd9 5313 ba20 d23f
00000460: 85b5 e30b 8d25 ef3f c080 00ef fa63 edbf
00000470: 82e9 12b8 ab59 0dc0 ba5a 42fa da52 f03f
00000480: a0b0 d735 50e7 f73f c0d0 fc40 62e0 e73f
00000490: aa00 3e7d 749b fe3f d035 a384 6b6c e13f
000004a0: 1e94 9cda 825d fabf 71e6 a960 975e d33f
000004b0: 221c e06c b83f e2bf 0024 7eef f00f 70bf
000004c0: c059 dda5 417a eebf f1a9 0c92 087b e4bf
000004d0: 1a09 d51e 1ecf f33f e4f1 b7d4 b8a8 ba3f
000004e0: 697a 1f8b b98f d7bf 38fb ee65 21a5 e13f
000004f0: 0d2f a284 68e3 e33f a459 477b fc6c fcbf
00000500: 7af3 7e36 c502 f6bf d94d a852 f5bb d63f
00000510: de1f acbf 02f4 03c0 d2a5 a8dc 7eb1 f83f
00000520: 954b 0d5b 1f41 c2bf 568d 6668 5492 f33f
00000530: 5518 4e56 52a9 ed3f 24b1 55ee 32d4 fabf
00000540: 7a16 c1ae bb08 ecbf 45cf 4d1f b4d7 e6bf
00000550: daf5 3834 7f6c dc3f 1f33 d3f6 0569 d4bf
00000560: 2550 64a2 13ec fcbf 179d fe56 f925 e63f
00000570: 2448 2836 c25c d5bf 4d6a 5747 7ad2 0440
00000580: be6e de1f 757b ddbf 588d 24b0 8272 c13f
00000590: 3eca 02d4 fb44 e9bf 404a 1083 f960 c7bf
000005a0: 6d68 2bd3 3c07 fd3f 4c0b 8f9f 2f46 fcbf
000005b0: 3627 4efa 5c7a f03f 23b0 71e8 b4aa ecbf
000005c0: 064d 0f9f ece7 f7bf 5a58 2fe8 4902 febf
000005d0: 5bbd 03c9 8f8a f6bf e1c7 b457 3cfb e3bf
000005e0: ac94 c35f 8a35 ef3f 706c e088 28aa f53f
000005f0: 55d2 acea 54b4 ddbf 7ea7 a9ab 2e9d e43f
00000600: 76b2 6b9e ca74 dbbf 8e54 2694 5d89 f8bf
00000610: 4637 009d bb00 f13f 46df 84f8 1950 f43f
00000620: de3f c27f 6262 eb3f 164e 24a4 e419 bb3f
00000630: 4e34 edc7 5a53 fc3f 783d a320 8f7c fcbf
00000640: f950 da30 7b0a f8bf be24 9a7c 8e48 ffbf
00000650: bdb7 0bc4 5699 cb3f 2420 d291 caa0 d43f
00000660: 8677 dd5b f94d e0bf c64e 0400 ff21 f4bf
00000670: 1943 668c 4e88 edbf 0679 67d6 6687 0ec0
00000680: ceb1 073f 041b f5bf 4058 de37 de34 0ac0
00000690: 441e 14bb beca e33f 7f5a feec 7676 d23f
000006a0: 4aa7 ec76 ef0a e93f f78a f511 8b26 0040
000006b0: e87c 299c 3caf c5bf 2616 c829 0562 d03f
000006c0: f124 1b43 518e e73f c29a 439f ed20 d53f
000006d0: 511c c7ff c13f f4bf c04f ed6b ea30 cdbf
000006e0: 1c5c 4929 73f8 04c0 346f 3e70 05fe d1bf
000006f0: 7aa8 8323 b73f fdbf c09c b687 c096 efbf
00000700: 5c5a e625 a653 c33f 7ec4 4c56 a924 ee3f
00000710: 838d 9b80 20d8 edbf 549b 4db9 03d7 cfbf
00000720: 49e7 4f5a 9bc8 e4bf aa60 a60a 49c8 d03f
00000730: 846e 8d25 585c e9bf 1725 af82 bd7a e63f
00000740: 5d05 26d0 f1b8 f43f 3a99 b713 635c fcbf
00000750: da3e 08b9 deb0 0740 da30 73ee dbde e83f
00000760: 40d4 fe58 2dc2 ad3f 9523 3bf8 3be0 f43f
00000770: fb01 8456 ba2f e3bf 6a38 ead5 fb60 f9bf
00000780: f647 6a69 e7de 02c0 7edc 311f 8a2b e0bf
00000790: d821 9169 992c 9abf e0a9 d78e 6f80 bd3f
000007a0: 8d4d f0b6 b241 f0bf 05f5 9558 669a d4bf
000007b0: a430 d1d1 1dd1 02c0 ecd0 59b2 0e89 09c0
000007c0: d25b f391 74f5 0340 d90c 7f7d 38df f4bf
000007d0: d9cf 4689 67eb 1040 04f4 e559 606b a2bf
000007e0: 766d e408 e842 f53f fc0a 33cd 1f4d f83f
000007f0: e921 1874 ef80 f0bf b05b b51f d84b db3f
