enemy_4_runs/enemy_4_run_9/best_weights_enemy_4_run_9.npy (npy, 2248 bytes, 1 tensors)

array f8 [265]
0	0xbff9f1ed03d0003a	-1.6215639256406704
1	0xbff16c7c2a5e0818	-1.088985600945767
2	0x3fe174d9809f25ad	0.5455138694898573
3	0xbfeb2b8fdc5a702f	-0.8490676215910805
4	0x3fdbd23ab243cce9	0.4347063771121627
5	0x3fd3a226c621f52c	0.30677193974391304
6	0x4000b800ad54fa1b	2.0898450414235987
7	0xbfea10bef6c9f6af	-0.814544183740244
8	0xbfda964bffcd8234	-0.4154233930658251
9	0x3ff4f4046323ba22	1.3095744965209026
10	0xbff6848e87f494b6	-1.4073624907262405
11	0xbff22a3d3ede3a79	-1.1353123145851483
12	0x3fe757e5885eab2b	0.7294795669052737
13	0x4013c4062576cc31	4.94142969644149
14	0xbfdbb982fa127b88	-0.43319773121941596
15	0xbfebd1d42275aa88	-0.869363848976108
16	0xc00322ee1f90ed45	-2.392055746660534
17	0xbfe73e6ded6dcf8e	-0.726370776871123
18	0x3ff6ddac71b1497c	1.4291195336450917
19	0x3ff1305b2fb102ce	1.0743057120272854
20	0x3fee83fcde503b52	0.9536117879923529
21	0xbff2184983edc57f	-1.130929484698157
22	0x4007b2f5de0adbd6	2.9623830172599623
23	0x3ffa9630b06335c1	1.6616675272119752
24	0x400a55f64ed6cb3f	3.2919737014102846
25	0x3ffb5d4adfaa138a	1.7102764832390869
26	0xbff02628d6cc8959	-1.0093162909111781
27	0xbfc13fdca9843be1	-0.1347614124028658
28	0xbfc8337cddbd833e	-0.18907128169214532
29	0x3fe099f77cd93efe	0.5187947691392478
30	0x3fd91a0aef4a31a4	0.3922145211043022
31	0x4001f9070a7d940d	2.246595460851046
32	0x3fe86d95006553c8	0.7633767135363252
33	0x3ff619f56325f688	1.3813375351886936
34	0xbfe386d01a26e4d3	-0.6102066527156701
35	0x4009f3e82185fee7	3.2440950984017607
36	0xbff336c7f91317cf	-1.200874302814089
37	0x3fd3145de2162dc4	0.2981180866124442
38	0x40035f1d5f377f4c	2.421442741280691
39	0xc0012d8e25f6f308	-2.147243782614513
40	0xbfec4785705de6f2	-0.8837306208290256
41	0xbff9d1f3e38c93ea	-1.6137579811704605
42	0xbfd485d4cfafbf4d	-0.3206684139431573
43	0x3ff0082724d36ffc	1.0019904554856103
44	0xbff074ecfcf7dbbc	-1.0285463220186406
45	0x3fef284515b30184	0.9736657546819036
46	0x3fe1be03a2efd15c	0.554445093379893
47	0xbfdbb69514150cf4	-0.43301894150881926
48	0x3ff21e693d679ead	1.1324245833037978
49	0xbff02fff787bd90a	-1.0117182451627422
50	0xbff0f9467f1aa73c	-1.0608582463268723
51	0xbff0254af5f7bf46	-1.0091046913257329
52	0x4002b5e76e63a1e0	2.3388203262477276
53	0xbfd5f3f73f9da6a0	-0.34301549160464084
54	0x3ff7513f778226d7	1.4573359173104359
55	0x3fea9278f78eb7c7	0.8303799471957455
56	0xbfec95d7e46b5fef	-0.8932914220158618
57	0x3ff5bbe8ab7576c3	1.3583761880503722
58	0xc0026d0c0372e78b	-2.3032455701294956
59	0xbfd25042c984613f	-0.28614873580365335
60	0x3fe1bd1fc23d0fed	0.5543364328118493
61	0xbff635d7bdd64be0	-1.3881452003013166
62	0xbffa7cc2ab0d04ce	-1.6554590875314719
63	0xbfe70e2ff9971112	-0.7204818606192325
64	0xc0009728d7dd4dc0	-2.0738083710109265
65	0x3fd413e5d0f9b5fa	0.31371446044690254
66	0xc01107ec45587c11	-4.2577372393852935
67	0xbfc55dd346ce9bee	-0.1669258208978301
68	0xbfebd9cb01810f1c	-0.8703360585572884
69	0xbfa097239e81fd28	-0.03240310010823527
70	0x3fd8640121fbbed0	0.38110378569306835
71	0x3ff094599b3fea20	1.0362182678642355
72	0x3fda8bf7cde08eaa	0.4147929678458505
73	0xbfee9323ec946afa	-0.9554614659021745
74	0x400a0ee33bf2e752	3.2572693522933287
75	0x3ff1a07d575cadbe	1.101682034738459
76	0x3fecd2b855159aca	0.9007226621441415
77	0x400405ae640921ee	2.502774030235961
78	0xbff97b398bc1dc4b	-1.5925841769474285
79	0x3fb8521ea6a6071c	0.09500304764335649
80	0x3fdd0b2d2b4d958a	0.4538071558839297
81	0xbff06972fdff16ec	-1.0257444307075572
82	0x3ff035bb088053a9	1.013117821891891
83	0x3fb5be814a4be358	0.08493812621953845
84	0xbffe27a3f9b5df62	-1.884677863532453
85	0xc00015dcb42ce9d0	-2.010674865360876
86	0x3ffb99994fe76040	1.7249997254603073
87	0xbfea69f43882f53c	-0.8254338363400744
88	0x3fed56800f8ef464	0.9168091110110592
89	0xbff75be91bc331c4	-1.459939106414013
90	0xbff132bce71f5bf5	-1.0748871830198798
91	0x3fd06cd40ba849b5	0.25664235247054573
92	0xbffbe6a0a3e86f7d	-1.7438055422453254
93	0xbff867b69e0c7725	-1.5253206418778487
94	0x400a8d7cc5341548	3.319085636760665
95	0xc0016d9de9a68173	-2.178523850816583
96	0x3ff315aeb9013ed9	1.1927935816528843
97	0xbfeed28c0d15a39d	-0.9632015471989807
98	0x40060be5336ae667	2.7558082596777242
99	0x3fdebf3ecf184deb	0.480422689667846
100	0xbfeb94e2d6c14dc4	-0.8619245714602859
101	0xc0020063f7164838	-2.2501906684565505
102	0x3ff58ce2d1d708a7	1.3468959996103338
103	0x40030db2f2dc9359	2.3816889737667393
104	0xbff4905b926c9fa7	-1.2852435798358586
105	0x3fd0fb9476416228	0.26535522030238434
106	0xc003e77bbecc5db6	-2.4880289941899845
107	0xbff3ac2dd6f01b05	-1.2295359035503577
108	0xbffba6c3bb732c14	-1.7282140085469608
109	0x3fb0fd1b7c4873c8	0.0663621118951162
110	0x3feb34a5436f942e	0.8501764599901713
111	0x3fd7b7f5f4c31fd6	0.3706030740981964
112	0x40008ca03dd63ff8	2.0686650115021585
113	0xbff5147db65f25ca	-1.317502701176965
114	0x3ff1fa4c60323727	1.1236079938566463
115	0xbfe1fdf8cc70482d	-0.5622524254743034
116	0x3fc7a05328082310	0.18458022551228526
117	0xc0087820462df288	-3.0586553080341368
118	0xbfe940bae194308a	-0.7891516118848056
119	0xbff760319d6b08cd	-1.460984816469636
120	0xc00bfa764fb70717	-3.497295973561346
121	0xbfdd6e5aba0de0ca	-0.4598604981361062
122	0xbffb95d716e919dc	-1.72408207845148
123	0xc00402053857f9c8	-2.5009865190361076
124	0x3fdf3cd530167f5e	0.48808793731767774
125	0xbfef3915eb3262eb	-0.9757184594810416
126	0x3fe81a34a2364b4b	0.7531989258007824
127	0xbffa691a8ccf97c4	-1.6506600857187417
128	0xbfec74b84d2c2bbf	-0.8892480380321713
129	0xc00d10d6223a66a7	-3.6332209276268546
130	0xbff46b94957ab03a	-1.2762647475274336
131	0xbff0598cc2b3158a	-1.021862755341632
132	0x400090fcb1492518	2.070794472737031
133	0x4009a9eb152f691d	3.2079679160207335
134	0xbffca24211d751b1	-1.7896137902181233
135	0x40078f14ed8e17c6	2.9448641356457044
136	0x3ff6833cba1215ca	1.407040335501153
137	0xbff715f42cc95cbe	-1.442859816501183
138	0x40024a1695875021	2.2861758882445575
139	0x3fc9693daf4f29bc	0.19852419910450958
140	0x4002c859c818db99	2.347827494867897
141	0xbfbbbc144c891d00	-0.10833861225647823
142	0xbfaff7dd0940ec30	-0.06243792283972771
143	0x3ff1eaff897f7380	1.1198726054201131
144	0x40068242e108a61f	2.8136041241421164
145	0x3ff02c20f709f439	1.0107736253696784
146	0x400a10d35adb70ee	3.2582156275003546
147	0xbfeacc3a59442982	-0.8374301665765389
148	0xbff3e0965607b3b6	-1.2423308716345054
149	0x4005b8706c469f16	2.7150581797649336
150	0xbfe94228426fb97c	-0.789325837858811
151	0x3fcb0292bc2a4f62	0.21101602733380803
152	0xbfd580e7deed9d36	-0.3359927823098191
153	0xbfe733278add460e	-0.7249944412416782
154	0xbff8844a7ca26a9a	-1.532297598698881
155	0xbfe03b82bb866d7f	-0.5072644865607997
156	0xbffb9e5cdfcc09c4	-1.7261627904959918
157	0xbff1eb1b430e56a4	-1.1198990458846447
158	0xbff724238c151d76	-1.4463229629489809
159	0xbfe937636f9db22f	-0.7880112819671633
160	0xbfb495d7492dd198	-0.08041139160724808
161	0x3fd7dc6dac7b7c0c	0.3728288826368391
162	0xbfdb6557aa498162	-0.4280604517898806
163	0x3ff40c98aede8457	1.2530752974346535
164	0xbff53f0390cb71fe	-1.3278842598002707
165	0xbfc7f1d48c4c2fca	-0.18706757402867275
166	0x3fff778a849d9003	1.9666848354618203
167	0xbfd7a6c58165068c	-0.36955392490572403
168	0xc005f193cb223d0b	-2.7429576749633546
169	0xbff231214a701b1d	-1.1369946391802792
170	0xbfe6e7edf8c09abe	-0.715811715931373
171	0xbfd5bd49b4cb32ca	-0.3396782174648193
172	0xbfe104a36913aa74	-0.5318162014276155
173	0xc006bde54bddf41d	-2.842722504340158
174	0xc0020ece6461be60	-2.2572295992211338
175	0xc001523e21e7dd5e	-2.1651575707325454
176	0x3fd508124329003c	0.3286176353321968
177	0x3fcc4ed992c8348e	0.22115630786030177
178	0xbffd3878ff3d66db	-1.8262872667605083
179	0x3fecd2aad78f7472	0.9007162294543731
180	0x400460a33b3e0913	2.5471863392168728
181	0xc00e6e70ba0c4b6d	-3.803925946712687
182	0x400600e4afcd872c	2.750436185321538
183	0xc000f893c21f23dc	-2.1213755765679547
184	0x3fb9f7e587d0a9c8	0.10143885198400604
185	0x3fc074a536a77938	0.12855973404561793
186	0xbff9d309709fa8a8	-1.6140226744997026
187	0xbff3509bcf5cbc44	-1.2071798420036126
188	0x40044cf6b88031c0	2.537579957401448
189	0xbffc518d2d97edd3	-1.7699100285525347
190	0xbfe8482374f07cc0	-0.7588059696171499
191	0x3ff84d1439536449	1.5188181151663847
192	0x3fe97865f327fc56	0.7959470509666839
193	0xc00a9bf879d4d5d0	-3.3261575239255095
194	0x3fe2ac6d22c06757	0.5835481337301002
195	0x400d5c727807dcfd	3.6701402070426625
196	0xbfe7d73057d17f5b	-0.7450181689455165
197	0x3ff2c32d9dd300ee	1.172650925160322
198	0x3ffd5c9f96c2e48a	1.8351131333459159
199	0xc0079ecc509ee9a4	-2.9525381372925086
200	0xbfe02b2a21a5b89e	-0.5052691132712146
201	0x3ffe950c6ce5aa42	1.9113888028902157
202	0xc00169a2369ac0a3	-2.176578928563758
203	0x3fee7a84059688db	0.9524555310383919
204	0xbff12ce6cbfd9591	-1.0734622925168404
205	0x3ff6b2f75f0b65df	1.4186929428745925
206	0xc00100be24e995df	-2.1253626712593667
207	0xc0073e63194d9b2e	-2.9054624535378
208	0x3fd6cd947472c168	0.35629760143185374
209	0x3fa70ff496dbba78	0.04504360524685053
210	0x3fe3d945ffe8ab32	0.6202726362438169
211	0xbfac5c9545964698	-0.055393852943905475
212	0xbf653ce2dec9b000	-0.0025925093707908076
213	0x400711a88e7cb1d9	2.883622277431851
214	0x3fca465ee9352e56	0.2052725447377834
215	0xc00163add741b21d	-2.173671418850303
216	0xbfdd4a4b862671dc	-0.45765960789301885
217	0xbfac7a53704bdb90	-0.055620772798582796
218	0xbff11d8b3f509654	-1.0697128747209677
219	0x40030c4ea5cedf5d	2.3810093835599404
220	0x4005126996e3114e	2.6339904583020717
221	0x3ffe3ad6ae410aab	1.8893648917007038
222	0xbfc12ed3664ef434	-0.13424150939491286
223	0x3fff7c0befcf8a32	1.9677848212819637
224	0x3fcc6c0983f136a4	0.22204703276149929
225	0xbff61774fbb40c37	-1.3807267982636071
226	0xbfec34a0d35cd3af	-0.8814243438888435
227	0x3fb6fb510a60e410	0.08977228644734248
228	0xbfc62c33b313fd02	-0.17322393650099605
229	0xbff5534fa81f668f	-1.3328396384517054
230	0xbfded9dc1f85fdc1	-0.4820471103521094
231	0x3ffe7394f2c35c10	1.903218220036937
232	0x3fe3513ffca55d71	0.6036682066432332
233	0xbfc225661bcf32db	-0.1417663226879061
234	0xbfcb9fd8328d69b0	-0.2158155676687108
235	0xbfeec89e5463d771	-0.9619895599596316
236	0x3ff2a764fd1f3984	1.165867794759465
237	0x3fee2a4907e56142	0.9426617769450234
238	0x40014f28ec179e89	2.163652271719745
239	0xbff67b171d674891	-1.4050513409206682
240	0xbffd1919cd2e8d9c	-1.818628121844859
241	0x3fc0f3b880526708	0.13243776574818633
242	0x3fed47fbf2ea49e8	0.9150371307790097
243	0x3fd2884a149a3d92	0.2895684434124287
244	0xbfb5e7b609dca950	-0.08556688061495277
245	0x40054ace9e3533ae	2.661526905058472
246	0xbffa3b6bdbed71e6	-1.6395071593207091
247	0xbfe03783a75dcb1c	-0.5067766445994013
248	0x40078dcca2ec9406	2.9442379692504828
249	0xbfb54d69c8789a18	-0.08321248192132946
250	0x3ff1b1828999b962	1.1058373808878845
251	0x3ff262731140dd3d	1.1490355180702203
252	0xbfef4cd1901d90ae	-0.9781272711520808
253	0x3feb7fde8c29a4af	0.8593590486099368
254	0xbfe7b21ddbfe5f5a	-0.7404927536726789
255	0x3ff3eb59724eee19	1.2449583497208379
