enemy_5_run_1/best_weights_enemy_5_run_1.npy (npy, 2248 bytes, 1 tensors)

array f8 [265]
00000000: 1a52 965d 5426 fc3f a9b6 0ff3 6ee6 edbf
00000010: f651 5378 cb96 e53f e8a1 a357 5250 f23f
00000020: 344a 3af0 9920 c43f 2092 dcd1 d42b dabf
00000030: 16ad 07df 45f8 0040 bcf0 c556 b000 fd3f
00000040: 8c4e b012 15ff 02c0 dc15 ed14 591b d6bf
00000050: 8b9b a046 7457 ffbf 747a 5445 37c2 ee3f
00000060: fef8 bf91 3e25 d73f 93a6 6770 3482 12c0
00000070: 2b20 b09a 0953 e93f f88b fd37 994b e1bf
00000080: ca91 6c08 47a7 09c0 879b a2b2 9a88 0640
00000090: 9f79 7006 a8e9 b13f f81d 82db dea4 12c0
000000a0: 00a9 6862 7341 0140 c430 17df 6b4b fbbf
000000b0: cd1b cb5e a7fd f3bf df78 3b41 8e78 15c0
000000c0: 04c0 d9d3 64db f7bf 9ee7 fc6d b60e f33f
000000d0: 87e1 2219 bf17 f6bf 5671 64b9 b03d f3bf
000000e0: f4aa fccb 91cc d23f b8d7 9076 21d9 cb3f
000000f0: c85b a7c0 53f6 eebf 8998 ce0c 2ed0 e9bf
00000100: f479 173d f177 f8bf b8e4 445d da1d f6bf
00000110: 87bd 740b 402a d93f 080d dfb5 d08b 0440
00000120: 4f76 1361 82eb d83f 98ac c86b e75b d9bf
00000130: 0ece a5d8 a717 fbbf 666f d1bf 9f8c 0340
00000140: 6c73 7a28 bec8 cf3f 8094 7c4d 1683 b43f
00000150: 78e7 4139 718a f23f cc04 efcb de41 f43f
00000160: f6a3 91e1 8bf0 14c0 80e1 4a6b ff42 eebf
00000170: 52f4 44eb 0da3 e03f bc4f 6478 9dc2 fc3f
00000180: e867 bc3c 0fe5 b83f 90d4 5193 e0ba 03c0
00000190: 5a21 9531 6ffa 0540 4cd4 5cd4 b51d ef3f
000001a0: f024 0ae2 692a dfbf 98b0 00de e50e f33f
000001b0: 9219 10eb 5aa9 f63f 75a6 50a8 c473 e63f
000001c0: 9a4e 3ea1 395e fb3f 9aea 2c6f 3316 0140
000001d0: bec0 40cc 14a1 eb3f fc0b 9cd9 91ba d5bf
000001e0: 4673 43b9 88b4 01c0 5cd2 394f 7728 f9bf
000001f0: 2632 1f2c 07b3 03c0 80c5 dc05 2aea f6bf
00000200: abff 9d0c 00e3 f43f 8c86 d036 73f3 0640
00000210: 1878 1b17 9093 02c0 b471 6cce f60f 0a40
00000220: 167a 23f3 b0ed f5bf 9e8e c6d8 d393 f8bf
00000230: 76d0 87c4 19b8 0040 e840 5f69 0e54 d33f
00000240: 333d 0020 bfe8 e8bf 2812 dd97 bb1e e4bf
00000250: 66dc a128 7949 e9bf 66dc 121a c597 cabf
00000260: 602f 9f3b c547 96bf d927 bf50 c14f dabf
00000270: d816 fdb5 d2f3 cbbf 35d5 bc38 dade 11c0
00000280: 066e 734c c81e 0240 ca02 692e b374 e03f
00000290: 08b2 f358 ef63 e23f 4204 ee97 db5a e33f
000002a0: 7852 d6cb 85b6 05c0 1c71 e572 c9fe 0040
000002b0: a2a8 0df4 554e f13f 1833 6d03 f23a de3f
000002c0: fe83 4790 df3d 0d40 34a5 bf9d 4497 0f40
000002d0: b41b 6508 fa5b cc3f 1153 5015 10d9 ee3f
000002e0: ecf8 6658 c8ca 1240 18fd 475e 6a07 ea3f
000002f0: a607 d63c b198 f9bf 8d7b 478e ac98 ffbf
00000300: 245d 0d31 a20a fcbf a6f1 83ca 7bca e63f
00000310: 4e42 bd31 ff22 0ec0 6c14 939b 19ac 0240
00000320: 20c4 e055 a364 ba3f d6fd 7933 2852 e8bf
00000330: 5072 aeb3 835a fcbf 528d 799c 3b06 d5bf
00000340: 73bd 1d47 fedb f4bf d474 cbb5 e7ba 0840
00000350: 488f f92c c2c0 1240 729c 2739 72b8 dc3f
00000360: d894 1e8e 09c1 01c0 7fdc b3b5 f585 e43f
00000370: c6b7 0e85 7f71 0ac0 e8d8 1ca9 f8f2 e33f
00000380: b8c5 24ef ccdd d93f fdf6 a30e ed6b 0340
00000390: 941c a3f0 9732 e2bf d534 63df 02e8 e8bf
000003a0: 3914 8f91 255e f0bf aa2b 7aea a58e e53f
000003b0: 7f1f 312d e218 ed3f d084 eec7 c589 b33f
000003c0: da6b 900c d7e0 dcbf 2c99 0c98 4dec b9bf
000003d0: 2067 35b2 8e87 963f 0c55 6aba 2c48 09c0
000003e0: a475 5ec3 eb28 e6bf 0877 8e35 1686 f93f
000003f0: 1f6f 8138 0f86 eebf 91cb 82ad cf8d fa3f
00000400: 3cad cc89 9f00 09c0 b0e5 061a 3c86 08c0
00000410: 0135 0864 01f8 eabf 2d49 ca77 accb eebf
00000420: 528b ba32 33fd 07c0 00e8 1487 5e9e 673f
00000430: 00d8 adbc 2309 9dbf 8072 c7c6 bf5f e1bf
00000440: f4a0 5498 07d9 e5bf 9fcd 7ac0 2e43 0ac0
00000450: 38f8 9270 0288 ba3f 003b e03e 7fb8 7fbf
00000460: d5ac 8466 34cc dd3f 4a57 399c 566f ef3f
00000470: 7b87 fa5b 5274 08c0 8105 b9e5 cb2a fc3f
00000480: e43a b149 c816 f83f f3bb e133 e25d 0540
00000490: a7a7 9045 f36e 0bc0 c7c2 fc63 0290 fcbf
000004a0: 141e 29fe d201 0e40 684f 1aa7 4265 05c0
000004b0: fc73 5bf1 e089 eb3f 0009 dc28 9650 7dbf
000004c0: f4c8 9079 f739 ecbf 8ebe b510 1197 e1bf
000004d0: f0f9 bfad 413e ac3f 4ce9 ad05 5201 e43f
000004e0: 409e 5746 539a 95bf 5220 d757 48c6 f93f
000004f0: c631 04d7 2bbf f4bf dc38 b12f f69f ddbf
00000500: 9cca 7ec6 4fc7 e9bf a16e 8046 3d3d f8bf
00000510: f05c 4f2a 94b5 0040 aac2 4afb 93d2 fbbf
00000520: eaf3 74be 6339 f2bf 8ecb 0d5c b0b1 00c0
00000530: ca68 6feb ddd4 f0bf 8033 ea8e cd0b fc3f
00000540: cf20 6788 1c42 f4bf b936 b866 b1c9 d43f
00000550: 2b57 da77 a47a 00c0 c08c 3325 02e9 d2bf
00000560: 42d0 dc6b e21e d83f 036c 5171 00f1 f63f
00000570: c4bb bfa0 2625 df3f 69f6 9342 44e4 d03f
00000580: 1fd8 5431 e7e0 f9bf 7066 ffd3 8602 d0bf
00000590: 7f1e 08d5 8a56 e63f 6a30 0b72 ad46 0d40
000005a0: 5288 d9b6 87ba c2bf 8c4f 7c3c 2584 11c0
000005b0: aadc 478d 1327 10c0 d601 b19e 726f f53f
000005c0: 80e7 ffac b6b5 ed3f 2d12 9b19 45cb 0440
000005d0: 2373 1b7b efcd f03f 35bd 4071 7bbb 0c40
000005e0: 40ba a349 29b7 0dc0 70aa c4eb 729c cfbf
000005f0: 3253 087b 1c24 03c0 c1ae 4dfc 2389 f13f
00000600: 7826 c18d a8c5 f7bf 708e 6d41 f0dd b03f
00000610: 16b5 15ec 1af5 ee3f 4cbb 85da 597b f43f
00000620: 227d e97f 2a7b fcbf 3465 9c63 7412 0140
00000630: c0d6 5920 acb0 c2bf 4826 939f f9b2 d13f
00000640: 50a0 50df 95e0 f43f 9155 e2e3 dfc2 f03f
00000650: fcda 5b7e 981f d9bf 82d0 2b7f 2b2e 0440
00000660: b2ca 8a4c 6b77 03c0 dd5e a456 49d7 f33f
00000670: 1ebf 5cf8 1848 eebf 9625 7f53 ea00 02c0
00000680: ce70 af68 5aff 0740 8135 6386 08ac 0c40
00000690: e8a9 d469 5250 e5bf 3f11 b23d 8360 fd3f
000006a0: 2c5b 3b73 8ca3 f13f beb6 d833 bab4 fe3f
000006b0: 86ee 0125 7adb fd3f bcdd e9ad c2ce e13f
000006c0: c46f 8192 06b8 f33f 4183 ce9a 0d1f 0240
000006d0: 88b4 3660 7909 b13f 74a2 d80f fdd8 f1bf
000006e0: 18b5 c7c5 c28c 0740 1025 3d7d 48ed f1bf
000006f0: 4ca5 c8da fdd6 f63f 54f4 41a0 c1a3 00c0
00000700: b037 c48e 2177 b53f b6b6 1ae9 6dcc ff3f
00000710: aae6 736d f73a e8bf 40e5 dc4f 13fb 8cbf
00000720: 9116 961c e80f 1240 0c7a 20e3 9f63 0140
00000730: ea21 d410 6ea5 ffbf 94fd d0c9 b8b0 0ec0
00000740: b615 35a6 486b c9bf 8712 17aa 9b69 0140
00000750: bf64 c960 d1ca 0640 3b17 532b 8f21 f63f
00000760: 62ac 942d 920e 0cc0 442a 8670 c2cf f23f
00000770: 2d1e 5b57 f2ed f6bf dd41 2305 fe4f fe3f
00000780: efe6 6bb1 c0d0 14c0 dc30 f47c 6623 f0bf
00000790: bc86 ff5f 8a02 cb3f a08f 4fee e9ed d5bf
000007a0: b815 e787 72ef e4bf 9c12 d9df 1e15 f9bf
000007b0: e0c9 dfc4 1dfc b4bf 6444 d11f d9ab f23f
000007c0: ec16 1031 16e0 0f40 02c7 c7a3 0680 0bc0
000007d0: 581e 96f6 1cf7 f3bf 92c0 37f0 792b c6bf
000007e0: d4c3 533d 2779 1640 30e7 5dce 7ece 0440
000007f0: 3106 6de5 648e 0ac0 ee3e 2eb4 74bc 05c0
1.75935780103203 -0.9343790766995045 0.6746575689417671 1.1446097777753668 0.15724491338603885 -0.4089252519063695 2.1212270187585416 1.8126681699350646
-2.3745519123129437 -0.34541918796125315 -1.958851123703172 0.9612079958058772 0.36164821847331996 -4.62715316422113 0.7913864156007596 -0.5404783338129837
-3.2066784532673624 2.8167013126253013 0.06997156293116412 -4.66100638372108 2.1569583595456834 -1.705913421104058 -1.249427194868747 -5.367730159048931
-1.491062953511574 1.191091947212477 -1.380797479809276 -1.2025611154450266 0.2937359325466524 0.21756380357117933 -0.967569233204693 -0.8066625833642017
-1.5292827974695884 -1.3822883265805057 0.3932037460208097 2.5682691773123487 0.3893743465431258 -0.3962343742920864 -1.6932753050613232 2.4436640725888763
0.24831368423920297 0.08012523071063704 1.1587993847483329 1.2660816160353532 -5.234908604158582 -0.9456784339482027 0.5199040980438758 1.7975134566122355
0.0972451709061769 -2.4662486562106736 2.747282397616954 0.9723767421443283 -0.48696372102911223 1.1911371871929415 1.4163464719909808 0.7016318595317005
1.71050417886446 2.1358402906019593 0.8634132375064139 -0.3395123124211634 -2.2131514047345346 -1.5723794073830026 -2.462416023923896 -1.4321689824103885
1.3054199688776673 2.8688720972430186 -2.3220521741159352 3.257794964489415 -1.3705300805664868 -1.5360907047078523 2.0898928979823337 0.3020053891205081
-0.778411448003601 -0.6287515607915042 -0.7902189057921418 -0.2077566506684178 -0.02175815750506105 -0.4111178673307428 -0.2183783901802403 -4.467629324460451
2.2650304768301366 0.51424559654705 0.5746990907042013 0.604841038453863 -2.7141223835736206 2.1244076706190196 1.081624940236488 0.4723477395498761
3.655211569960101 3.948861343775798 0.22155690584096777 0.9639969269070169 4.69802988174909 0.8134052125386999 -1.5997784019859664 -1.9747739370138533
-1.7525960842229518 0.7122172313097976 -3.7670883069879784 2.3340332178363976 0.10309811445837669 -0.7600289349938361 -1.7720982569509438 -0.32850542336219235
-1.3037092950797529 3.091262264510627 4.68824072144691 0.4487577016975087 -2.2192565062601766 0.6413525151136951 -3.305419005881933 0.6234095862371563
0.40416262964125904 2.4276982444561086 -0.5686759662575178 -0.7783216822660061 -1.0229850469488737 0.6736630992539763 0.9092875368742027 0.07632099276681292
-0.45122314669577934 -0.10126194917811365 0.022001485468854942 -3.1602415622425095 -0.6924952331352654 1.5952360240984849 -0.9538646796822582 1.6596218850870381
-3.125304295119035 -3.0655443223337997 -0.8427741006613872 -0.9623625125553069 -2.9986328089884546 0.0028831335299885907 -0.028355177298600154 -0.5429381258396262
-0.6827428794104251 -3.2828040158726277 0.10363784073248972 -0.007744309476051425 0.4655886651186852 0.9823411036729592 -3.056797712882085 1.760448357920126
1.5055621031385096 2.6708416035903553 -3.429174941517846 -1.7851585298305268 3.750890718107039 -2.6744435362724523 0.8605808938988271 -0.007156931458441429
-0.8820760130240886 -0.5496907545438761 0.0551624798390441 0.6251611815380698 -0.021096516769743667 1.6109088355315362 -1.2966726683690566 -0.46288828523110026
-0.8055800320492668 -1.5149510148975553 2.0886615090818097 -1.7389106575102837 -1.139011138889368 -2.086762160464281 -1.051969451588365 1.7528815825091613
-1.2661404922710522 0.32481036215981934 -2.059884010649417 -0.29547170288988056 0.3768850377412073 1.4338383127676486 0.48664251039639006 0.2639322900939534
-1.6174079825409604 -0.2501542158403032 0.6980642472053232 3.659510508505311 -0.14631744793138296 -4.379048295104337 -4.038160521994692 1.3397089194187308
0.9284318331622075 2.599252891583339 1.0502772148967743 3.591544041431599 -3.7144342187014274 -0.24696194183464426 -2.392632447425421 1.0959815841296605
-1.4857564484867947 0.0658865127311914 0.9674200640708104 1.2801149879484965 -1.7800698277058662 2.1340110571005884 -0.14601661281237988 0.27654877265431255
1.304830429386147 1.047576799557053 -0.39255344714858587 2.522543900990116 -2.4333101253372087 1.2400601753669698 -0.9463009692026139 -2.250446941678727
2.99968416009333 3.5840006350542244 -0.6660549227720454 1.8360626611693787 1.1024288655514267 1.9191228890662582 1.866083283005453 0.5564893147229024
1.2324281428218322 2.2651626676819494 0.0665508136650762 -1.1154757136338533 2.9437308742113935 -1.1204304592268421 1.427488188385115 -2.079959156048554
0.08384904609212529 1.9874095063818635 -0.7571980607746884 -0.014150763392182797 4.515533873234419 2.1736448044096104 -1.9778881699913833 -3.8362899557975627
-0.19858654132455705 2.176566437558282 2.8490321694813185 1.3831931774488584 -3.507114750003482 1.1757225413772554 -1.4330924427357659 1.8945293617908796
-5.203860065661259 -1.008642662144715 0.21101503074082995 -0.3426461055043948 -0.6542294172619938 -1.5676563972530522 -0.08197198921678917 1.1669551127308972
3.9844173272166383 -3.437512664350721 -1.247830355861785 -0.1732017920435323 5.618313749539954 2.6008278009802765 -3.3195283817192593 -2.717019469891844
