enemy_5_runs/enemy_5_run_8/best_weights_enemy_5_run_8.npy (npy, 2248 bytes, 1 tensors)

array f8 [265]
0	0x3fcc378d034510a4	0.22044527682931403
1	0xc0015ab737b5bf0a	-2.1692947723712495
2	0xbff329819f7080a6	-1.1976333835701012
3	0x3fea0320bf3d87cf	0.8128818259394793
4	0xbfce243d47d32267	-0.2354809380251652
5	0x3ff5b480e4c08e8e	1.356568234980759
6	0x4003348b95d15e23	2.4006568626898726
7	0xbff39877fcdf6eee	-1.2247238042681903
8	0xbfebedc987518350	-0.8727767603814787
9	0xbfd897781b93be5b	-0.3842449445064397
10	0x3fdc4d45e00460fa	0.44221636654539476
11	0x3fe817cda0b9e7b0	0.7529056681807926
12	0x3fbeba65ede3c714	0.12003171022277243
13	0x3fe57a73cc90c6a0	0.671197795431187
14	0xbfc56d6ee699e842	-0.16740213641952734
15	0x3fe3db5687c6641e	0.6205246593336857
16	0xbff408e3c34360ac	-1.252170336481906
17	0x3ff25dcc1458a4cd	1.1478997034812892
18	0x400584a2876247ba	2.689763124167226
19	0x3fe360f57d51e764	0.6055858085303325
20	0xbfb9adc4bd76ad00	-0.10030774713111512
21	0x3fdf0ff63c07355c	0.4853492342197876
22	0xbff322e9556d71c6	-1.196023305608024
23	0x3fd7cfe5424d31a0	0.37206393694648376
24	0xbff387f4f5d885b8	-1.220692596755141
25	0xbfe35a7e075340ea	-0.6047964232511991
26	0x3fd3d9377068c835	0.31013284661742385
27	0xbff1b732fabd617b	-1.107226352169248
28	0x3fe5ba73761014a0	0.6790101343073225
29	0xbff4908080980fc1	-1.2852787993624448
30	0x3ff435aabf688b4f	1.263102290810554
31	0x40019a284015daae	2.200272083918512
32	0x400162ab8530d157	2.1731787114642134
33	0xc001cfd3e0d7d75f	-2.2264783445233856
34	0xc0010b095a2e90bc	-2.1303889317951796
35	0x3ff4f4ace6230d3e	1.3097352018092603
36	0x3ff35cbce8b39256	1.2101410951519447
37	0x3fd00bfe9e7a4022	0.2507320926315534
38	0x3ff117b4645ac70c	1.0682872696019698
39	0xbff25a05b80c2ada	-1.1469781102520558
40	0x3feffdf720b11efb	0.999751628733946
41	0xbff5a63f993acd2e	-1.3530879960570235
42	0x400970f527c6a5a2	3.180155096769071
43	0x3fea84872dc672e1	0.8286777395292938
44	0xbfcfacc32f48235a	-0.24745979126626133
45	0x40020d2754a52fbe	2.2564226735030095
46	0x3fb5bdac1bba0a80	0.08492541958734456
47	0xbffd2fc0e8b94436	-1.824158581807081
48	0xbfcb57a0a6ca3d14	-0.21361168045084666
49	0xbff288e0b7923720	-1.1584174319027127
50	0xbff2c41e12e0e156	-1.1728802430571554
51	0x3fe9f8255d119cad	0.8115412538289967
52	0xbfee87eafadd5ed6	-0.9540915393544889
53	0x3fdddc25fffab71d	0.4665617942617802
54	0x3fe9125be21602b2	0.7834910789243479
55	0xbff1669e87f3e574	-1.0875535307553408
56	0xc0040146c9709741	-2.5006232964978214
57	0x3ff0df9972104c01	1.0545896964656551
58	0x3fad9534e0380149	0.057778980608420634
59	0x3fe0f659ec928c58	0.5300721760326139
60	0xbff3dbf881c90e58	-1.2412037915936676
61	0x3fd91e60698316a9	0.39247904113686133
62	0x3fe7a731a8da89c8	0.7391594217227118
63	0x3ff4f1375ee35ad4	1.3088906961981381
64	0x3faffeaf1546cabc	0.06248995909426955
65	0x3ffa643da2676407	1.6494728416348623
66	0xbfcbe747e7f6c586	-0.21799563242306536
67	0x3fec80a210e2edc7	0.8907022790730758
68	0x3ffd316ae14066f5	1.8245648192300312
69	0x3feac3d2d8162f8b	0.8364042492334972
70	0xbff904847d7db95e	-1.5636029150005792
71	0x3fcf2fc3225cd674	0.24364508798469198
72	0xbfc21f57271dfc2b	-0.14158143434539858
73	0xbff39609fc7c805d	-1.224130617403737
74	0xbfb233e76ec17f4c	-0.07110449270248614
75	0xc003697619fe03da	-2.4264947920459976
76	0xc00220daee743c46	-2.266042578623032
77	0x3fe189b090da5b68	0.5480578259620019
78	0xbfe017d8fc04d948	-0.5029110834355288
79	0x3fd0fb73e2d5eac8	0.26534745361247447
80	0x3febcc00c34e1550	0.8686527075339345
81	0x3ffb1d777945f5f0	1.6946940171468405
82	0xbfc4e0038d8a50dc	-0.16308636103770524
83	0xbfdd181ba6e06ade	-0.45459643646760906
84	0x3fe484fe1e567005	0.6412344543964542
85	0xbfe5f3fd2128a9b2	-0.6860337875016767
86	0x3fdba02980a630c6	0.4316505199756303
87	0xbfe301a8e0cfc344	-0.5939525976992646
88	0xc00cb90fc55bf1d7	-3.5903621119198124
89	0x3ffd7fb4cfbe18d4	1.8436782946533201
90	0x3ff101712eb55be5	1.062852079825228
91	0xbffe9d4b41bd043c	-1.9134018485931525
92	0xc0031c2d34f2b0cc	-2.388758100181894
93	0xbfd3df8c246d3ed8	-0.31051925236986966
94	0x3fe3d96c61c80e5b	0.6202909383577649
95	0x3ff30a8842c2fd3c	1.1900713546636572
96	0xbff025cc55e03172	-1.009228072597662
97	0xbf7e2c9547882400	-0.007366736529101026
98	0xbfda0ed13e2d1144	-0.40715437957648626
99	0x3fdb2f7b5c01e860	0.4247730635175966
100	0x3feb9b6ce3556c6a	0.8627228202925725
101	0xbff7dd808836da16	-1.4915776558751808
102	0x3fc6ebe4dfa4299a	0.1790739147184695
103	0x3ffa74c90a55eff3	1.653512039541053
104	0xbfde8025262a1679	-0.47657135703079906
105	0x3ff75db561114a62	1.4603780547810392
106	0x3ff7356d7e2b5db7	1.4505438736431253
107	0x3fc88844bae56a64	0.19165858388699342
108	0xbfeab26e01fb63b2	-0.8342809714041464
109	0xbfe04ddd16f99bd0	-0.5095048378687981
110	0x3fdaa0710b94fd34	0.4160425770860059
111	0xbfda98b3ecb3d390	-0.4155702411219915
112	0xbffdd9a02078e964	-1.865631224484411
113	0xc002340616d2da00	-2.275402239141158
114	0xbfe2e42cd0643780	-0.5903534002443251
115	0xc0002bb03deb1997	-2.021332248437101
116	0xbfde78c1ec991ef4	-0.47612045388494484
117	0xbfdc241058420f42	-0.4397011625189756
118	0x3ffbd6501cbc1c9d	1.7398224947408274
119	0x4004f763a4487b77	2.6207955202693785
120	0xbfec58e0a3baa580	-0.8858493039926287
121	0x3fe317b7e937a00d	0.5966453127884975
122	0x3fc5b7ac7be4afc8	0.16966777848699466
123	0xc0041c44ee5e76b8	-2.51380335069447
124	0xc0026ea963aea10a	-2.304034022108799
125	0xbff46c8572597d34	-1.2764944521694135
126	0xbfee5345d699f424	-0.9476651374276384
127	0xbfe771f4e921220b	-0.7326607278164955
128	0x3ffe24ffb775a371	1.8840329328906729
129	0x3ffbb872053c4fdd	1.7325306133761764
130	0xbfdcb0a0ba97b2bb	-0.44828050825052984
131	0x3fbb9dc752d9e068	0.10787626049739318
132	0xbff7e28d554f5a06	-1.4928105671330072
133	0xbfe8b23f87c2e416	-0.7717588092410803
134	0xbffc665cc7321d86	-1.7749908238491527
135	0x3fec1941bffd58d0	0.8780831098363482
136	0x3fd28e52a20f9f2f	0.28993669344207523
137	0xbff3eeddfa540838	-1.2458171633193285
138	0xc003daef42edb00e	-2.4819016674791845
139	0xbfe39d4f9c354e34	-0.6129530001584897
140	0xbfc19fea0cb3bf14	-0.13769269581052213
141	0xbff52a1a13eefb62	-1.3227787760403875
142	0xc0054a241bf92aac	-2.6612016854681624
143	0xbfffe74724c0c156	-1.9939643321668732
144	0x3ff3310e96c39dde	1.1994768037055716
145	0x3fe95833d9e98aeb	0.7920169120883122
146	0x3fe57dc169cc13d6	0.671601015696633
147	0x3ff4c5b8892f3b1c	1.2982716902512896
148	0x3fffa86b9d48c321	1.978618254081262
149	0x3fb1b172cbbac458	0.06911389802805112
150	0x3ff338d09e7040db	1.2013708294871808
151	0x3fdd4653ac9abec1	0.4574174104300078
152	0x3ff76870cdd2202b	1.4629982032656794
153	0x4004a7062db86596	2.5815547534845775
154	0x3ffe9b41d9899af8	1.9129045960959825
155	0x3fe13c4a20b19277	0.5386095655963591
156	0xbfe3c351021cb9c2	-0.6175923386816111
157	0xbff5dfedc6d220db	-1.3671701208532372
158	0xc003864eb655b478	-2.4405798191933705
159	0x3ffcb35a82bddb61	1.7937874896139976
160	0xbff7bbd489e0f163	-1.4833569894681993
161	0xbff32edaa5f0beda	-1.1989389879271841
162	0x3fe3d7289863c366	0.6200144745217642
163	0x3ff804b699e31f85	1.501150704500078
164	0xbfe74e9c7d9b35e9	-0.728346104931629
165	0x400046a756550db3	2.034498857946994
166	0xc00d48d1421abfe4	-3.6605553783810922
167	0x3fe670adb69010ca	0.7012547078780014
168	0xbfa559698e74aa40	-0.041697786941160775
169	0xbfa61d503341892a	-0.04319239259418091
170	0x3ff4fee25e211725	1.3122275998043247
171	0xbfcb6900a25abc0d	-0.21414192130529877
172	0x3ffd384200a6f524	1.8262348199344354
173	0xc001ea93d21a6dc9	-2.2395397581401295
174	0xbff62a132e0293eb	-1.3852721974628774
175	0xbfde8cc6d5b07c31	-0.47734232776741964
176	0x3fe8c8d8393f47ae	0.774517165957368
177	0x3ff2a556a54dad0a	1.1653658349194438
178	0xbf920b5e0b620c40	-0.017621488041651867
179	0xbff66b1cd2e5e7c0	-1.401150535412384
180	0xbffb979e78529f99	-1.7245163631541571
181	0x400387c864d36ac1	2.441300189687667
182	0xbff5733d15e00df6	-1.3406344274998196
183	0x3ffe7ab51f02b402	1.9049578868246049
184	0x3ff35768349fa928	1.2088396125423717
185	0xbfd02b6bb1220cf6	-0.25265018747468504
186	0x3fe151c3db20df34	0.5412310867168117
187	0xc00b0a40376e61cc	-3.3800052958069724
188	0xbfd7c58993a94d0a	-0.3714317266469186
189	0xbff31bfb9d47462c	-1.1943317550361696
190	0x3ff5e799a976eeba	1.3690430278501666
191	0x3ffdd47967df76d0	1.8643735940490167
192	0x3fed87405efd4e04	0.9227601866973036
193	0xc004544b54f6e2b2	-2.5411593091815456
194	0x3ff1896a63416f70	1.0960487248584876
195	0x4001fdaf6876429a	2.248869720562948
196	0x3fd4f07d01e9129c	0.3271782416016238
197	0x3ff7fcafb07dbbde	1.499190987986132
198	0xbffa496732d23752	-1.6429206834031516
199	0x3ff776793a09027b	1.4664242045402307
200	0xc002cb20fa102e70	-2.34918399202234
201	0xbfe12bd9f37b8fde	-0.5366029506226331
202	0x3ffd4801037f7786	1.8300790917050747
203	0x3fea6c15a8ae0200	0.8256939215207808
204	0x3fe379abf0569d71	0.6086024946315957
205	0x3fe795a9eb652d31	0.7370195005000025
206	0xc0002471adc34274	-2.017794950028753
207	0xc00075909cc3787c	-2.0574047324326425
208	0x3fd3d9d85daed48e	0.3101712145683643
209	0x3fe27bfd4b0b1408	0.5776354280175164
210	0x3ffff40097a3021d	1.9970708773909174
211	0x3fefed24dbcb1ba4	0.997698239597288
212	0x3fceae75b853fb8d	0.2396990919150678
213	0x3fd7a53c46343b74	0.3694601712785961
214	0x3ff5ee03d25fcdfe	1.3706091134780531
215	0x3fd52cc437aa25f2	0.33085732875824114
216	0x3ff03d91db840575	1.0150316786606173
217	0xbfe1c2d9d0389c02	-0.5550355021304088
218	0xbfc04b59eb224226	-0.1272995374788632
219	0xbfe0c2e2c8f8f837	-0.5237897801632759
220	0xbfed094fe87ad368	-0.907386735975348
221	0x3ff17da792510d82	1.0931773868076964
222	0xbff7b293638be0f5	-1.4810975922137548
223	0xbff2f0354dca558e	-1.1836445845304726
224	0xbfc334a8d824d530	-0.150044541872981
225	0x3fe54cb6dead01e7	0.6656145428788108
226	0x3ff3f4b4871bc61d	1.2472424771953066
227	0x3fc89e9016980f1f	0.19233895400258746
228	0x3fc5bde3f838d346	0.16985749836171687
229	0xbff5b1b08c5d9d30	-1.3558812602075925
230	0xbfe95fe0d67f07a4	-0.7929538907412632
231	0x3fd1696cec8b9385	0.272059660912696
232	0xbfeab190740024d9	-0.8341753259311658
233	0x3fe24b20b2229182	0.5716708640289172
234	0x3fefe5e1eea0663c	0.9968118343997001
235	0x3feb6ff1fc708e2e	0.8574151926481528
236	0xbffded71061e8690	-1.8704691161187021
237	0x3fd866e423130d20	0.3812799780391334
238	0x3fd41c870a948b6a	0.3142411807368065
239	0x3fe9a78749fc77e6	0.8017002530139024
240	0xc00090638e0c5baa	-2.07050238585676
241	0xbffc4fcbe8914ed6	-1.7694815716430887
242	0x4003e7832180fe97	2.488043081044292
243	0xc003f8f4131eebd6	-2.496559285527364
244	0xbfd442199e6fb49d	-0.31653442833232664
245	0x3fdcc5435a675164	0.44953998402094997
246	0x3fddc57ab080fbfc	0.4651781772299157
247	0x4007b54e57b7f489	2.9635283329976727
248	0xbff1277711dc5905	-1.072135038155069
249	0x3fe513070c454677	0.658572696653393
250	0x3feb9dd2b7cd4ddf	0.8630155172235695
251	0x3fcfd39247fdf08e	0.24864414706451438
252	0xbfd1833df91c4bb0	-0.27363538100433527
253	0xbfe0a5c60bf7adc8	-0.5202360376110216
254	0x3fd970988041f771	0.39749729657329796
255	0xbff0409b75004e12	-1.0157732553824457
