CMAES_group1/best_weights_group1_run_9.npy (npy, 2248 bytes, 1 tensors)

array f8 [265]
0	0xbfe2bdd43cf432b0	-0.5856724920755223
1	0x3fe8a0111422c653	0.7695393937376117
2	0xbfde6955d92e2424	-0.47517915925033294
3	0xbfee6f4ce98d68ed	-0.9510864793367354
4	0x3fc2e67263510c2b	0.14765767907565083
5	0xbf973f4209517260	-0.02270224744676097
6	0xbfb5d1fde48e1afd	-0.08523547010382156
7	0x3fdcb70ed4f1df40	0.4486729697741687
8	0xbfda46a439c6ce77	-0.41056161539311326
9	0xbfee1586a489dc65	-0.9401276792185739
10	0xbfbc352d75183fb6	-0.11018642529256692
11	0x3fe27c3a6f351990	0.5776645824451396
12	0xbfe9df6fc792a83c	-0.8085249803455166
13	0x3fd7027038274224	0.35952382549024464
14	0xbfd68bf28396e483	-0.352291706567094
15	0xbfb68bf5dd6cc27e	-0.08807312637214612
16	0x3fe659d20688a89f	0.6984644057859163
17	0x3f95fbc1aeb40340	0.021468187606845435
18	0xbfebe04585c6ede2	-0.8711269009431215
19	0xbfddcbff1015c47c	-0.46557594843677186
20	0x3fe419bde8be859d	0.6281423135553045
21	0x3f85f2e12396d5c0	0.010717162035556949
22	0x3fedab2085bcae59	0.9271395313312026
23	0xbfc6c2a366e0fca0	-0.17781488917714672
24	0xbfdb3f9bc9f11956	-0.4257573577964612
25	0x3fe085e8893c8be5	0.5163462334061221
26	0x3fe39bafe4fd4cd3	0.6127547714662803
27	0xbfefffc19203222f	-0.9999702312280244
28	0xbfe860bc878a9f05	-0.7618086478514391
29	0x3feae30de90f7bea	0.8402165939295376
30	0x3febef66164c12a9	0.8729734836093331
31	0x3feed71dd9c9d8c2	0.9637593511277134
32	0xbfddc1ce234ff32a	-0.46495393227069093
33	0x3fba48468c63f30c	0.10266533782482784
34	0x3faa33710cb4ec78	0.051173718262782
35	0x3feda1fbb92d52a7	0.9260233513583288
36	0xbfc9cd1a7707f000	-0.20157175838528474
37	0xbfbb5453078646bd	-0.10675543721870447
38	0x3fd7d41274d74906	0.37231885347604565
39	0x3fe7802603bbda4f	0.7343931267667559
40	0x3fe1fc8c33dcd996	0.5620785725539459
41	0x3fd2615f2a899f28	0.2871930995374776
42	0x3fefefbd376e738a	0.9980150301595228
43	0x3fefbafe854db4ae	0.9915764430603724
44	0xbfe7ab07fc083581	-0.7396278307439134
45	0x3fefcdb8763648e8	0.9938623722867108
46	0xbfdbe2fb45ffbece	-0.43572885356750823
47	0x3fefb9538d9f13ee	0.9913728490870406
48	0xbfa0411592a34b94	-0.03174655356419645
49	0x3fd5eec472ebc468	0.34269820425749353
50	0xbfe5267a13974ec4	-0.6609468824994669
51	0x3fc7dd18cb2ed910	0.18643484040303138
52	0xbfeebac854261bed	-0.9603006022961132
53	0x3fe4e565b20cbed3	0.6530025937590501
54	0x3fce1875c1248930	0.2351214593009643
55	0x3fec4f3a557ca188	0.8846713704743232
56	0xbfdcc94a0dd388c5	-0.4497857222578541
57	0x3fe223d59d9f0f73	0.566874320844802
58	0x3f80937e7718e180	0.0080938224883631
59	0xbfd7c81dfcd3ce42	-0.3715891808526274
60	0x3fe5ba3c03ffb43e	0.6789836958029196
61	0xbfbd4d41b76fa08e	-0.114460093769255
62	0xbfdc2e99af5a3a8c	-0.4403442585398032
63	0x3f986c144e5d5390	0.0238497898893289
64	0x3f83780279f06520	0.009506244035991929
65	0x3fc65bb6e28e7f19	0.17467390119872375
66	0x3feccf2a901ab855	0.90028885026346
67	0xbfe80745b521b23e	-0.7508877313353606
68	0x3fc9c7b2267e8ecc	0.20140673522575125
69	0xbfeb3d7169316ed6	-0.8512503675987897
70	0x3fefeca5d23bd2ea	0.9976376634718609
71	0xbfbf8f6cc576d5a0	-0.12328224011328937
72	0x3fce0e6dc0377609	0.2348153294141613
73	0xbfee0d1d97fddc56	-0.939101025446585
74	0x3fdedd3faf08044b	0.4822539529123488
75	0xbfdb7e00c719f14a	-0.42956561511507074
76	0xbfdf464b9fb56e90	-0.48866549107126733
77	0xbfecaacbc3c5322c	-0.895849115718709
78	0xbfe262982bd84253	-0.5745354515402802
79	0x3fef32ca57ede888	0.9749500005120959
80	0x3fd6523eec7c36a1	0.3487698850084176
81	0xbfdd8f797923ae7c	-0.46188198881166165
82	0x3fedab616046ba7b	0.9271704559703972
83	0xbfa26548f22c6d4c	-0.03592899280757908
84	0x3fce3abca3af9657	0.23616750709986675
85	0xbfd883a532bf71fa	-0.38303499179690415
86	0x3fa880d95ed6fcf0	0.04785804064476362
87	0x3fd6a1847eff4f25	0.3536082496841451
88	0x3fe1f26f79b9d923	0.5608441712818472
89	0x3fb5c29128af3510	0.08500010722419327
90	0x3fe5e49a171ce3a1	0.6841555072233981
91	0x3fe23b551b9f01db	0.5697427310442963
92	0x3fedb6316aa6e074	0.9284903605503261
93	0xbfc383cf44831c48	-0.1524600109607681
94	0xbfec518341d3a4b4	-0.8849502835920675
95	0xbfe2ee14b2e00674	-0.5915626042989985
96	0xbfd93ff68db810b6	-0.3945289978003176
97	0xbfe92d618e989030	-0.7867896828725005
98	0x3fc6f2fb48da363c	0.17929020936246498
99	0xbfdac6aa90a29361	-0.41837562679784496
100	0xbfea3c2c44a05a18	-0.8198453274115449
101	0xbfe168ad3d6e0b64	-0.5440279197504023
102	0x3fef0917e10e2f8d	0.9698600192655121
103	0x3fed71a161130523	0.9201208969099394
104	0x3feaef6b7532c64d	0.8417260445623441
105	0xbfd5e3f08c588292	-0.34203733163489247
106	0xbfe93c7f7a520d82	-0.7886350049088124
107	0xbfdae1c70e4d18b3	-0.4200303687724826
108	0xbfddcd6b786bbf56	-0.4656628299699056
109	0x3feeb9b1ed0aca37	0.9601678495149092
110	0xbfda6314c6c427b2	-0.41229743395580976
111	0xbfbfcf63952679c0	-0.12425825492252951
112	0xbf7a9056a50f2700	-0.006485308128455491
113	0x3fdbc2e75fee6a00	0.43377098434726236
114	0x3fd7e99f0bdcc1af	0.3736341110079832
115	0x3fe458dccc5e1e24	0.6358474723392118
116	0x3f91db5288ef5a50	0.017438211067054177
117	0x3fe53d8485c7d507	0.6637594807531578
118	0x3fbc985c75340b5e	0.11169984685333875
119	0x3fef97ef5375f046	0.987296736725974
120	0x3f8e4c62eed6916a	0.014794133104097457
121	0xbfce5b6af3d7d1f3	-0.2371648493423347
122	0x3fede6a178f1e6b5	0.9344031679349515
123	0x3fe8c9460d1b574b	0.774569535826893
124	0x3fb2817be86b36a0	0.0722882692745892
125	0xbfe6b33b3c404764	-0.7093788315562333
126	0xbfe625da59ee3279	-0.692120719571519
127	0x3fe40f8bbcf6a5e5	0.6268976870243789
128	0x3fe9e2bfbf32e423	0.8089293226577222
129	0xbfe92e543d2f9468	-0.7869054026638311
130	0x3fee7e86e2f0073a	0.9529451782584382
131	0xbfec88fc9f2a7eaa	-0.8917220219336361
132	0xbfe98151b2d337e4	-0.7970360272099666
133	0x3fddf547f363ec7c	0.4680957676752724
134	0xbfeff97553bf8408	-0.9992014537530176
135	0xbfd22be6454fd8cf	-0.28392941254368237
136	0xbfd8b6d3d0c047b4	-0.38615889917229684
137	0xbfb86bb8c08baed7	-0.09539370251485067
138	0xbfe2841c6e27f9b4	-0.5786268378722554
139	0xbfe27643fdadf1d8	-0.5769367174794366
140	0xbfdb87953a9476e2	-0.43015032501885575
141	0xbfd504ba3cf43b7e	-0.32841354324857963
142	0xbfb1aeeb6a7f0fd9	-0.06907531118400757
143	0x3fd843d88c2e2a52	0.3791409844349448
144	0x3fd5023fa688a728	0.32826224577967134
145	0xbfe49c2cdd545f0b	-0.6440643618434206
146	0x3fd57e1b5dab8bbe	0.3358219542262154
147	0x3fd2453ae17fc641	0.28547546407125785
148	0xbfe65719096a3863	-0.6981320556531155
149	0xbfefdb8544accc45	-0.9955469456966816
150	0x3feac0275f2ff618	0.8359562739494235
151	0xbfecb0ed243dfc09	-0.8965974529127162
152	0x3fe145b00adb975a	0.5397567951265316
153	0x3fbb1983bc538ab4	0.10585807178316992
154	0xbfef73b996c2dc5d	-0.9828765816263388
155	0x3fe0566ea9ae2fa2	0.510550815016803
156	0x3fdaa00db678c618	0.41601889438160944
157	0x3fe3031ecdccef9c	0.5941308993856071
158	0x3fefec7f668a7fb8	0.9976193430666092
159	0x3fe7d29c4f21d78c	0.7444592996168793
160	0xbfecd0c09071a152	-0.9004824467820447
161	0xbfc3dd13212aca0e	-0.15518416518678219
162	0x3fe65d4b417f45b5	0.6988884238473277
163	0x3fe540f22434d526	0.6641779620319184
164	0x3fee5d8adbeb5d27	0.9489187522221173
165	0xbfe0c413a05e5b0f	-0.5239351398657578
166	0xbfcb640d4480e737	-0.21399083943270522
167	0x3fc205eae9f72b20	0.14080559181305663
168	0x3fe8cef4dd05836d	0.7752632443262947
169	0x3fe1a75c7bacb805	0.5516798415681029
170	0xbfe23fbbcbefbe70	-0.5702799780974157
171	0xbfeadaba677fdc33	-0.8392002126191812
172	0xbfcdb379489e56e6	-0.2320396046240411
173	0x3fe4aca76be942b2	0.6460759265556446
174	0xbfee9d58d823472d	-0.9567074033204556
175	0xbfe70f52c68fc0f6	-0.7206205251841584
176	0xbfe960d52a392c6a	-0.7930703949617854
177	0xbfee4947841e5614	-0.9464452343406173
178	0x3fe36904933deed2	0.6065695644205908
179	0x3fefda5118600a23	0.9953999973370781
180	0xbfeeee7f16ab385d	-0.9666133349180758
181	0xbfd6859d686c76d4	-0.35190520475030707
182	0x3fee67771b1b90c6	0.9501300363013108
183	0xbfdc3e219df468a1	-0.44129219460740826
184	0x3fd84d0e3aab2b58	0.3797030995307771
185	0x3feaa4c5780e3ce2	0.8326136917911777
186	0xbfdc6f70fa49876e	-0.44430183832275005
187	0xbfc05bbb52a1fdb0	-0.1277994302254064
188	0x3fdaa39b9d1d9906	0.41623583167383094
189	0x3fccc7e0ecf1ab68	0.22484981126339254
190	0x3feba0df4473eeb6	0.8633877121896691
191	0x3fe01fca614a1065	0.5038806820089233
192	0x3fecc274756ed3ab	0.8987371724712053
193	0x3fe06ab06251c0d8	0.5130235595989019
194	0xbfde5e9465981f85	-0.47452268525420777
195	0x3fe8c57a94051ff1	0.7741063014045705
196	0xbfe0c1e97686a6e1	-0.5236708941422102
197	0xbfe3836424b01da0	-0.6097889629899562
198	0xbfda0f322fe40e00	-0.4071774928745242
199	0xbfe035b3bd9b50d6	-0.5065554335838225
200	0x3fafadf7ec42c458	0.061874148931914064
201	0xbfe66f9d61200e9a	-0.701124849031163
202	0xbfcf74b1eaec2d00	-0.24574874850109296
203	0x3fc460f04b2691ad	0.15920833272424542
204	0xbfd9bde877aa78c4	-0.4022160690891605
205	0x3fef5e1f5ecbc454	0.9802395678981477
206	0x3fe471aa7b64b12b	0.6388752374673791
207	0x3fd1c8c8b67314dc	0.2778798848851929
208	0x3fe60a2e3f465293	0.6887427554925857
209	0x3fa97ad90383f154	0.04976537864601718
210	0xbfd9612174b6b052	-0.3965533866673968
211	0x3fc37900e799cac8	0.1521302348006286
212	0xbfe5996e203791d1	-0.6749792699088691
213	0x3fe72099e382122b	0.7227296298520448
214	0xbfa8fa53b8320760	-0.04878484366874036
215	0xbfdd4a25ff9c17b8	-0.45765066110504504
216	0xbfef957edd0563ea	-0.9869989697282311
217	0x3fec32639ac8517d	0.8811510108085227
218	0x3fdf0e965f544254	0.4852653437565426
219	0xbfe7de902627ee5c	-0.7459183449968338
220	0xbf9068f0e3052bc0	-0.016025318008626277
221	0xbfc6937d52606eae	-0.17637602350520382
222	0x3feec77b77d81891	0.9618508663850368
223	0xbfc0fca50530096c	-0.13271010163596075
224	0xbfd7da3cf90e5b96	-0.3726952011288004
225	0x3fee020539ac2fe3	0.9377466322343903
226	0xbfed34a8d35c6a94	-0.9126781585831218
227	0x3feffb3106ed7042	0.9994130263617154
228	0x3fc5768642d937db	0.16767957939231234
229	0xbfbbf2a392342426	-0.10917112655091951
230	0xbfe6fef1596fe71e	-0.7186209437197453
231	0x3f999386719d8820	0.024976826366931104
232	0x3fc3706043835094	0.15186694427996328
233	0xbfc626b0d2a52087	-0.17305574689294564
234	0xbfdde5bb037fc1d0	-0.46714663831428727
235	0xbfd582f46eda9704	-0.33611784768650943
236	0x3fd7bb53224d2e49	0.3708083949065651
237	0xbfd7fc9aef04a8b6	-0.3747927984392264
238	0x3f9848c6c419cc00	0.02371512004760845
239	0xbfd6fe0fd4ff6610	-0.35925670433570733
240	0xbfd5435562db92ec	-0.3322347131163912
241	0x3fe8fdcb7c7df1da	0.7809808188899823
242	0xbfea99b4c1543a86	-0.8312629486043341
243	0xbfe7d3a0775983d4	-0.7445833521888923
244	0xbfea0972c597de50	-0.8136533602946177
245	0xbfef325c4334ee65	-0.9748975098259051
246	0x3fed82e5a6c630d5	0.9222286469753508
247	0xbfe30ec5a9020560	-0.5955532360969009
248	0x3fd4c54e82ae0176	0.3245426441353837
249	0x3fd69aa6a4eb1610	0.35318914513877164
250	0xbfbab885ced21272	-0.10437809275942714
251	0xbfef573afaa33a0e	-0.9793982405915942
252	0xbfbbee95ccc802d4	-0.10910927056830683
253	0xbfd558efc0443560	-0.33355325485248066
254	0x3faabe7dfcbb0000	0.05223458967293482
255	0x3fa7ef90cb8db540	0.04674961552414425
