CMAES_group1/best_weights_group1_run_7.npy (npy, 2248 bytes, 1 tensors)

array f8 [265]
000000 db ff 6f ec bd 6e e7 3f 92 e6 f4 46 cd 7a ec 3f
       0.7322682969970588 0.889990461909479
000010 87 b0 2e e6 bf 7b e0 bf 40 2a e7 d9 17 58 68 bf
       -0.5151061530828124 -0.002971693596213215
000020 b2 63 8b c1 ba a3 c8 3f 50 cb 0c 35 de 2d e5 bf
       0.1924966282884078 -0.661849120724904
000030 e4 25 e8 af af b9 ef 3f 14 86 9d 70 89 7e e1 3f
       0.9914167819671857 0.5466963958280666
000040 4e 94 fc 49 b3 df e5 bf bc 30 20 8c 38 64 e3 3f
       -0.6835571713496706 0.605983995135396
000050 b2 a7 b4 f6 0b c2 ef bf 77 ce 92 b4 79 5a e6 bf
       -0.9924373453588855 -0.6985443617654273
000060 27 c2 58 42 51 59 ea 3f 6e 13 c4 02 95 4b ed bf
       0.8234030052026967 -0.9154763273260025
000070 82 ce e1 e4 6b b5 d1 bf 88 c4 98 24 d4 c8 e2 bf
       -0.27669808723224076 -0.5870152201442957
000080 ec 71 b3 78 31 d4 ef bf db 3f ec b2 62 a3 ec 3f
       -0.9946524960938041 0.8949445242487813
000090 7e 7a e4 7e bc 60 c2 3f 1a 97 03 f4 2a c5 eb bf
       0.1435771579353577 -0.8678183332346834
0000a0 3d a4 90 92 57 a0 d0 bf de 8f 07 02 d6 9c d5 3f
       -0.25978650391568064 0.3376975078410832
0000b0 ce 2f b9 41 34 2d db 3f 3e ed 9c 51 85 9a d3 bf
       0.42463404100703606 -0.30630619974154516
0000c0 48 37 40 df 2b 23 d4 3f 02 44 cf fc 4c bb e7 bf
       0.31464669038620174 -0.7416138589561572
0000d0 67 94 6a d3 af 8f d8 3f d0 03 39 8a 11 d1 d2 bf
       0.3837699474918907 -0.294010529502029
0000e0 87 e2 7d 18 23 28 e6 bf 80 eb b0 71 6c 40 e6 3f
       -0.6923995474199537 0.6953642101792497
0000f0 69 07 71 bb 8a d8 dc 3f b2 ff 7b 8c 54 f5 b1 3f
       0.4507166700824344 0.07014969281954
000100 fa 50 a1 e4 c2 5b c3 3f 8d ea ee 32 52 c1 ea 3f
       0.15123783267575402 0.8360987658300744
000110 ce f5 62 31 33 52 ee bf e7 b2 1d ea 97 f2 d8 3f
       -0.9475341763097107 0.38980672705547054
000120 65 d3 c4 81 f9 db e6 bf a8 e8 fd a7 17 b7 e8 bf
       -0.7143523726032127 -0.7723501473513084
000130 8f d3 74 e1 4e 60 e8 3f 0b 7f f8 83 d0 1c e7 3f
       0.7617563632435224 0.7222673966934691
000140 30 1c c4 a0 3d 7b 90 3f f5 dd ae 88 e9 ab e6 3f
       0.016095126092320722 0.7084853810874266
000150 1c 0e fc 26 a2 f4 e0 bf 05 34 9a 74 83 73 e3 3f
       -0.5298624764840869 0.6078507687940379
000160 b4 19 9f f9 db 76 d7 bf e7 ee ce a0 da e3 da 3f
       -0.3666295945844482 0.4201571054834247
000170 ea 90 e9 73 98 8b e2 bf 5a 8d 7d f9 91 ed d8 3f
       -0.5795404685891559 0.3895001350812969
000180 a4 e8 3e 13 13 ef d2 bf 43 15 05 41 58 65 e1 bf
       -0.29584195022074256 -0.5436211843413407
000190 6d 2d a3 18 18 d0 d5 3f dc c5 d2 f3 0e f7 dc 3f
       0.3408260574912763 0.45257924853203035
0001a0 d8 b3 90 4d 6b 76 da 3f d4 8f ee 32 0b 48 e3 3f
       0.4134777314637268 0.6025444025767634
0001b0 82 e8 f0 5b ce f9 ee bf d4 8c 72 5a db 8e b0 3f
       -0.9679939075206365 0.06467982252302146
0001c0 c2 95 55 c2 6e f4 cb 3f 68 42 c6 03 4e 85 df 3f
       0.21839699257831852 0.49251127594565114
0001d0 24 74 10 97 3e 10 cf 3f 28 94 f9 23 a0 f1 a1 bf
       0.2426832425707356 -0.035046581641644814
0001e0 b3 0c b3 1d 9c b8 e8 bf 68 84 f3 97 24 2a ef bf
       -0.7725353794161464 -0.9738944022939338
0001f0 34 ef 91 ce 48 10 c1 3f 20 46 e8 b3 e1 c9 c1 bf
       0.13330946051052595 -0.13897343906914816
000200 9c e3 4d f7 6a a7 d6 3f 5c 50 97 d3 43 83 e4 bf
       0.3539683737831696 -0.6410235531461796
000210 fb 59 b8 89 f6 d5 d1 bf 42 a2 9b 0c 5c ff ef bf
       -0.2786842675135685 -0.9999218221901816
000220 2c fc 4c 9e b5 d7 ef bf f2 a3 b1 0f 28 87 e6 bf
       -0.9950817195712083 -0.7039985949060095
000230 23 d1 80 f8 07 e3 ef bf 3a 92 63 18 45 bc b3 bf
       -0.996463761670871 -0.07709152074273443
000240 00 22 88 83 31 f4 98 bf 5b 5f 8e dd 47 cd dd 3f
       -0.024369023945867596 0.4656543410906033
000250 93 98 72 06 a1 7f e1 bf 04 a8 95 31 b9 13 bb 3f
       -0.5468297124796372 0.10576970539628411
000260 72 8d 50 c6 f7 7b ef 3f f8 08 97 bd 05 be df bf
       0.9838827966054124 -0.49597304834982436
000270 16 28 28 0d 59 a9 d4 bf bf 52 86 ed c5 3d dd bf
       -0.3228361729130723 -0.45689533420344824
000280 96 15 0c 32 7b 3e ed bf c8 57 a9 c1 7d 7f d0 3f
       -0.9138771035656414 0.25778144752746046
000290 0f e4 15 c6 97 d1 ea bf f0 35 e4 0f d3 37 e4 3f
       -0.8380850666864051 0.6318145094280094
0002a0 75 10 8d d7 82 e7 d0 3f bc 2d ea 29 97 ef c5 bf
       0.2641303162565756 -0.17137422129267843
0002b0 08 13 15 d3 b9 34 ec bf a9 2f ba d0 80 31 da bf
       -0.8814362642957301 -0.40927143462681187
0002c0 7c b2 e5 c4 53 d9 eb bf 98 fa 49 85 0e 49 d3 bf
       -0.8702792020463472 -0.30133402840139345
0002d0 fc 7b 6f f5 4e 96 dc bf ea 0c dd 8f 86 b8 ea 3f
       -0.4466740986662783 0.8350251016458092
0002e0 95 66 71 cb 75 33 e0 bf 43 09 94 5c 0b e9 d6 3f
       -0.5062817548270738 0.35797390023084946
0002f0 fc 36 90 3f 0e 30 d7 bf f9 27 d4 b7 11 ec d0 3f
       -0.36230808455807995 0.26440852119469543
000300 86 ec 38 a4 bf 73 c4 3f b9 46 e1 bf e6 dc ee 3f
       0.15978236693067432 0.9644654987007107
000310 78 a6 b5 7a 17 15 be bf 9e f3 82 a7 fa e0 d7 bf
       -0.11750933404769082 -0.3731066356520446
000320 2a 49 94 4b 38 2e d5 3f a4 67 df 2a 5f 75 d5 3f
       0.33094603901658337 0.3352888029745549
000330 a0 2a b5 7d 66 5e be bf 3c fe 90 22 26 76 ce 3f
       -0.11862793511424252 0.23798062026797762
000340 b9 12 c5 00 48 d8 e8 bf c3 ec e1 8a 0b f5 de bf
       -0.7764015212092864 -0.48370636523004523
000350 c0 44 e9 e9 bb 16 a3 bf fd 9a 4d 70 e3 c1 ea bf
       -0.03728282194482224 -0.8361680215283226
000360 07 ea 7c 21 8e b9 da bf 2c 96 0e 99 08 87 ec 3f
       -0.4175753905325625 0.891483591975605
000370 13 ca 7f e5 06 d0 da bf 7a 90 d6 44 45 70 d6 3f
       -0.41894695674923915 0.3506024524924737
000380 2e d3 98 05 a9 13 ef bf 90 f1 2e de 21 0f ea bf
       -0.9711499318424097 -0.8143472041625035
000390 e0 23 d5 b5 32 d3 69 3f 20 71 e8 6b f2 9c d4 3f
       0.003152464908144456 0.32207928216827675
0003a0 db e5 4a 80 72 81 e2 3f 80 bd 91 d8 8f a5 72 bf
       0.578301668712068 -0.004552423380217774
0003b0 dc 53 ee 68 76 e7 af 3f 74 e7 2f e7 3d 14 ee 3f
       0.0623127940263328 0.9399709239362282
0003c0 5a 38 62 c2 23 c2 e8 3f d4 56 94 47 7a 1e e5 bf
       0.7736986919933415 -0.6599704168354159
0003d0 e4 9e b5 03 07 44 b5 bf cd 0c 93 bd c0 4f ee bf
       -0.08306926575243839 -0.9472354605317378
0003e0 04 7f 2e 5e 33 f8 cd 3f 64 6a 3f e5 5e c5 de 3f
       0.2341369829055041 0.4807965506312597
0003f0 b0 41 7b 5e dd f2 db 3f b0 ef 69 18 ff c9 ee 3f
       0.43669828631120833 0.9621577717621133
000400 bf 53 5f a1 69 e3 e4 3f 07 ec e6 97 89 fc ee 3f
       0.6527603294185765 0.9683273283802699
000410 7a 00 b7 56 60 c3 eb bf d8 33 22 d7 3c 48 ef 3f
       -0.8675996488236841 0.9775680734470553
000420 c9 be 5e bb 8b 96 e7 bf 47 9e 1b 4c 28 60 e5 bf
       -0.7371271762439956 -0.6679879652483088
000430 aa cf 08 56 4a 4e b1 3f 5c e6 dc db 9e b4 e7 bf
       0.06760086632203746 -0.7407984060475417
000440 00 4c 2e a8 fa 1f a0 3f c0 a5 00 b2 6e 72 c3 bf
       0.03149398138989312 -0.15192969981698745
000450 1f 4a 4f ce ab 69 c5 bf 1c 0a b2 4b 17 f1 ea 3f
       -0.1672873265620902 0.8419300535609326
000460 5c 0b c4 4d 96 43 d6 3f 73 a1 26 bd 62 b5 c8 3f
       0.34787519068065875 0.19303545223125304
000470 5f 83 65 69 66 e8 eb 3f 80 d0 22 89 3b f6 d6 3f
       0.8721191462064829 0.35877884285151396
000480 85 26 e7 7e e4 f2 e2 3f 2c 03 07 c3 2a d7 e9 bf
       0.5921499708722001 -0.8075155076149705
000490 f0 e7 95 22 b6 9e e0 bf c0 57 0b b7 8b 99 8c bf
       -0.5193739581584378 -0.013964740298813783
0004a0 a4 29 55 10 c3 44 b6 bf 18 55 40 9b c6 99 df bf
       -0.08698672436472649 -0.4937607303739511
0004b0 d3 7c 37 87 86 46 eb 3f 70 fc d2 7e f0 68 e4 bf
       0.8523590699150198 -0.6378099896463834
0004c0 68 60 3f 83 60 d8 d1 bf 2e 8e 3c b4 80 22 d0 bf
       -0.2788316041674137 -0.25210588074898765
0004d0 77 ce e1 80 d6 15 c1 bf 33 10 ee 9e 65 09 ed bf
       -0.13347893994397328 -0.9073970893955504
0004e0 9b 47 92 42 05 fe dc bf d0 90 9f 21 99 bb eb bf
       -0.4530041837798479 -0.8666501671509881
0004f0 f8 aa c0 cf 1a 69 bd bf 08 ef 89 fe d9 63 e0 bf
       -0.11488502094350028 -0.5121889087162979
000500 e4 44 7a 52 a7 a7 ea 3f 3a cc 4c c9 25 45 e9 3f
       0.832965527619447 0.7896908694878058
000510 82 38 93 4c f1 a2 e1 3f d2 4f ea c1 31 d8 e6 bf
       0.5511404510123301 -0.7138909137161085
000520 90 ea 56 d4 b2 68 d9 3f ca ee 7f cc 16 84 e0 3f
       0.3970152925136654 0.5161241525779243
000530 be 44 15 56 85 c9 ef bf b4 f0 17 48 60 d4 cb bf
       -0.9933497124967727 -0.21741870422545662
000540 f6 3d bd c8 f5 17 ef bf 7c d4 e6 5c 9b f6 d2 bf
       -0.9716748161972066 -0.2963016898386923
000550 92 15 df d1 85 bb e9 bf ff 55 51 0d ed f6 e0 3f
       -0.8041409586955288 0.5301423320876778
000560 c5 9c 20 6c ed d3 e3 bf 17 8d 9f 4c ff 7f ee bf
       -0.6196200477469566 -0.9531246658847604
000570 a2 d5 51 92 af 2d e4 3f 42 0a 07 8b 36 b8 ef bf
       0.6305768831068017 -0.991236945665442
000580 f8 8a c5 bf 8a 01 dc bf 23 63 a4 a3 3b 32 e7 3f
       -0.43759411552143446 0.724881953824568
000590 47 27 70 36 67 4f ee bf b4 e2 75 7e 04 5b ec bf
       -0.9471927703136566 -0.886110541337152
0005a0 a3 b9 0c a1 36 ea e9 bf a0 e7 9b 1e 88 83 c2 bf
       -0.8098405023099996 -0.14463902945118168
0005b0 fd e8 4b 8c 3e fc e8 bf 10 05 b5 4a e6 82 ea bf
       -0.7807915439764482 -0.82847895232422
0005c0 a6 6a e6 16 e5 dd e2 3f 68 3f f4 ce 3f 69 a9 3f
       0.5895867774264232 0.04963111306471896
0005d0 08 17 2d 09 be 4a e7 bf a1 f7 92 cd 6c e5 ef 3f
       -0.7278738192769376 0.9967559828871694
0005e0 b0 10 a6 b3 3d e3 ac bf 60 06 c0 14 ae 25 d3 bf
       -0.05642121141411971 -0.2991748049390477
0005f0 c0 ab 83 0d 69 09 ba 3f 28 69 83 21 88 ed e0 3f
       0.10170609073581627 0.5289955763394447
000600 52 3c b1 ec 1c c3 d3 bf 30 e3 39 3e d8 04 d6 3f
       -0.3087837516258719 0.3440456969906789
000610 00 cc 60 fa a7 29 c9 3f f0 d3 ce fe 34 84 d0 3f
       0.1965837452458743 0.2580692756994827
000620 ea 23 e9 bd 0d ec e5 bf ea 50 30 4f 91 ac ee bf
       -0.6850651463693087 -0.9585653826384519
000630 63 ac d0 b9 7f c0 ef 3f 16 b3 89 52 85 2e e6 bf
       0.9922484044267431 -0.6931788074558394
000640 7a 09 c4 76 90 38 e0 3f bc 4f b4 34 d7 63 ec 3f
       0.5069048232692659 0.887187579096
000650 12 09 a0 d1 86 1f ab 3f 28 8a 95 2f 54 41 e9 3f
       0.05297490414524665 0.7892247132661554
000660 52 60 47 a5 18 6a e7 bf da e0 2d ac ee 09 ee 3f
       -0.7317012050725771 0.9387124407649268
000670 58 5c 22 60 8c 69 c5 3f 58 fb 6e 08 12 19 94 3f
       0.16728357976964747 0.019626886143437744
000680 ac c7 e7 19 e5 a9 c3 bf 3c 4f c7 8f 7b 5a e3 bf
       -0.15362228169356962 -0.6047952469038829
000690 d6 76 fe 20 56 b0 e3 3f 0d 7a f4 a9 ff f4 e8 3f
       0.615275444451721 0.7799070662911746
0006a0 bc 20 e2 53 91 c4 cb 3f ef 6f fd cf c6 85 ef 3f
       0.2169362697206959 0.9850801527313687
0006b0 c7 8b e9 0c 39 12 e7 3f a2 a1 ef 96 e8 a1 b9 3f
       0.7209744693940302 0.10012677845919041
0006c0 b2 7c d7 d7 bd 16 db bf 6e 6d d9 ce 32 15 e0 bf
       -0.4232630355672412 -0.5025877037073039
0006d0 ce 8b f6 3f e7 fa ef bf 45 92 f7 b6 b9 af bc 3f
       -0.9993778466490484 0.11205635754556294
0006e0 76 71 a7 4e 19 a2 de bf 20 21 23 f4 40 ec 8c 3f
       -0.4786437290292932 0.014122493219830334
0006f0 22 fc a5 47 b5 be d0 3f 1b bb 58 ff 8d 78 ee bf
       0.2616399001780697 -0.9522161471594218
000700 fc 19 37 78 2a e9 e0 bf da e0 ee 26 90 23 e3 bf
       -0.5284626338914786 -0.5980911980068655
000710 be 86 4c 4b a3 7a c2 3f b8 7f 5d e1 7c d5 bc 3f
       0.14436761070924392 0.11263256551819623
000720 d8 56 8b 39 9f 78 c3 bf 7b 9a 88 ec 3c 85 ec bf
       -0.15211859044818854 -0.8912644023701682
000730 78 93 0b 8a 0d 56 ef bf 9a 9c 2a db 68 38 e3 3f
       -0.9792545028873141 0.6006359367937819
000740 16 10 1e 9c 8b 2f e2 3f 1c 95 b6 38 b4 74 e4 bf
       0.5683038758438694 -0.6392460925750671
000750 38 71 46 f1 d6 99 ce 3f 20 0f fa f9 e1 70 ef 3f
       0.23906981259359283 0.9825296289786571
000760 54 ec a9 fc 48 f4 ef 3f 54 72 65 bc b4 b0 e7 bf
       0.9985699591483219 -0.7403205566038857
000770 a2 1a eb 9c 8d 91 d8 bf ec ec 71 6c 6e 38 ef bf
       -0.38388386081752846 -0.9756385915819954
000780 c1 f0 ec a8 c3 41 d1 3f 5e b8 33 30 48 73 cf bf
       0.26963893410335166 -0.24570562699904291
000790 63 49 42 91 b6 fe e2 bf 3b 9d 94 f0 94 da e3 3f
       -0.5935929143036386 0.6204323481405604
0007a0 e7 d6 54 6f 54 d3 e3 3f c4 45 56 98 88 01 e5 bf
       0.619547097629689 -0.6564372039157935
0007b0 e7 30 93 08 46 86 e3 bf be 3f 98 05 a1 27 d1 bf
       -0.6101408164481911 -0.26804376169547683
0007c0 18 fb 4b c3 4c b8 e7 3f 96 ea a1 63 cd d1 d1 3f
       0.7412475408926609 0.27843031625494896
0007d0 40 a9 ba 86 cb d3 77 bf ca 08 7b 89 cc 32 d4 bf
       -0.005817217850259404 -0.31560052324142573
0007e0 1a f1 50 51 08 ca d7 3f c1 d5 c3 cf cb a3 db bf
       0.3717060846427259 -0.43187232293652406
0007f0 68 f3 c0 53 73 7a e2 bf 76 ea 66 eb 46 a6 cf bf
       -0.5774475704016426 -0.24726187223662394
