enemy_2_experiment/best_weights_enemy_2.npy (npy, 2248 bytes, 1 tensors)

array f8 [265]
000000 fa 49 0b 3b eb e7 f3 bf 3e bd 68 ec 0b 01 c4 bf
       -1.2441208177957592 -0.1562819389668934
000010 1c 76 51 9d 2b 34 14 c0 ca ff 7b b0 31 9f 1a c0
       -5.050947626206405 -6.655462987488088
000020 6a 2f e2 dd 3f 4b ff bf 8c 73 3a 7c 0f 72 13 40
       -1.9558714549375176 4.861387196605289
000030 06 01 1c 52 ad f1 01 40 50 c2 4a ec 13 a5 cc 3f
       2.243006364326109 0.22378777539917616
000040 8a dd 7a bd 7b ed 10 c0 13 f1 d3 66 53 c1 04 40
       -4.231917343734844 2.5943973573140595
000050 3d 23 e0 e3 b5 c7 fb bf b2 5f d8 83 7f e6 08 c0
       -1.7362574483287994 -3.112547903099732
000060 68 5e 9a 37 b7 22 d6 bf c3 70 dd a0 6c 1e fb bf
       -0.3458688776968075 -1.6949278148450027
000070 8f 5e f5 4c 38 be f8 bf 48 31 6e a1 ee 20 e4 3f
       -1.5464404112043757 0.6290200379312774
000080 2a 50 b8 eb 55 c2 0e c0 1e a4 8f aa 7d 21 db 3f
       -3.8448904433844477 0.4239191213260386
000090 80 ff ea af e7 2a 98 3f b2 44 0c 61 20 73 07 c0
       0.02360116969316506 -2.9312141019696236
0000a0 8d bf a3 0c b3 15 1a c0 b6 80 e6 ad c4 32 20 40
       -6.5211908316558835 8.099156793963953
0000b0 45 1d 09 a1 68 a4 10 c0 b7 1b c7 0b 05 4d 00 c0
       -4.160555378133101 -2.0376072807443637
0000c0 70 a4 16 45 c5 a3 fb 3f 00 0a dd 11 8c 79 bb bf
       1.727483053089852 -0.10732341228598585
0000d0 94 d9 58 44 6b e3 05 40 6f 32 ad ac 17 b9 09 c0
       2.7360444392790644 -3.2153771868091137
0000e0 fc a8 4f 2c 5f 5d 16 40 ea 6f 05 c9 de e0 e9 bf
       5.591183369028155 -0.8086999822803567
0000f0 9e 55 f8 52 6a 27 03 40 54 16 19 11 0b 6e 10 c0
       2.3942457658801706 -4.1074640914499305
000100 c4 8c 22 cd 55 7d 13 c0 69 77 5a 50 48 7e 1d 40
       -4.87239761851669 7.373322730561861
000110 50 65 7c 30 88 78 1d 40 25 b6 c3 56 2c 46 12 40
       7.367707021324648 4.568528514571459
000120 dd 38 f9 b2 00 14 1a c0 9c f5 e7 21 98 30 fc bf
       -6.519533916913329 -1.7618638348061273
000130 d8 50 99 aa c2 0d 06 c0 8d ee b4 16 0e 85 fd bf
       -2.756718952945544 -1.844984139154721
000140 aa 68 39 e6 5c e1 24 c0 5e 35 e2 e3 03 64 15 c0
       -10.440161890514293 -5.3476710898224535
000150 c2 b0 c2 32 8b 79 03 c0 74 19 00 df 62 e3 13 40
       -2.434347530905229 4.972056850796765
000160 4e e7 ae f0 d1 f3 13 40 69 38 25 06 ba bb 12 c0
       4.988105545687928 -4.683326812764883
000170 d6 ff b0 88 bc cf 0d c0 d9 36 a8 a8 00 3b 0a 40
       -3.7264338187232893 3.2788098503432193
000180 38 4b ee fe 2d f0 e2 3f a2 cd 85 39 3a 77 fe bf
       0.5918188075178028 -1.9041082617739922
000190 c0 87 19 81 0e 1f a3 bf ca 95 7c e9 fe e2 e3 3f
       -0.03734631849216852 0.6214594421659794
0001a0 01 37 53 36 04 6f 05 c0 b8 55 1b b4 31 69 fc bf
       -2.6792072528977546 -1.7756821666165319
0001b0 4b 0f a7 5d c8 43 f4 3f 35 1f 81 aa c7 a9 1f c0
       1.2665485056213182 -7.915800727969146
0001c0 38 c6 e0 0d 70 5b f3 3f 12 6a 6e ce fa 69 24 c0
       1.2098236600981078 -10.206991625765145
0001d0 04 83 83 cf 53 75 13 40 7a 40 0e 16 42 c1 f0 3f
       4.864577524568407 1.0471821652936613
0001e0 06 24 ae bc 79 d9 0a 40 66 86 c3 82 ee a6 06 c0
       3.3561892262118844 -2.8315096107406132
0001f0 c8 f2 c5 f1 d2 2c ff 3f cb 9e 6c 45 75 af 0b c0
       1.948443359781935 -3.4606728957913666
000200 90 8f 34 08 6c e0 f8 3f 3a 22 0c 7c a4 25 08 40
       1.5547905273933544 3.0183801356509123
000210 a3 e8 fe a8 5d 80 05 c0 6c 22 93 8e e0 d6 18 40
       -2.6876786425392125 6.209840991716742
000220 33 df d5 dc 15 1f 05 40 3b 0f c4 c2 5b 3b 13 c0
       2.640178418423511 -4.807967227188608
000230 a3 a4 e1 fe 0d 32 e2 bf 6e d9 7a 91 d2 75 07 c0
       -0.5686101892616943 -2.9325305333724634
000240 d2 36 14 f2 0b cc 1f c0 74 ba de f9 c9 bf ed 3f
       -7.949264318927549 0.9296617393755029
000250 b5 ac 72 43 c0 4f 13 c0 c0 5e 2a 52 3e dc 9f 3f
       -4.827881864427742 0.031113599553093563
000260 2a fd e8 fc f7 71 f3 3f 88 05 23 4a b9 be 07 40
       1.2153243903447426 2.9681268493592974
000270 e4 26 52 a0 c9 d0 ee 3f 2b 0a 1d f9 73 97 19 c0
       0.9629867678897566 -6.397903339765018
000280 22 f0 bb 9b 14 6e f1 bf fc 91 ce 47 64 32 fa 3f
       -1.0893751223911825 1.6373026661832446
000290 c0 20 ae 43 3d a4 13 40 4a 7f 1e 12 ba f6 17 40
       4.910389955046583 5.99094417868748
0002a0 20 7d 16 d8 0e c6 0d c0 dd 79 6d 0d 4e 9d f4 3f
       -3.7217080003607776 1.2884045147435395
0002b0 ba 41 e5 ce 75 92 06 40 2e 32 c5 e0 85 b9 f2 bf
       2.8215137637818914 -1.1702936916436886
0002c0 e0 d7 d6 ed 21 8f d2 3f 8c 5b 77 ed e0 db b6 3f
       0.28998611666190577 0.08929258153453484
0002d0 b5 3e 0e 17 25 d8 04 c0 73 65 be f2 19 7a f7 3f
       -2.6055394936773504 1.467309902398793
0002e0 84 e2 24 6a e7 05 1a 40 1c fa b2 83 00 c4 e0 bf
       6.505765589238425 -0.5239260265587435
0002f0 72 f1 2d c3 68 aa 03 40 3b c8 e9 95 19 0b c0 bf
       2.4582076309581504 -0.12533874340039283
000300 d0 94 97 67 89 e9 09 c0 8a 61 52 a8 8a bb 1b c0
       -3.239031609834093 -6.933146123912943
000310 e6 dc c3 ef 12 7f e1 3f f2 95 54 2b 30 41 1e 40
       0.5467619593536284 7.5636603136422185
000320 e9 06 2b fc ae 16 f2 3f a1 14 b4 be 36 88 12 40
       1.130537972480335 4.63302133535504
000330 b8 6e d8 eb be 71 f1 3f 18 5a 57 11 64 df b3 bf
       1.0902699673378446 -0.0776274244629821
000340 f3 b5 0e 67 95 87 0a c0 f4 24 39 c9 ff e2 ec 3f
       -3.3162029315342294 0.9027098589077966
000350 d6 f9 6f 7c b2 e7 fd bf e2 94 50 ca 9c bb 1a 40
       -1.8690667019687814 6.683215294998464
000360 ce 59 6a fd 20 e5 14 40 45 f2 e9 7d 81 a3 12 c0
       5.223758658996713 -4.659673659709886
000370 cd d0 23 08 ba 8e fb 3f f3 98 4f 8a fa 1d 1a 40
       1.72234538249636 6.529276047809833
000380 81 82 22 9f 00 07 17 c0 a2 7e af 91 b5 82 07 40
       -5.7568383087933634 2.9388228780442924
000390 4f 85 f8 07 3b f4 12 40 52 22 58 0a 6e 3f c5 3f
       4.738506435912611 0.1659982252606534
0003a0 80 13 ff 90 01 6f ad bf e7 1f 85 63 20 ca 09 c0
       -0.057487534475092694 -3.2236945891381654
0003b0 a0 0c ed 0f 83 13 e5 3f f7 a3 c8 31 b4 96 e3 bf
       0.6586318312696626 -0.6121464702929406
0003c0 da 1e 63 dd 92 84 fa bf 3b b7 34 33 92 d4 17 40
       -1.6573666236817446 5.957588958828462
0003d0 08 66 68 a9 77 0b 04 c0 64 79 ea d9 08 d1 0b c0
       -2.5055993304238235 -3.477067663639149
0003e0 4c 62 1a 7e 2e f1 14 40 ce 53 d0 81 bc cb 1b c0
       5.2355289176562785 -6.94896128496198
0003f0 76 02 b3 c5 9c 79 f9 3f 00 ea 45 77 94 31 24 40
       1.5921905253054809 10.096835830006057
000400 3a d0 17 24 3d a0 f4 bf 96 d4 e1 ae 0d 00 18 40
       -1.2891208085902819 6.000052197011561
000410 49 13 0e 2d d3 d9 08 c0 68 99 a7 22 f6 75 d8 3f
       -3.1063598174972964 0.382199796526399
000420 40 4c 73 9a c3 ed e1 3f 04 37 41 bc 9a 1f f1 3f
       0.5602739349946049 1.0702159265233044
000430 ed a1 ac 0c 7b 13 21 c0 be 9f 58 17 d2 40 17 c0
       -8.538048168252283 -5.813301434311084
000440 57 0c d9 70 b4 b7 d7 bf 84 00 84 24 1d 87 14 c0
       -0.3705874540357334 -5.131947107846035
000450 c0 97 ca ca 60 81 ba 3f 36 1c 33 78 fe 55 f7 3f
       0.10353665305100801 1.4584946341799543
000460 ce 87 b7 cd 12 04 0f c0 95 39 9c e5 64 2f f4 3f
       -3.876988989985853 1.261570832171491
000470 49 ac d7 39 57 f6 e8 bf 9b 58 d8 63 d2 aa fe 3f
       -0.7800708894477647 1.9167045498084352
000480 37 ea 0f 65 04 0a ec bf 4b 13 36 60 c8 24 17 c0
       -0.876222798716589 -5.7859206231122
000490 5e f8 d1 4d ec 11 f8 3f 54 01 ee 3b 44 c0 fc 3f
       1.5043757476664932 1.7969400731090746
0004a0 cc a6 dc ce 7a 44 25 40 93 e0 9d b3 06 04 12 c0
       10.633749451098446 -4.5039318146811125
0004b0 c3 dd 9b 7f 72 28 14 c0 da eb 36 10 89 64 08 40
       -5.039499277008363 3.049089552570405
0004c0 36 e4 58 50 19 16 07 c0 3c d2 71 98 24 4b 06 40
       -2.8857904698493497 2.7866908941016657
0004d0 f3 23 9f 4b 51 7e ef 3f c2 5b 71 4b b5 3a f0 bf
       0.9841696240410996 -1.0143330523476242
0004e0 d2 63 09 2c 17 2f 0f c0 7f 2c 3c 8d 6c 21 17 c0
       -3.8979934158673837 -5.782640654370993
0004f0 d8 fc 8a d7 9c ca 06 c0 7c f2 1a dc 82 c7 02 c0
       -2.8489319648066207 -2.347417563984264
000500 0e a2 bf 72 6b 8d 21 40 88 17 bc 92 87 1e 00 40
       8.776210389988616 2.014907022824392
000510 ed 4b ef e6 5d 8f 0d c0 94 e7 4f 83 b6 70 f9 3f
       -3.695003322770836 1.59001780790138
000520 9b cd 63 8a 94 b0 15 c0 69 de 4e c8 28 12 15 c0
       -5.422441637364865 -5.2677336977136315
000530 99 84 9d 07 67 7b 11 c0 08 6b cc 73 3a 9e 07 40
       -4.37051021479524 2.9522599264868212
000540 b8 2a 6b f3 9a 3d f1 bf 00 1f f0 67 be 9d 17 40
       -1.0775403507747523 5.904046653776959
000550 57 ed 2e 38 8d 92 19 c0 d4 aa 46 ff f0 b4 e8 bf
       -6.393116834510997 -0.7720875726566541
000560 32 b8 da b1 42 c3 ed 3f 94 2c 0e 5c 9d 31 16 40
       0.9300855134695267 5.548451841702576
000570 8f 49 e5 3e e6 b7 12 40 4e 73 e5 89 85 41 1f 40
       4.679589255089367 7.813985972051183
000580 ef 1d 9b 62 3c f4 e0 3f 34 98 e2 d2 49 d6 16 c0
       0.529813950147341 -5.70926599033378
000590 db 33 df 65 2f 52 0a c0 54 66 29 6c c0 e6 18 c0
       -3.290129466890432 -6.22534340861019
0005a0 84 16 5d 40 f8 01 02 c0 3e 86 16 59 e2 7c 20 40
       -2.2509617832573117 8.243914398192938
0005b0 bf 6d 46 fe 5d 43 07 c0 c1 b2 36 01 88 65 0b 40
       -2.907894121670068 3.424575814706572
0005c0 5c 34 67 5a 94 41 e0 3f f8 c8 08 ad 56 a2 1b c0
       0.5080053106008893 -6.908533767377087
0005d0 d8 cd c5 91 42 aa 08 40 d6 3b 79 10 53 da 08 c0
       3.0831347836008085 -3.106603745174179
0005e0 fc bc 6f 98 2b fd e8 3f 3a d8 9f d0 12 b8 01 c0
       0.780904576995368 -2.214879636648246
0005f0 a4 96 6d bf 79 92 12 40 96 e9 88 20 5b e4 18 40
       4.643042555869815 6.223003872257683
000600 1c 85 f9 f1 7e dd 04 40 da f5 98 93 0d 0b bf bf
       2.608152285029645 -0.12126240590529083
000610 cd 9d 65 8a 01 b7 24 c0 b8 cd dc 4e 13 82 12 40
       -10.357433628944728 4.62702677939108
000620 d8 ee 54 5e db f3 21 40 97 05 c5 93 67 e8 10 40
       8.976283023708149 4.226957615757235
000630 b1 f1 90 3b 43 8a 14 c0 f2 0c 73 6c 05 44 0e 40
       -5.135022097322165 3.7832134697542807
000640 70 f4 a3 6a 03 bf ff bf 90 b3 93 c5 02 d0 10 40
       -1.9841341176645777 4.20313557352064
000650 1a 92 00 6c e0 44 07 40 d4 42 3c 20 5f 15 26 40
       2.9086311757730643 11.041741378170094
000660 18 35 b6 49 8b 36 0c c0 a0 ff c1 ef 27 6e bd 3f
       -3.5266328581552777 0.11496209720098571
000670 c0 aa 10 a1 e5 c9 b7 bf de 2b 1f 60 a3 58 17 40
       -0.09292445356610823 5.836560727980183
000680 12 c4 d6 b9 64 78 f1 3f 6c 11 7b 64 5a 70 e3 bf
       1.091892934735601 -0.6074649775041912
000690 db 25 8f f7 a9 13 0b c0 eb 98 47 b2 50 01 08 c0
       -3.384601530128504 -3.000642197427728
0006a0 50 d2 bb 46 49 5e ef 3f 0b 08 ff b5 5d 25 1c 40
       0.9802595502392908 7.0364902913006615
0006b0 09 6e ae af d7 f5 19 c0 e8 38 42 e8 e4 55 f5 3f
       -6.49008059026847 1.333470256100151
0006c0 54 08 d0 a0 cf 44 26 c0 b2 a8 09 87 87 4c ed 3f
       -11.134396577257725 0.9155919682937308
0006d0 02 2b e3 79 01 bc 1c 40 3c 15 04 7f 32 66 17 c0
       7.183599380960688 -5.849802002548412
0006e0 1c a8 44 76 12 dd 10 c0 1a 29 97 e8 69 f6 20 c0
       -4.215890739384147 -8.48127676816198
0006f0 f4 28 c1 1d 10 55 0c c0 3a 59 d0 d1 05 19 1c 40
       -3.5415346455166574 7.024436262456499
000700 82 92 2e b1 30 f7 05 40 94 03 73 4f a5 f8 f9 bf
       2.745698341592573 -1.6232045272338143
000710 9f 85 e7 68 7c f2 00 c0 c0 a4 6b b0 2a 5b 0d 40
       -2.1184013553290266 3.669515016827603
000720 05 37 13 32 c1 a9 f8 3f 7f a9 c4 8a 5a 73 0c 40
       1.5414440113121952 3.5563250390306957
000730 14 7e 34 b9 92 53 20 c0 56 35 d6 bf 12 df 1d c0
       -8.163228786142135 -7.467844960641136
000740 6e 6c 73 2f fc 59 0f 40 c7 06 90 f3 f8 14 23 40
       3.9189380366420243 9.540961848574979
000750 10 9c 09 08 62 b6 21 40 6a c8 93 09 75 2d 1f 40
       8.856216670201349 7.794391774792624
000760 70 20 5e 2f 28 a5 f6 3f 70 ee b6 fe 3c 22 1f c0
       1.4153215265560242 -7.783435802378889
000770 30 fd 6d 86 00 cf de 3f c2 05 38 a5 23 bb 00 40
       0.4813844025411127 2.091376581928416
000780 2c 3a fd 31 17 8c 08 c0 10 03 e1 be 34 09 16 c0
       -3.0684036164668864 -5.508990271075859
000790 f7 47 55 2d 36 1e 10 40 14 98 71 1b d4 38 fd 3f
       4.029503544168612 1.8263741561909272
0007a0 f8 f1 67 b5 75 c0 10 40 6e 4f 42 a8 d4 10 08 40
       4.187949022740661 3.0082181115375795
0007b0 5e 6c 84 96 ed bc 02 40 22 50 20 1d 74 b4 03 40
       2.3422500380670916 2.463112094448676
0007c0 e2 18 29 dc 45 f3 fc 3f 97 f8 f2 82 3d 7e 07 40
       1.8093927955647406 2.9366407614134675
0007d0 60 98 37 27 93 67 08 c0 88 57 0f f5 97 3b 0b 40
       -3.0505736411897004 3.4040984292323095
0007e0 de ec 0a 30 61 fa 2c 40 41 df ef 53 f3 40 0f 40
       14.489022733052874 3.9067141110971595
0007f0 81 2e 9e bf 7d 6b 05 40 9d cc b8 7f ca 9b fb bf
       2.6774859399936877 -1.7255349148879653
