enemy_3_experiment/best_weights_enemy_3.npy (npy, 2248 bytes, 1 tensors)

array f8 [265]
1.8105375116011868 -1.6397744661253673 -4.429164146608146 -1.5692903094569102 -1.1677108548648762 0.10575912745359539 -3.020331630929778 -1.8645236771785778
0.8426425008960762 -1.2811102457931178 2.058776573611305 -1.2848523120053716 4.535139448164996 -2.2663519326962067 0.9189575516172016 2.8025818186017117
0.6987646962241904 1.6585713194957552 0.2618919003626608 -3.2235456085861975 0.3098459447005616 -0.516148749717107 1.9420988189965445 3.6703818299270115
1.1329580446349143 1.6822849198397618 1.7963682555338853 0.14090847682524799 -1.2096969253647438 -1.1023781780264987 -0.0723013805930143 0.05894567108943061
-0.8452128894596139 -3.2445614218553267 -4.2649970752737305 -3.5000980518689397 -3.141755151541123 -3.8286330478380037 -0.5890380620734549 -0.31334488207783784
2.5326227805669785 0.6038370663363003 -0.3627820810450447 5.417072698062571 -1.1603261320805305 -1.5958209265185304 1.8573357724927284 2.8711551679153478
-0.8178827940285329 -2.851380001090038 1.8585110850853381 -2.475447717043882 0.08690817354972147 -3.5842310742357544 -1.979104615641941 0.6738917834101632
3.0408399079690245 -2.6746977684059345 -1.5965383185025126 0.4636114790210537 1.2919732182347285 3.63953593604755 -1.877342036336572 2.6734766723526575
2.1323231463260797 4.810967408495032 3.3100322360595573 -3.461271460078089 -0.1406006433062031 -1.6759434669491993 -0.9546312887127715 -4.02042841256597
2.999362946639902 1.108178926369674 0.14968799834594818 3.7377128663392925 -0.5984191040163815 -1.981736751240425 0.2634894894865876 1.685186922974153
-0.5516572194980146 -1.20006335077655 1.0346732508907934 -0.0884359523766115 -0.9835179526264616 0.3551769719036257 -1.8712840738888432 -0.046574694903396385
0.0746235407791277 -0.7532296504194118 -2.585855442796941 -1.1588294300583821 -0.2744508812224935 1.3548673675775138 -0.5557443660861121 -3.8949449470984083
2.707703900866432 0.17490403193563697 -3.1304051936871415 2.9545793819587467 -1.2493723985457408 2.2619055490422673 0.29523548623345386 -0.9453748010204103
-0.34232571533046047 0.9515468225819926 -4.985625753740827 2.987222912842953 -2.481720108618876 -0.4004257889963723 -3.961220513876853 -4.178252249828022
-1.5681240695297252 5.776841856617466 -3.0062677343370994 2.4040736218679304 1.714516821664567 0.3547035696831371 -3.931023667623565 0.6550151178919862
-3.746157660388282 -0.7536956879135803 -2.4080487117489704 3.5363199525912643 0.4455888284139127 -0.8847674292210271 -1.3413959682119587 -1.2195242406837727
-1.3820370070733317 -2.1913626994096562 0.8703834222024619 1.3389183373919384 -4.05921153235794 -1.3006051176143656 1.5634732755449872 2.7419644722646543
-3.699356457112782 1.5496266697136833 -1.7331442164949518 -4.4524354110095254 0.955606110888247 4.346876013522746 0.3391391875738996 -2.7785037454703594
7.795461454411985 -2.223471954327989 0.8178049587343311 1.8208908087562783 -0.21385868024551002 -8.69026670752698 -2.498701958226715 0.39696449169474257
-1.9517372025833568 0.07547877445615403 -0.082379975204658 0.282709772913615 -1.1786829309634461 -1.9833383585114746 0.54026796302153 0.6246108029107058
6.187935048683568 -0.5554992119357345 -0.2860001888096476 -0.9394456062626971 -2.0370568296990283 0.39009068580772976 0.27607297137471876 -2.8844176894583176
0.44348499864987384 1.7690057651955233 -2.0707355617731045 -0.3486326619791502 -1.5445011198359695 1.6092730725110294 -1.672112922015826 0.8028567227930188
-3.5694404371177884 0.6672815642446785 -2.2788554199276034 4.319038067278476 2.042317214095759 -1.5009107564711541 1.5963953153266934 -0.16488165376192632
-2.3410766164072205 0.41563351356802514 -0.15923310645706223 -0.47716846315593653 -1.4260699980011884 2.0834332143097845 -1.289697217494192 0.6528095165208097
-1.827552929401537 -0.2126886695654568 2.5112639183176975 -1.3395683423334108 1.6421107256238097 0.17312411161386243 3.5177030211600497 -3.315779461669438
-0.7818252852263965 -1.6519951616422588 1.1906177007847527 -1.3496997939907323 -3.121617740524172 3.06982057434328 -0.9822747786763896 -0.8348523573333986
-5.165214702558951 -0.7009154763885991 -2.4101930779528065 -0.015578450818429124 -1.7980211562908914 3.991009932369086 3.83024793526248 -4.02832993919074
-5.515428229801985 5.011315191402685 -0.24286217990898917 0.43649259992423517 3.0954559153213435 -1.519697668583633 2.029706630437471 -1.030042376218199
1.5678212950790211 -0.1881834275345563 -0.20025982927066588 -1.8159784417149045 -0.40913233988337105 2.2591008031405453 -4.459363457466928 -1.7837163819657023
-1.5042596261143109 1.2678719986013136 -5.551737592349067 -1.1066600453678916 -2.9196041049299817 2.0125313218407865 1.6143904293711222 -0.22517916168374785
-1.1105121806225569 0.44891769258006886 3.8361398801523605 -0.9257996294907089 0.8765135741273395 3.413816675735434 -4.882078039139982 3.208982450717637
2.3622379820987294 -2.582136442163964 1.2644867136059061 1.8825826905235876 -2.3876845743600232 1.9605899056278697 -0.3245932698765691 -4.4120399078621055
00000000: 1222 882e f6f7 fc3f 6230 8d26 843c fabf
00000010: e230 59ce 76b7 11c0 1fc1 d027 d01b f9bf
00000020: f442 cd93 f1ae f2bf 10ac aab9 0713 bb3f
00000030: 8757 4fa1 a329 08c0 2e98 81c7 16d5 fdbf
00000040: 7f2f f267 edf6 ea3f 0a08 0475 6d7f f4bf
00000050: b273 2bda 5f78 0040 880c 444c c18e f4bf
00000060: 2eac 7298 fb23 1240 b840 411f 7d21 02c0
00000070: a975 d3aa 1968 ed3f 8611 3a04 b06b 0640
00000080: 933b bcc7 475c e63f db15 7514 8289 fa3f
00000090: 5946 c93e d6c2 d03f 4b56 b047 d2c9 09c0
000000a0: 7260 d215 84d4 d33f 1d00 fd61 4a84 e0bf
000000b0: ce0b 1336 d612 ff3f 04f4 1a26 f15c 0d40
000000c0: 2e27 579d 9820 f23f 8c40 9497 a3ea fa3f
000000d0: 2273 d1a3 ecbd fc3f 58c8 d8f9 4909 c23f
000000e0: 9736 c829 eb5a f3bf 822a e74c 57a3 f1bf
000000f0: fa46 1ae1 5782 b2bf f0c6 2383 202e ae3f
00000100: e35f cce6 fb0b ebbf e8da 659e dcf4 09c0
00000110: 6558 af64 5b0f 11c0 3290 4c68 3300 0cc0
00000120: e944 5f86 5022 09c0 d0ca 065d 0aa1 0ec0
00000130: f58c 9659 66d9 e2bf aa2b 39b1 d70d d4bf
00000140: 391e 7dbb cf42 0440 1fdd 801c a252 e33f
00000150: 5273 6a55 d237 d7bf d3ee f81a 15ab 1540
00000160: 4eae 5f22 b290 f2bf 4db6 1a86 7b88 f9bf
00000170: 30c1 08b7 a5b7 fd3f a180 5f33 20f8 0640
00000180: 7209 8a89 182c eabf 8633 6951 a0cf 06c0
00000190: b91e 9b1e 76bc fd3f 6a4a 5d88 b7cd 03c0
000001a0: 80b1 2633 9d3f b63f 3432 6957 81ac 0cc0
000001b0: 72b7 f899 69aa ffbf c445 5980 8590 e53f
000001c0: f4c9 a8df a353 0840 c0e6 8ff1 c765 05c0
000001d0: 4a77 8cc3 6b8b f9bf f884 1c7b cfab dd3f
000001e0: 3804 fa1b ecab f43f 1e87 4f04 c51d 0d40
000001f0: c28b 97cd 9709 febf 13fd d2bc 4763 0540
00000200: 70cb 0f70 ff0e 0140 a16e 863d 6e3e 1340
00000210: 04a7 542e f27a 0a40 93e8 5c17 afb0 0bc0
00000220: 62fa 65ae 33ff c1bf dfdd c718 aad0 fabf
00000230: 5c4f 98ea 568c eebf 2885 8f2f eb14 10c0
00000240: 7838 2500 b2fe 0740 7cfc 6dd3 19bb f13f
00000250: 3df1 bff0 f928 c33f 1d20 d600 d6e6 0d40
00000260: d4a9 21d2 3f26 e3bf 1bbe 7d98 31b5 ffbf
00000270: f9d0 0b05 03dd d03f 3c22 1d90 86f6 fa3f
00000280: 9d14 8b0a 2da7 e1bf 536a cba0 7533 f3bf
00000290: 8df3 e989 058e f03f 6887 3f13 bda3 b6bf
000002a0: abe7 31a4 fa78 efbf 9793 a731 38bb d63f
000002b0: 3a0d ae91 c7f0 fdbf d0ce dc6e a3d8 a7bf
000002c0: a877 2843 871a b33f 70b9 5d11 751a e8bf
000002d0: c0f8 77fa d4af 04c0 9ee3 7bba 908a f2bf
000002e0: 1860 cd6d 9a90 d1bf c89b a267 89ad f53f
000002f0: d6d5 a868 a8c8 e1bf 9e10 7ce5 d828 0fc0
00000300: 9bc8 aba9 60a9 0540 a011 8d5c 4163 c63f
00000310: 26eb d0e0 110b 09c0 f596 d783 faa2 0740
00000320: ed76 84e9 6dfd f3bf 3e38 beef 6118 0240
00000330: 2872 7f61 23e5 d23f a10b 9ba7 8240 eebf
00000340: 0125 fb1d aae8 d5bf a346 7352 1273 ee3f
00000350: 18a6 a9e0 47f1 13c0 c12d 6420 d5e5 0740
00000360: c6bf 8212 90da 03c0 fdb8 0d7d 93a0 d9bf
00000370: 60c3 7a61 94b0 0fc0 92cc fdc1 87b6 10c0
00000380: a835 ab43 0917 f9bf 0058 816e 7c1b 1740
00000390: 9dfb 0f19 d60c 08c0 d1ca 78f3 8a3b 0340
000003a0: dfdb d730 a96e fb3f e410 e499 76b3 d63f
000003b0: 24f6 6189 bc72 0fc0 cd69 b743 e2f5 e43f
000003c0: 6a38 e881 21f8 0dc0 9c33 576b 461e e8bf
000003d0: 1518 010b af43 03c0 f292 841d 624a 0c40
000003e0: a40b 6001 8784 dc3f f33f a2c8 0350 ecbf
000003f0: 4f4e 679e 5b76 f5bf 16a8 a6d9 2b83 f3bf
00000400: ecdd 33d6 d21c f6bf 2a1c bd2a e987 01c0
00000410: 61e2 aa55 2eda eb3f 22cf 71a2 356c f53f
00000420: f617 acf2 a13c 10c0 799f d24f 47cf f4bf
00000430: e52b aa8d fc03 f93f 5e5d b911 8bef 0540
00000440: da5d bc32 4898 0dc0 e7df b655 45cb f83f
00000450: cb8e 116e f5ba fbbf 595a 773a 4bcf 11c0
00000460: bced 4344 5394 ee3f 6163 3777 3363 1140
00000470: 8c00 dbd9 74b4 d53f 9fde f42b 603a 06c0
00000480: 58b6 8f72 8d2e 1f40 9c4b fba9 abc9 01c0
00000490: 9ba8 084e 752b ea3f 901f 9366 5e22 fd3f
000004a0: 4862 cfa2 b85f cbbf 24b1 4ca3 6a61 21c0
000004b0: 7947 c873 57fd 03c0 c423 60c1 dd67 d93f
000004c0: 74b6 f7c9 503a ffbf d0d2 d4b3 9352 b33f
000004d0: 886b 59a3 da16 b5bf a81b 3bbb ea17 d23f
000004e0: 7c76 0da2 e2db f2bf 8058 ab00 c1bb ffbf
000004f0: d720 080a e049 e13f 625a 67cb cffc e33f
00000500: ed78 9f0b 72c0 1840 d4f7 8648 a6c6 e1bf
00000510: b295 65bc d34d d2bf 199d 683b f00f eebf
00000520: c634 7d73 e44b 00c0 a42d 81ec 3ef7 d83f
00000530: 244b d7f7 2dab d13f a1d1 e194 4913 07c0
00000540: a3f0 5de7 0e62 dc3f 2234 3ffd d84d fc3f
00000550: 5ed6 63ce dd90 00c0 d424 615e ff4f d6bf
00000560: 3a4b 65ce 46b6 f8bf fd4a 0c1f 95bf f93f
00000570: 796e b47a f9c0 fabf d2a1 f894 00b1 e93f
00000580: da86 b3c9 368e 0cc0 a0f2 f4dd 5e5a e53f
00000590: 1336 e78c 183b 02c0 778f 44ea b146 1140
000005a0: fdca 5468 aa56 0040 b321 54ff ba03 f8bf
000005b0: 560d 6dd0 d58a f93f 5416 4f8f d71a c5bf
000005c0: de31 8760 86ba 02c0 005c f94e bd99 da3f
000005d0: 8037 561c c061 c4bf 30fd fb97 ed89 debf
000005e0: dc8c 33c6 2ed1 f6bf aee2 7608 dfaa 0040
000005f0: 7913 ae8c 99a2 f4bf b02e 7fc8 d0e3 e43f
00000600: 4cd1 f723 a83d fdbf aeb6 01e0 6139 cbbf
00000610: 0565 8689 1117 0440 4e43 d136 df6e f5bf
00000620: 0471 6fe5 1546 fa3f 78ea c34e ee28 c63f
00000630: ea61 477b 4124 0c40 24f3 e461 b786 0ac0
00000640: be76 e775 b604 e9bf b375 867a 926e fabf
00000650: 318c 6e25 c50c f33f e9ba a9cf 5e98 f5bf
00000660: 5f51 d1b8 12f9 08c0 7b23 db16 fe8e 0840
00000670: 3139 4384 cb6e efbf d488 774a 1cb7 eabf
00000680: 7b3c 010b 2ea9 14c0 692d 0b4b e66d e6bf
00000690: b4d2 f64e 1348 03c0 80cb 4c46 98e7 8fbf
000006a0: 5791 fcd4 b1c4 fcbf 8a4a 8c9d 96ed 0f40
000006b0: e630 8c07 59a4 0e40 9f49 0986 021d 10c0
000006c0: 22bd f96a cc0f 16c0 0e17 a435 960b 1440
000006d0: f07a 12a0 1b16 cfbf f2b7 67a8 7eef db3f
000006e0: 8c1e 1464 7ec3 0840 85fc a580 ae50 f8bf
000006f0: 5aa0 71d4 d63c 0040 e59e f5b6 0d7b f0bf
00000700: 6063 45c8 cb15 f93f 547e 7401 6516 c8bf
00000710: 50c4 b534 1da2 c9bf 4281 1669 3f0e fdbf
00000720: 043e e268 392f dabf 0ad9 1e71 a312 0240
00000730: 1831 cb5f 63d6 11c0 3a1d 5e30 1a8a fcbf
00000740: 9caa ad8a 7211 f8bf da1b 1826 3449 f43f
00000750: bc73 0cb3 fa34 16c0 cd51 ea29 e1b4 f1bf
00000760: 7288 9f65 595b 07c0 c9da 8b05 aa19 0040
00000770: 69fd 110f 8bd4 f93f fc10 96b7 abd2 ccbf
00000780: 2056 996b a8c4 f1bf 148a 0e46 11bb dc3f
00000790: 0316 011b 6ab0 0e40 e8f7 698b 26a0 edbf
000007a0: 5810 ec31 660c ec3f c395 061e 7f4f 0b40
000007b0: 0e81 2a77 3f87 13c0 5629 bafd feab 0940
000007c0: 57dd f306 dde5 0240 6f3b a726 37a8 04c0
000007d0: 469f 926b 563b f43f 2f08 fd06 0f1f fe3f
000007e0: e151 c05e fa19 03c0 7ea1 5885 935e ff3f
000007f0: bec7 a7d9 22c6 d4bf 8ca8 23ca eda5 11c0
