CMA-ES/Group2_run_7/best_weights_Group2_run_7.npy (npy, 2248 bytes, 1 tensors)

array f8 [265]
-1.7629877325833978 1.004577550923368 -1.791550772015651 0.673856751205922 0.4562613034658268 1.4334111576866744 1.2919758572676519 -3.1053035674232126
-1.0902335429263386 0.31656572903899216 1.9717962294609173 1.518157934248701 1.5426374693637483 -0.6795412227760805 1.4576036264697452 1.463708332834836
0.8670189590868556 -0.8394990651640504 0.7525937417897681 -2.169910231730355 -0.8150458654860027 -0.18304577011916934 -0.24402253903286097 1.8255945636414113
0.7163912831518982 -0.9414612842125327 -2.312749325663721 1.5063040059499566 1.2897285468550375 1.8564907032654512 0.03604691444144614 -0.4209307407068019
-2.886573443789375 -1.850568022142872 0.5510546089048644 0.5283538859937489 -0.6405081411104216 -1.430647842430026 1.0376896852934543 -3.352175804129338
-1.3661371386351573 -0.895662601207647 -2.688884742768338 0.08815948741751164 -1.828394939872115 0.2919357641996292 -1.8902383863150676 0.5765706125770569
-1.0370449874199232 -1.3894441412781249 -4.105622485662363 0.20227455877116385 -1.0448301058181115 -0.03894195743143236 -0.030202622890807107 -2.5546359504352116
0.7188760740927271 -0.25990351819612323 0.30119255574717296 -0.6556069415958994 0.6730897337302049 1.4353836001260358 0.6391180121467881 -0.12845049562205574
-0.020569490024988424 -2.1238241304319563 -0.10008770918649948 2.5742374628033833 1.34678258942054 1.440242472519857 -0.9464219654909869 1.523791443711433
1.858998721826436 0.17431306117532197 1.4727842237953117 1.4796712447054459 0.41166489179827226 1.2042182743477425 -0.04159398970115363 -1.3391717918362012
-0.21198994221711556 0.9479574360892274 -0.2281687243417616 0.021350802771061272 -1.1098050950147034 -2.6607538178511003 0.42672863206341144 0.27884937799727827
-2.066347265548621 -0.1922550904230094 -0.311096623347486 0.6741099837495703 0.0649808236101993 0.2551055634725907 -0.905915431930338 -1.3179854510077695
0.5516113512012593 0.10350306427062361 -1.19444034924531 -0.9369576086544763 0.4563104719988187 0.26017225767375435 0.12738963474550105 0.0712860494999703
-1.3115509151347222 2.8522907651312304 -1.8637291251066261 0.2297161879186932 -2.9563454855237703 -1.2904185531199852 -1.1461590161837942 -1.0938498540665005
-0.3891672289937471 0.6431941572716304 0.9219413038890694 -1.0116511313196561 0.22851309878393933 -0.6771387236274214 -1.5752685067835919 -1.4412537074084506
0.4042944749761046 2.3642620885679633 0.2831230493963405 0.24920140351724945 -1.9108856779632788 -1.1429921201120647 1.5975809102016814 0.6090904100308414
2.5296461619147257 0.7191091687659468 1.5513212689657 -0.5177538753929085 -0.4703330352236101 -2.1849556481498875 0.05595642956412458 -0.6421087070715445
-1.3669526031553378 -1.6724034375519272 0.10543950393345833 -0.5583428459562865 -0.3676876091719896 2.2254575907312804 -0.8839303950325004 -1.8422991064899161
-0.4773111478286031 2.2295345183656754 -1.9428905720417022 0.3345975443831236 -0.06808253702296874 0.28446327145142664 -1.144234280736102 -0.7056445189315945
0.20277571942933104 0.08825168012296146 -1.6113834369717766 -0.184644651126316 2.255825351928224 0.09903158013165145 0.6824408877098948 0.7182366177195816
-0.18185883263093683 0.1589062364006027 -0.8099030214337919 0.5109001899812868 -0.8092498245854556 0.879370720344156 -0.38321569634829955 0.08717149267529392
-1.088505878980303 -0.19563638111579496 1.254365113771112 0.7367518913782364 -1.3337224706766875 -1.257775945871951 0.28157721990291545 -0.24162062454699396
-2.377233764539948 2.176517145705289 -1.4406144447111058 -0.06075500447138027 -0.6665983274769725 0.4566995756716652 0.6449235490004388 0.5402061081142281
1.9058449238702804 0.45299338923196864 -0.8731714553051141 -0.08038469888814084 1.3854554159288839 -0.05546684422895076 0.1104976641353026 0.11826745791467266
-1.574530018554381 1.3416489897436075 -0.8973000595904432 1.5627197126363992 -0.5192674874253468 2.0005790960856342 -1.6280389130515704 -2.0126606583016677
0.13011005552930177 3.013454030941923 -0.983349795197916 0.8124180784793126 -0.8579911470369554 0.9712626706947856 -0.26440816642478593 1.4780467355916604
-0.5193282734516556 0.8547035035356563 0.6593317167756569 -1.4413645974337381 -1.930818060512677 2.5278844008431594 -0.7064230178352832 2.1795754253342943
-1.4506463572485968 0.35296797139530733 1.1086590254192012 0.13384685426103926 0.641083321347213 2.270855557343008 -1.144856107436671 0.38932919365822505
-0.09546162842566408 0.47512796450550726 0.9805992126658475 -2.1302035769055996 1.9447082682140433 -1.1641606801483035 -1.1922114719372197 -1.5905844002070562
-2.1157423736125454 0.14889402239722438 0.9852242375669007 1.298729337231602 -0.48450948628047624 3.1604112679432297 2.0970584531955083 0.3095929197883604
-0.2376083468540281 -0.7356897009217866 -0.767375917773924 0.5720878889492923 1.469058691527939 2.7419604274791176 -2.7055682324930093 0.014405024232794744
-0.3075512803115434 2.3442687398938484 -3.7013289325019136 1.950135816087557 -1.3126548865620355 -0.40131513840809063 -0.4861275124689518 1.512119553735206
00000000: 421e eb9f 3235 fcbf ae2f f8e8 bf12 f03f
00000010: 72e4 6e24 31aa fcbf a7c8 9308 3c90 e53f
00000020: 493a 349c 6233 dd3f b2c5 bf89 40ef f63f
00000030: 62fa 62e0 eeab f43f eee0 9165 a9d7 08c0
00000040: f2ee 3dba 9871 f1bf 8a70 50e7 9c42 d43f
00000050: 7092 fe33 7a8c ff3f 6c2d 5cf9 5f4a f83f
00000060: 2606 88a0 a4ae f83f 7f6d 033c cdbe e5bf
00000070: 347f 232e 5852 f73f 6988 c66d 596b f73f
00000080: bc47 498b 9ebe eb3f 92de bc24 2ddd eabf
00000090: 8e29 8578 3f15 e83f 1f4d 44e5 f95b 01c0
000000a0: a213 2011 db14 eabf a49e 2a36 0b6e c7bf
000000b0: d806 516c 213c cfbf 2786 29a5 a235 fd3f
000000c0: 30dc 8869 adec e63f 5e93 446a 7320 eebf
000000d0: ea92 ecb7 8280 02c0 be38 b63a d219 f83f
000000e0: 1e5c 9766 baa2 f43f 84a6 7d98 2fb4 fd3f
000000f0: 20a2 4bbd bd74 a23f 90df 4d7d 87f0 dabf
00000100: a39e 54d1 b317 07c0 5a08 e236 ed9b fdbf
00000110: 8bce 7146 3da2 e13f 62d8 a168 46e8 e03f
00000120: 3083 dced 0a7f e4bf 5d47 f5fd eee3 f6bf
00000130: f0b5 db7f 609a f03f 906c 498c 41d1 0ac0
00000140: d29f c49d b2db f5bf 00fd 8d9d 44a9 ecbf
00000150: 223a 0701 d682 05c0 7653 4ac3 9e91 b63f
00000160: 0ec3 6e0d 1b41 fdbf 8c4a f157 13af d23f
00000170: 5adf 2d9b 6a3e febf f84c 9b36 4473 e23f
00000180: 5730 177c bc97 f0bf 9a88 a6c7 293b f6bf
00000190: 7d91 064d 286c 10c0 c813 5efb 21e4 c93f
000001a0: 13d7 e5c5 9fb7 f0bf 906f 3843 33f0 a3bf
000001b0: a01a 47b6 6fed 9ebf de70 22f9 e46f 04c0
000001c0: 465d 8365 0801 e73f d621 b15d 42a2 d0bf
000001d0: 9ee5 2e24 bd46 d33f 46eb a568 bbfa e4bf
000001e0: 62a0 347b f389 e53f d818 3ccb 54f7 f63f
000001f0: 3e8f 0e9e a773 e43f 2e05 edda 1071 c0bf
00000200: c096 cf1b 2b10 95bf 8149 7581 97fd 00c0
00000210: da04 b01d 599f b9bf 4407 97cf 0998 0440
00000220: 7822 86e6 6b8c f53f 0687 dcb0 3b0b f73f
00000230: 9afe bfb7 1649 eebf c8a4 0a23 7361 f83f
00000240: 36ce 9871 75be fd3f 74bf 81f0 e34f c63f
00000250: ef3f b430 8690 f73f cc76 4dc1 bbac f73f
00000260: 5ad6 cbb3 b758 da3f 131b 9961 7a44 f33f
00000270: f806 f4b2 ce4b a5bf 6398 9a66 3f6d f5bf
00000280: f5a3 7386 7c22 cbbf 8f1a 40d5 aa55 ee3f
00000290: b84a 82fc a134 cdbf 2089 941e fcdc 953f
000002a0: 705b c0fc c2c1 f1bf 5c05 334c 3949 05c0
000002b0: b5aa be9b 854f db3f 3487 c00f abd8 d13f
000002c0: ceae 3d13 e187 00c0 d19c ed96 d09b c8bf
000002d0: 561a cbcf 01e9 d3bf 6091 c319 4f92 e53f
000002e0: 18e0 4550 95a2 b03f 901d 0949 a653 d03f
000002f0: f8a3 225c 42fd ecbf 36ea 8ae9 7716 f5bf
00000300: 7e60 30d9 cca6 e13f 50ff 1344 2d7f ba3f
00000310: b780 d07b 6d1c f3bf 5519 dd85 8efb edbf
00000320: fca9 83d6 3034 dd3f b341 828a a9a6 d03f
00000330: 7168 8ab5 4d4e c03f d06e 4373 cd3f b23f
00000340: 18ae f8cf 1cfc f4bf 225f 17d2 7dd1 0640
00000350: 6ef8 8ea1 d5d1 fdbf 6c7d 3c0d 5767 cd3f
00000360: c203 4076 98a6 07c0 e4d4 bcec 8da5 f4bf
00000370: 1e66 28d6 aa56 f2bf 2b33 5fb4 6880 f1bf
00000380: 60ff 4caa 1de8 d8bf c6b7 cee9 0b95 e43f
00000390: f41f a10c 8b80 ed3f 50ab bf18 b92f f0bf
000003a0: 9408 fece ea3f cd3f f9b7 1ad4 1eab e5bf
000003b0: 56de f0bf 4c34 f9bf c4ed 280c 600f f7bf
000003c0: 7c74 feee f5df d93f 9393 ec3d 02ea 0240
000003d0: 36ab 7923 b01e d23f 4aa8 1ce3 d4e5 cf3f
000003e0: 00f4 53dc fc92 febf ec78 f71a b249 f2bf
000003f0: 6e7b 2000 b18f f93f 6078 ec2b ab7d e33f
00000400: 5e01 7f20 b73c 0440 c24f 433b f102 e73f
00000410: 1cc0 3c40 36d2 f83f da12 4693 7091 e0bf
00000420: 73e2 20bb ef19 debf 2f1d e006 ca7a 01c0
00000430: dc2a f535 52a6 ac3f 0e2c 2b8f 278c e4bf
00000440: 75bf 5bb1 09df f5bf 5c0e 601b 2ac2 fabf
00000450: 4ec5 1955 15fe ba3f 64cf ead0 f1dd e1bf
00000460: a470 229c 3188 d7bf 3e9b 96b5 bccd 0140
00000470: c05b 5365 2849 ecbf f82f bda0 0e7a fdbf
00000480: 232a 7c0e 448c debf 3178 8d31 16d6 0140
00000490: 7403 aa6c 1416 ffbf 9aa2 9cd1 0b6a d53f
000004a0: 803e f16d db6d b1bf d502 f36f a534 d23f
000004b0: 0894 eb9a c84e f2bf 1436 6dd0 a394 e6bf
000004c0: bc98 af05 8ef4 c93f d7f6 f17f a997 b63f
000004d0: fac1 b1ff 39c8 f9bf 8003 fc98 6fa2 c7bf
000004e0: c227 8029 ee0b 0240 0ec8 ef35 225a b93f
000004f0: c159 c545 8ed6 e53f f2a5 fc5b cbfb e63f
00000500: 04be 5175 2647 c7bf d24a 3c20 0a57 c43f
00000510: d0ab bfbd b9ea e9bf 8eac ef5a 4b59 e03f
00000520: b26c 5ce3 5fe5 e9bf 0305 9e10 ce23 ec3f
00000530: dc4e c820 9b86 d8bf 7a13 2ff6 de50 b63f
00000540: 0f96 fb23 856a f1bf b46a 66e9 9c0a c9bf
00000550: 723e 4e27 e111 f43f 9b8a d7b3 7893 e73f
00000560: 73f2 975f ed56 f5bf ac72 93ab d91f f4bf
00000570: 1906 b275 5c05 d23f a4f5 3bb4 6ced cebf
00000580: 182b cd22 9304 03c0 5ee6 3fd2 8169 0140
00000590: d2de 62bb c10c f7bf 20bb 8baa 471b afbf
000005a0: e29e 0204 c654 e5bf 1cd7 66db 903a dd3f
000005b0: 8411 ecb5 36a3 e43f cf66 ee51 5e49 e13f
000005c0: d253 343f 577e fe3f 608d 03fc d7fd dc3f
000005d0: 13c2 8a43 05f1 ebbf 8ac8 d274 1794 b4bf
000005e0: adb0 574c d32a f63f 008b f373 2666 acbf
000005f0: 30da be2d 9349 bc3f fab0 ecaf c646 be3f
00000600: 722e 8463 4631 f9bf 5190 5aee 6477 f53f
00000610: 4879 549d aeb6 ecbf d867 a962 e600 f93f
00000620: 4bc6 8bd9 d69d e0bf 09fe f59c 2f01 0040
00000630: 08c0 0288 720c fabf dccf cad4 ed19 00c0
00000640: 3086 b040 72a7 c03f d228 77c9 8d1b 0840
00000650: 38e8 5cfd 9977 efbf 0dee b732 54ff e93f
00000660: 0200 99d9 a974 ebbf 0ab6 ce73 9514 ef3f
00000670: f8be e53a 10ec d0bf 3c36 7555 14a6 f73f
00000680: be9d cb53 569e e0bf deca 6e29 bb59 eb3f
00000690: 1c8b 18d4 3e19 e53f 1871 f952 d40f f7bf
000006a0: 7cd9 867a a1e4 febf f784 ed74 1b39 0440
000006b0: 35d0 d771 049b e6bf 05cf 973d c56f 0140
000006c0: ac1b 67f4 d835 f7bf 6869 6bf9 0697 d63f
000006d0: 8473 093f 11bd f13f 4ca0 dcca e421 c13f
000006e0: 9950 662b c183 e43f 17d3 8551 b62a 0240
000006f0: d40f 41a3 5451 f2bf d8f7 88fe c4ea d83f
00000700: 1873 1c5c 2c70 b8bf 43d6 3d1f 7f68 de3f
00000710: e142 9c99 1161 ef3f de0d 452c a80a 01c0
00000720: 80d7 c36a 861d ff3f d36a 08f3 66a0 f2bf
00000730: 9d2e 1e56 4c13 f3bf 5eac c6a0 0873 f9bf
00000740: 1a6b 6b56 0aed 00c0 500b 6296 f50e c33f
00000750: a671 f2fa f486 ef3f 6e3f dc69 98c7 f43f
00000760: 3d4a 8b13 3402 dfbf fbce edb3 8548 0940
00000770: 5033 1295 c6c6 0040 2f1b 64d2 5ed0 d33f
00000780: 8451 7f47 f369 cebf acd1 ae20 c58a e7bf
00000790: b176 d2f0 578e e8bf 4d32 af42 8b4e e23f
000007a0: d745 c0af 4381 f73f 8897 d7f2 88ef 0540
000007b0: 643b 1df5 00a5 05c0 b0d2 d29f 6180 8d3f
000007c0: 07fc b190 ebae d3bf 9f08 17f8 0fc1 0240
000007d0: abac e657 529c 0dc0 54ab 0d9d c133 ff3f
000007e0: 1c7f 0b69 a200 f5bf c08e b6b0 25af d9bf
000007f0: d65b ef91 b61c dfbf 0af5 ee45 a431 f83f
