CMA-ES/Group2_run_6/best_weights_Group2_run_6.npy (npy, 2248 bytes, 1 tensors)

array f8 [265]
000000 08 2d 8c b7 ca 59 f4 3f f7 5f ff cf 18 b5 f5 bf
       1.2719218416048665 -1.3567131161598789
000010 68 85 a3 f5 dd 6d 0c c0 5f ad c4 60 0d 06 10 c0
       -3.5536460104491887 -4.005910408024049
000020 a4 5f 98 79 c9 f0 fa bf d3 1c be 35 34 58 f2 3f
       -1.6837858915150514 1.1465341662713413
000030 3d 7b 55 c7 c4 91 de bf e7 5b a4 39 c8 4c f8 3f
       -0.4776470133419258 1.5187456370965664
000040 e4 8c a2 f4 78 74 c8 3f 98 e5 5f c3 cc 85 f5 3f
       0.19105445809427757 1.345165980512638
000050 89 53 5d 1b 0d 9e f2 bf 20 c2 b3 cf 3d 17 bc bf
       -1.1635867184570279 -0.10972963639120126
000060 07 de 71 0d c2 dd 00 c0 f9 33 f1 de 8e fa 02 c0
       -2.108280282056288 -2.3723428170546836
000070 dc 04 0a 90 4e 36 f2 3f e0 ab c4 6b 6b 5e a8 bf
       1.138258516934278 -0.04759536448030821
000080 d9 b2 79 0d 39 7d f3 bf a3 40 ff ed 5f cb e3 bf
       -1.218071987760757 -0.6185760162716359
000090 1b 01 1b 0b e4 70 04 c0 56 fa 12 1c 8a 9a c3 bf
       -2.555122458230597 -0.1531536709862446
0000a0 c4 c3 6f 67 07 d8 11 40 6e 7c bc bf 0f 86 f4 3f
       4.460965744206025 1.2827298631380262
0000b0 fa 8e 46 49 50 05 ec 3f 4c 7b e1 65 12 79 e1 3f
       0.8756486350216328 0.5460292806491025
0000c0 57 d9 30 0f 72 a3 ff 3f 0d 66 1a ca af 79 c2 bf
       1.977403697337271 -0.14433858269039526
0000d0 73 ce af 2f 6d 65 ed 3f 0c af 3d 2a a8 46 e9 bf
       0.9186311656362264 -0.7898751091974829
0000e0 ba 92 55 c1 4d f2 f3 3f 24 7a f6 c4 af 9e dc 3f
       1.2466561843986441 0.4471854613747459
0000f0 ab c4 f8 65 35 c4 e2 3f d3 27 94 88 f1 b5 fd 3f
       0.586451243556572 1.8569197974306817
000100 fc 96 7f a8 50 76 d0 bf fe 8f ba 01 3c 86 f9 3f
       -0.2572213788501896 1.595272070649116
000110 a0 df f4 8e 9c 1e de bf aa 20 59 fe 44 18 dc bf
       -0.47061838112449017 -0.43898129309355716
000120 e8 0a 57 b0 e6 a2 fe bf a1 8a 71 f7 0c 5d 04 c0
       -1.9147707832605025 -2.5454348880314943
000130 88 9e b6 56 f5 c8 aa 3f 7b 75 ac 60 3b 4f da 3f
       0.05231444056999829 0.411085934074286
000140 aa 1d 59 c6 7a 8d f7 bf 92 b1 09 d4 2c b1 f3 3f
       -1.4720409152958873 1.230755642197526
000150 b9 57 86 62 c6 7c ed bf e7 f2 a2 90 40 4e f4 3f
       -0.9214813160240204 1.2691045427192706
000160 60 e2 05 6b e9 0c 66 3f ba 27 4c 83 39 de c8 3f
       0.0026917036959129143 0.1942817584134085
000170 08 b0 92 0e 16 88 c8 bf 94 c6 43 13 dc 01 f4 bf
       -0.19165302001545137 -1.2504540207413912
000180 22 e3 10 ad b7 2f da bf 5d ce 1d 80 b0 38 01 c0
       -0.4091624441239664 -2.1526803979011633
000190 a4 f0 b1 7b b7 46 be bf d0 5d 5d ef e1 e8 e5 3f
       -0.11826655168437356 0.6846780467121167
0001a0 3d 23 62 bd 68 80 dd bf c0 ee 07 9f 02 2e cb 3f
       -0.46096247190921585 0.21234162106690313
0001b0 84 b6 ee 81 05 79 ed bf de 21 71 ad 70 de ff 3f
       -0.9210231340163806 1.9918066763949507
0001c0 c4 b4 db 3d 41 98 e5 bf 62 16 9e 1d c4 3e f2 bf
       -0.6748357971352097 -1.1403237492499092
0001d0 8e e2 cd 64 60 1b f5 bf 04 04 2c 67 54 7c da 3f
       -1.3191837251344256 0.41383848262199785
0001e0 c6 52 a4 13 bf d5 d5 3f 02 01 70 c1 c1 d0 ec 3f
       0.3411710445227921 0.9004830148769829
0001f0 8e 28 fa 91 b3 48 05 40 66 f0 30 42 50 b0 f5 bf
       2.660498753020028 -1.3555452905266292
000200 6a 82 48 f9 8e 3a f5 bf 5c f7 80 ae 5d 5d dc bf
       -1.326796506655365 -0.4431986049784109
000210 b0 00 3b f9 a9 b2 c0 bf 1e 21 f9 27 8c 69 02 40
       -0.13045239133316988 2.301536857881856
000220 4d 46 e5 6f f3 92 d9 3f 5a 49 a1 01 1d 02 d6 3f
       0.39959417273812364 0.3438789859693735
000230 62 0e eb 71 97 f4 02 40 cc c2 9f 39 e1 6c 06 c0
       2.3694294834001974 -2.8031639577751317
000240 2e 51 2b b7 0e 68 f1 3f 3a 71 66 e6 79 27 04 40
       1.0879046587989012 2.5192754745495707
000250 27 df 76 78 64 dd db 3f c9 d5 f7 a9 54 5c f1 3f
       0.4353877235803218 1.085041679323114
000260 52 5a 41 d1 2e 65 eb bf 40 a5 0e 2d 2e fd 87 bf
       -0.8561014258401178 -0.011713371992146393
000270 47 f3 6a 69 3d 50 fd bf b0 73 7f de 57 87 b6 3f
       -1.8320898168451138 0.08800267393185268
000280 d3 22 52 f8 1d 68 00 c0 a4 a6 bb 10 df 56 ea 3f
       -2.0508384132448128 0.823104412728942
000290 c0 d5 5a 63 35 a4 e3 3f fe 5f d9 76 b8 f9 f5 bf
       0.6137949886821659 -1.373466934446696
0002a0 38 f6 de 3b fd dd fd bf 70 a8 31 b0 6e 58 c7 3f
       -1.8666965807636995 0.18238624194356445
0002b0 d7 70 50 38 73 30 e1 bf 0b de 6a bf 16 29 e6 3f
       -0.5371643161666054 0.6925157297727663
0002c0 a8 26 d9 51 a8 8a e9 bf 30 4b e8 4c 6b 79 c6 bf
       -0.7981759642218167 -0.17558041815990455
0002d0 93 89 00 36 7e b4 00 c0 d2 04 8f 1d 20 02 03 40
       -2.088131353274727 2.376037817885483
0002e0 03 2e 9a 8b e2 c5 ec bf 28 b2 ba 3f 5c a2 03 40
       -0.8991558767897349 2.454277513394363
0002f0 ee b7 0b 06 a0 87 e8 3f 81 de 93 e3 ea 78 08 40
       0.7665557973939465 3.0590417651654325
000300 a5 52 8b a9 28 5a 0a 40 3d 60 c1 11 8f f4 f2 3f
       3.2940228696482614 1.1847067540711713
000310 77 3a 07 9e e2 56 fd bf 10 74 01 fe 5b de e7 bf
       -1.8337122128465617 -0.745893474678839
000320 68 72 3d 67 54 ee f8 bf 54 a5 ad 9d 37 a3 ef bf
       -1.558185961991649 -0.9886739806799292
000330 61 31 a1 3e ec b3 f4 bf 9e 38 c1 a2 a3 b9 e1 3f
       -1.2939264723273356 0.5539110354236703
000340 53 d8 6c 18 bb 5d d8 3f f1 b8 cd 97 15 c5 fe bf
       0.38072087655325965 -1.923116295798135
000350 53 a0 94 c7 dd 2c f5 3f 44 61 49 1e 47 f1 f3 3f
       1.323453693019492 1.2464057143279925
000360 fd 8c d0 4c 1b 9c e7 3f 4f 51 f9 83 e3 be ee bf
       0.7378059864317091 -0.960801847230451
000370 50 4a a3 4a df 7b bb bf d0 0f 12 be 4c d0 10 c0
       -0.10735889026845169 -4.203417749264148
000380 a6 11 fa 18 aa 2d f0 3f bc fd 83 52 6d 37 e6 bf
       1.0111485458047382 -0.6942659961350084
000390 60 c5 d2 e3 7e 51 f7 3f 7b da 52 df 9b 1f c9 3f
       1.4573964022968866 0.19627712635493197
0003a0 71 ca 5a 7b e7 8a dd 3f d1 f6 ca 17 5c dd df bf
       0.4616030411372441 -0.49788572619932575
0003b0 96 32 77 c5 09 6f fa 3f 76 bd c2 c4 1c 71 f5 bf
       1.6521089280605898 -1.340115326496599
0003c0 e2 78 0c 7c ac f1 e1 3f 8d e2 ea cd 42 a3 f6 3f
       0.5607511923624566 1.41485863148242
0003d0 82 3b 94 61 81 22 f0 bf af b7 fb ed bc e0 e3 bf
       -1.0084241687470414 -0.6211838386641285
0003e0 2a f3 69 7f c1 2e b6 3f b0 6b 3f 36 f9 05 92 3f
       0.08665093765916923 0.01760091203309927
0003f0 44 55 3c 15 cb 37 b8 3f b2 04 88 96 16 2c cf bf
       0.09460133808564303 -0.24353296613847913
000400 87 b4 33 bc 81 b9 e0 bf f9 2b 8a 33 23 64 ea 3f
       -0.522644870359401 0.8247238165507716
000410 68 51 40 86 50 c4 eb bf 78 89 97 ed 40 9d f6 3f
       -0.8677141782850812 1.4133919983802041
000420 8d 2c 72 ac 3d 61 f9 bf 54 c7 72 90 3b c2 ea bf
       -1.5862404571696829 -0.8362100430733599
000430 e3 46 fa 52 06 e9 f8 3f 16 1c a3 24 92 5b fb 3f
       1.5568907967867112 1.7098561698092047
000440 98 10 c1 15 e7 47 fa 3f 18 51 5f 91 7b 0a b8 bf
       1.642554364182649 -0.0939099531090658
000450 de a0 d7 c0 30 48 f5 3f 9b 7e ac c9 1c 00 e6 3f
       1.3301246197607308 0.6875137270871677
000460 cc b1 62 e5 2c d9 cb 3f 87 da ff 23 8f 15 fd bf
       0.2175651664778243 -1.8177634626605668
000470 0c 67 95 c8 c6 59 01 40 56 94 77 22 a4 a5 e2 3f
       2.168836180743602 0.5827198670564353
000480 dc 81 ae 8f 72 48 f8 bf e0 51 9b ab 58 fc b4 bf
       -1.517687379127998 -0.08197550000779286
000490 2f 35 0e 16 15 d4 fc 3f 12 89 a5 af c4 d7 c2 3f
       1.801777921823781 0.14720972610945943
0004a0 d8 aa 0e 11 82 0f f5 3f b1 30 5d 3a 0b 09 ed bf
       1.316286150579506 -0.9073539867327068
0004b0 f4 67 50 53 e7 8b 02 40 88 f4 50 79 04 3f 0c 40
       2.3183123120224938 3.53077025202089
0004c0 a0 4a 0e 20 e6 4b 02 40 06 b6 6a ac 1e 29 ee 3f
       2.2870600227700635 0.9425195090786367
0004d0 50 48 b3 a0 50 57 fd bf 72 30 11 0f de 79 f9 bf
       -1.8338171269756636 -1.592252787452733
0004e0 3a d1 b1 46 36 10 f3 bf 74 1c 9e de 68 5c f6 3f
       -1.191458011770989 1.3975609489441725
0004f0 aa 99 73 b5 9f c0 e2 3f 52 38 55 2f 15 b0 f9 bf
       0.5860136550880288 -1.6054889534894028
000500 07 96 90 7b 0f d1 f0 3f d8 cd 2a 05 c7 3f e2 3f
       1.0510401560544567 0.5702853299066488
000510 ec 29 61 15 e2 70 f5 bf 5f e5 db 91 19 a6 fa 3f
       -1.3400593600405228 1.665551728974911
000520 24 15 f9 d0 a8 92 ef bf a2 13 7e 71 4b f3 f8 bf
       -0.9866527635100835 -1.5593981202411915
000530 6e ec fd dc 2e 69 ca bf 90 9c 40 0f 8e 13 f2 3f
       -0.2063349322378118 1.1297741504475063
000540 0a 59 3b 3c d0 45 db bf f9 e5 df 4c 60 86 df 3f
       -0.4261360729409637 0.4925766707161468
000550 02 41 fc 7d f2 3e e9 bf 0c bb 48 e9 b5 09 ee bf
       -0.7889339886333178 -0.9386853748636397
000560 81 4d 01 db 58 5a f2 bf b6 99 b1 cc ea 48 fe 3f
       -1.1470573954473766 1.8928020473336864
000570 4d 23 ec 6a 0e 09 02 40 6d cd 77 af a2 33 fe bf
       2.25442203076492 -1.887606320783415
000580 d4 9a 7d 90 6d 18 ef bf 65 37 ef e3 db c6 e7 bf
       -0.9717319318850408 -0.7430247737736236
000590 4a 14 04 24 50 1e f5 3f b9 4b 50 68 85 a8 cf 3f
       1.3199006468651242 0.24733035653534133
0005a0 19 6b 89 2d 64 b1 01 c0 27 ce 2b a2 3c 20 ff 3f
       -2.2116168553888085 1.9453703245934635
0005b0 bc 38 e7 12 32 22 f0 3f 16 7a 13 5d 17 6e b5 bf
       1.008348535385763 -0.08371110937466883
0005c0 c1 ee a2 c9 be 7e fb 3f 54 9f 33 51 61 7b 00 c0
       1.718443668024449 -2.06024421156682
0005d0 ce 76 21 71 db e0 f4 3f 51 6a 83 17 83 71 e2 bf
       1.3048967761200632 -0.5763564547772352
0005e0 fc f2 2d c4 01 7b 0c 40 e8 79 4f a3 35 36 fc bf
       3.5600619627497263 -1.763234746867619
0005f0 f8 18 12 c1 d7 c1 fb bf d2 9d b6 f1 e7 3d e4 3f
       -1.7348248998474087 0.6325568886722357
000600 73 9d b4 07 3d c8 dc bf 48 ee a9 7c 35 d8 cb bf
       -0.4497215819596569 -0.21753567301844812
000610 b1 c6 64 3f e6 b6 eb bf e3 06 68 eb 97 4c ec bf
       -0.866076587501274 -0.8843497846393941
000620 c7 6b 07 17 30 29 d0 bf 00 60 fd e2 c0 d3 66 3f
       -0.25251390694546355 0.002786518794817283
000630 ac be 75 63 ca e8 05 40 29 79 36 7a 40 73 fd bf
       2.7386672754581323 -1.840637662309357
000640 7f af 2f fa aa e1 e0 3f ec dc 5a f3 c7 64 f7 bf
       0.5275473486376397 -1.4621047502567377
000650 65 be d7 75 9f 80 fc 3f d0 f6 f6 11 08 76 f1 bf
       1.781402073214758 -1.0913162900682671
000660 71 a3 3e 30 0e dc dc bf d0 a3 ab 62 d1 42 00 c0
       -0.45093111716646833 -2.0326259335165346
000670 59 af 33 0c 7a d2 ef 3f ca 7b 23 4e 4d 00 02 40
       0.9944429624861001 2.2501474480227204
000680 f0 dd e8 56 7b 8d da 3f ae d2 ce 1c 2f 28 ec bf
       0.4148853634573859 -0.8799052775053349
000690 c0 f4 9f 27 39 69 92 3f 7e 09 56 14 0d 0c f9 3f
       0.017979519885547246 1.5654421610239235
0006a0 62 df 04 02 20 90 f8 bf b4 85 83 41 b8 62 f1 bf
       -1.535186775099611 -1.0866015013819892
0006b0 c0 4f df c7 f1 25 86 3f ba 82 80 85 d1 02 ff 3f
       0.010814560806387763 1.9381880965158147
0006c0 e8 aa d1 40 6f 7e fa 3f 7d e5 8e 0a fc e6 e2 3f
       1.6558678180687654 0.5906963545050271
0006d0 5e 7f 7a d1 be a7 04 40 a4 16 f3 7c f7 c9 e7 bf
       2.5819069257267264 -0.7434041443272759
0006e0 36 0b 2a 91 81 33 b3 bf 7c 04 0e 3b bf 1f d4 bf
       -0.07500467104004546 -0.31443768279138573
0006f0 aa fa fa bc d1 1c f8 bf c0 3a b8 a9 a3 f7 ba bf
       -1.5070359594389324 -0.10534117597147041
000700 1a 29 81 fa 75 c8 02 c0 c2 7a a9 f7 b7 0f 03 c0
       -2.347881276194255 -2.3826751087757154
000710 cf c4 dd 52 7f 30 03 40 61 ab b7 88 7d 16 f7 bf
       2.398680350678297 -1.4429908123517736
000720 88 67 af 1c 34 a3 f2 3f fc ec e3 be 55 c2 ee bf
       1.1648446198000517 -0.9612225273444035
000730 46 f0 a0 7a 8b 7a 00 c0 28 dc 22 9c 0e 96 f3 3f
       -2.0598363476147226 1.2241350268429958
000740 c7 36 3e 67 07 e3 f4 bf 6e 5c 32 1d ea f5 fc 3f
       -1.305426982205448 1.8100377216813075
000750 9b b5 d9 8f 74 ff f6 bf 4d d5 9a 62 a5 4d a2 bf
       -1.4373670214803045 -0.03574864224121175
000760 4d d9 82 14 cd 8e e3 bf 4a 24 98 91 3a 37 e3 bf
       -0.6111817741973852 -0.6004917949331994
000770 38 3c bf 67 6d e7 01 40 79 f5 b1 39 d4 7c f4 3f
       2.2380016427264557 1.2804758313862676
000780 84 c1 4d 0b 2b 21 11 40 23 4a 0f 36 e4 41 f9 bf
       4.282390762921185 -1.5785867797573097
000790 7b bf af 15 80 52 e8 bf 80 c9 ba 51 cf f8 8a bf
       -0.7600708411755329 -0.013169879609766566
0007a0 b0 cb fd 7f 76 99 c0 bf 77 e1 97 36 1d 93 fc bf
       -0.12968331574992709 -1.7859165318060073
0007b0 8e 9e e2 ee 22 c5 fa bf bd 4f 47 ad 34 b7 ff bf
       -1.6731290179685945 -1.9822279709523933
0007c0 40 bd e7 4c e9 81 00 40 08 82 07 96 72 cf 05 40
       2.0634332664700707 2.72629277429974
0007d0 7c 22 be e9 6b fd f3 3f c7 cc ae a1 18 8a ea bf
       1.2493704920363191 -0.8293574483745026
0007e0 a6 59 c4 3c a4 19 e8 bf c0 01 a2 97 92 f7 ae bf
       -0.7531300722937899 -0.06048257924067313
0007f0 c1 71 a8 ad aa 5d b9 bf 4a 89 0e 95 88 04 07 c0
       -0.09908549060532491 -2.877213634973633
