enemy_6_runs/enemy_6_run_2/best_weights_enemy_6_run_2.npy (npy, 2248 bytes, 1 tensors)

array f8 [265]
000000 a6 ad 92 ee 31 03 08 40 a8 28 84 e5 ce 47 21 c0
       3.0015600813400907 -8.640250370390575
000010 ce 74 d5 45 64 db 19 c0 74 28 f2 14 13 79 f3 3f
       -6.464249697831475 1.2170592134666807
000020 64 06 07 36 48 7f 1a 40 28 29 d6 8b 02 5a 1b c0
       6.624298900774736 -6.8379003381217345
000030 e3 fd 61 f0 90 24 12 c0 9c 85 b7 99 66 7c 0f 40
       -4.535709148388807 3.935742569840569
000040 60 5d 59 5e 28 e4 e7 bf 95 c0 bc a6 3d fe 23 c0
       -0.7466012804751863 -9.99656411222558
000050 d8 77 bf 17 bb cc 10 40 1f ee 99 4a f6 73 10 c0
       4.199932452260292 -4.113244214673187
000060 75 7a 57 84 4e 6f 18 c0 3d d4 6d c1 53 db 1b 40
       -6.108697955931906 6.96418668969005
000070 00 fc ff 30 66 76 08 40 bc ff 44 36 a8 e9 f0 bf
       3.0578121021385414 -1.0570451850798994
000080 98 38 14 a6 68 d8 10 c0 3e 60 70 9a cd 91 22 40
       -4.211336703285404 9.284771753518836
000090 7a f3 a1 ed 5c b3 0c 40 32 62 ea b3 06 53 0a c0
       3.587579590325217 -3.2905401283171836
0000a0 fc 40 f1 4d 4b 74 0c c0 e3 c8 37 f0 77 d5 16 40
       -3.556784256863578 5.708465341000394
0000b0 51 b8 3b 84 45 d5 1b c0 80 86 a1 6b c1 7f 94 bf
       -6.958272997040766 -0.020018598741791127
0000c0 a4 1d 16 5e fa 62 09 c0 a3 4f 0c d1 41 3c 13 c0
       -3.1733291006564333 -4.808844820381554
0000d0 40 49 78 58 54 81 ac bf 15 63 f8 36 17 d8 26 c0
       -0.05567420558885994 -11.422052114315685
0000e0 dc 12 06 37 88 e1 10 40 aa db bf ee 1c b9 24 40
       4.220246181245525 10.361548863334821
0000f0 4b fc 85 c4 8c ba 1c 40 1e b4 f6 7d 28 e9 26 40
       7.182177611043765 11.455387054791625
000100 4e 46 52 b8 97 be 14 40 e2 2d bc 97 51 67 0f 40
       5.186125640889783 3.9254485945036643
000110 91 62 b5 37 8c 29 10 40 b7 33 0a 7d 57 88 2c c0
       4.040573950239051 -14.266292483802188
000120 9e 9c 51 d7 ef b0 08 40 48 e6 ae 34 15 27 1c c0
       3.086394960573286 -7.038166831183453
000130 22 39 86 a0 73 08 11 40 6d fa c0 17 71 33 23 40
       4.258253582184155 9.600472204501068
000140 e5 ef f1 6a 13 ee 14 40 d9 7e b6 fb 40 04 27 40
       5.232495947853725 11.508308282878192
000150 d5 70 34 ef 2c 9a 29 40 b6 3e 56 6d 9a 72 fe bf
       12.801124072219332 -1.9029793044063985
000160 11 d2 e9 1d a1 62 1b c0 e0 9a 49 22 7b 12 b9 3f
       -6.846317737003589 0.0979382475576176
000170 d8 b8 3b 7c 58 53 f5 bf b8 07 a5 37 5c 33 20 c0
       -1.332848058019911 -8.100312937636645
000180 0c 0e 66 a0 db 76 0f c0 eb 4b 13 77 be 0d e5 bf
       -3.933036091913669 -0.6579277349177323
000190 2d e8 94 18 27 7e 17 40 9f 36 c1 8d 58 5f 29 c0
       5.8731960144887525 -12.686222486339203
0001a0 73 82 58 68 61 28 21 c0 36 ce 0c 28 44 93 05 40
       -8.57886816101493 2.6969073418529446
0001b0 02 82 91 6b f5 0f 1b 40 17 18 bc f7 04 75 1b 40
       6.765584641223997 6.864276762824395
0001c0 c3 bf d8 36 82 64 12 c0 4e b4 3e a3 24 b9 11 c0
       -4.598152977923692 -4.430803824140709
0001d0 97 a4 9c 96 29 fd 0f 40 0d 46 e3 a3 50 85 1e c0
       3.998614479689944 -7.630190430399591
0001e0 e9 a4 c1 ef 80 51 09 c0 22 0f 44 ae c1 f3 1f 40
       -3.16479670819955 7.988043520835875
0001f0 14 b2 27 7a ea b5 1a 40 aa 6d 1d 34 48 28 1e 40
       6.677652271912411 7.539337934776464
000200 be 70 df 46 33 fe 24 40 3b fa 04 d8 6e b6 13 c0
       10.496484961295547 -4.928157210639763
000210 42 17 f0 3b 62 fd f0 bf bd b0 64 24 44 31 14 c0
       -1.0618612614939171 -5.048111504216817
000220 2b 53 65 28 9f b7 25 c0 7f e0 65 1c 4f 08 0e 40
       -10.858636152619132 3.754057142123258
000230 8d 03 9d d0 8c 68 05 c0 c6 b0 b5 f0 e0 1f 17 c0
       -2.676049833099063 -5.781131516541967
000240 04 30 1c 42 3b 83 ee bf bc 6d 10 14 b9 a5 22 40
       -0.9535194674695053 9.323677660947276
000250 43 f8 7f e8 6d d1 1e 40 9f d2 b1 a4 f1 68 1f 40
       7.704520829020171 7.852484296182097
000260 a3 fe 7e 31 0a 0d 09 40 74 7f c0 4f 12 0e ef 3f
       3.131367098510809 0.9704677159934207
000270 2b 07 e6 56 54 d1 07 40 10 18 5b 6e 4e fe 02 40
       2.9772116459797835 2.374173032908409
000280 58 f6 f7 a3 37 65 a9 3f cc f5 a3 2d 56 11 23 40
       0.04960035206384522 9.533860613121668
000290 34 41 07 0b f9 7d fb 3f 70 a4 fb 24 cc 86 f0 3f
       1.7182550841135482 1.0329095310828755
0002a0 99 d4 1b c9 d2 b8 27 c0 94 be ad c9 f3 da 1a c0
       -11.860983166358254 -6.713820601682205
0002b0 7d e3 44 d7 f8 ec 04 40 65 e1 aa 37 5b e1 f5 bf
       2.6157090013406887 -1.3675186323653972
0002c0 89 92 7a c2 2f 7b 0f c0 ac 27 77 76 97 a9 2a 40
       -3.9351496881157044 13.331233694119724
0002d0 e4 c6 54 f6 c8 ea 03 40 98 60 6c e5 73 fe eb bf
       2.4896411175367223 -0.8748111229824813
0002e0 00 66 67 c1 71 e9 0c 40 57 69 b5 47 14 b8 04 c0
       3.6139865026168536 -2.5898824312436477
0002f0 f9 60 c1 c2 8c 71 0e 40 db 94 8c 7b f3 dd 09 40
       3.8054442610992933 3.233374562480646
000300 89 70 8f 36 3f fe 08 40 5f d7 2c a8 3c 7a 03 40
       3.124144006969861 2.4346860064205624
000310 c8 cd 78 a4 c6 7a 1f 40 2a 93 f8 2a d7 b1 f2 bf
       7.869898385880738 -1.1684180906824602
000320 19 15 16 d1 22 72 00 c0 46 48 83 40 03 44 09 40
       -2.055730470167543 3.158209327703875
000330 04 f0 71 43 6d a3 0a 40 40 c7 4c 53 c7 7a 12 c0
       3.329798247255896 -4.619900991021325
000340 34 4d 63 07 af 01 24 40 83 ca 85 fd 11 64 f7 3f
       10.00328848921945 1.4619312194087406
000350 56 4a db 32 5d 24 23 c0 20 74 62 51 4c 88 fa 3f
       -9.571023549336285 1.6582759074292497
000360 42 57 e5 be 8f c4 e3 bf 98 fa b0 ba cf f7 13 40
       -0.6177443245348757 4.992003361751493
000370 66 72 dd c6 11 7d 28 c0 91 fe c4 68 4c 47 11 c0
       -12.244276251346673 -4.319627415679535
000380 70 34 0f 76 f2 5f c0 bf 12 94 13 6a 66 bc 08 c0
       -0.12792807354563562 -3.0919922148918966
000390 5a e3 75 0b 66 73 0f c0 89 84 ac 8a 78 a6 08 c0
       -3.9313469786979285 -3.081284602536986
0003a0 80 90 a4 49 4d a9 b5 3f 6c ed 29 93 31 17 16 c0
       0.08461459205551769 -5.522650050577209
0003b0 a0 97 62 31 23 77 b8 bf 1a bf 1d fe 58 d5 f0 3f
       -0.09556789355937534 1.052086823121448
0003c0 62 2b be cf 21 dd 27 c0 42 70 b0 80 8f ed 20 40
       -11.931898586238905 8.46398546365538
0003d0 77 94 f8 c8 7c 04 06 40 be 50 75 5e 61 bb e6 bf
       2.7521911335812166 -0.7103735775840716
0003e0 bc ea 21 30 5b d0 f6 bf f1 ef f8 6b 1c 93 08 c0
       -1.4258682136702836 -3.0718315539688708
0003f0 dd fe 6b 3d ba 8a 1c c0 98 54 28 92 fe 56 ca 3f
       -7.135476073948408 0.2057798589382045
000400 ef c4 bc aa e6 9c 11 40 e2 86 5a 78 a0 df 14 40
       4.4032236745563145 5.2183855824712015
000410 f0 57 60 9b 8e b7 27 c0 20 ca 3d f4 46 1a 92 bf
       -11.858509879599268 -0.0176783644269084
000420 32 ac 28 4d b9 0f 21 40 5b 99 a4 26 11 98 21 40
       8.530710612502023 8.797005851357133
000430 55 74 48 4a dd 71 29 c0 f7 9e 22 ea e7 9e 09 40
       -12.722391434998068 3.202590779477642
000440 48 8d d0 44 84 bb 10 40 5c 0c 3f ea b1 90 19 c0
       4.183121752957341 -6.391303691957628
000450 e5 8b 02 0b 10 33 0e c0 dc 8b 07 bd 87 5b 1f c0
       -3.7749329433586234 -7.839384988389579
000460 a8 d0 ae 1a f8 ff d7 3f 15 3d 89 c1 a0 63 10 c0
       0.3749981175017276 -4.097292922974948
000470 df 8a 35 78 d6 f8 e2 3f f2 57 2c 13 b9 31 07 c0
       0.5928757045588461 -2.8992787835986684
000480 23 88 6f 6b f0 90 20 40 03 27 c4 8f 44 63 15 c0
       8.283084256520004 -5.346941229197685
000490 34 bc 0a 0d a8 cc 05 c0 e0 13 25 cf 55 eb b4 3f
       -2.724929906740295 0.08171593005415856
0004a0 ca 02 1d 1e c1 88 0b c0 0d 3e 2d 7b 19 23 0e c0
       -3.441774592647879 -3.7671384452039605
0004b0 64 26 f8 13 ce 66 22 c0 be 6f ec 71 0e e2 23 40
       -9.20079100040602 9.941516456710698
0004c0 b8 c0 a5 69 0d 65 da bf 70 9c 98 d4 83 d5 10 40
       -0.41241774861465386 4.208510705771104
0004d0 a4 56 65 98 90 e7 25 c0 11 81 63 9a 52 9e 22 40
       -10.95227504956285 9.30922396149302
0004e0 24 20 e5 e5 63 3e e7 bf af e6 4b 1c 36 bf 19 40
       -0.7263659944665091 6.436729852802883
0004f0 a3 74 31 39 9d 49 17 40 b5 ad 3c c4 20 5a fd 3f
       5.821888822215587 1.8345039048680125
000500 64 74 6e b1 e7 ae 20 c0 2e 1f 45 92 48 ba 20 40
       -8.341611428006395 8.363834925592155
000510 25 19 d2 b8 07 a5 22 40 26 8e e1 7a 0d 74 18 c0
       9.32232453884769 -6.113332672135163
000520 bc 26 39 4f 1a fa 2f c0 3a 95 24 84 14 52 12 c0
       -15.988481975294569 -4.580156388027996
000530 b3 94 b8 ae 53 c2 13 40 3e 88 41 49 df 8e 19 40
       4.9397723484191145 6.389523644089477
000540 80 93 68 22 46 6e c9 bf 24 ce bc 32 b6 07 27 c0
       -0.19867779426672527 -11.51506193690063
000550 3c 89 b5 50 16 66 22 40 49 07 68 d9 66 fa 0f c0
       9.199389001999059 -3.997266481864163
000560 5b 3a 3a 2c 81 cf 10 40 b0 4b 63 19 5a 03 ef 3f
       4.202641192487671 0.969159173570338
000570 68 90 7a 55 8c dd 16 c0 10 11 4f 17 fe 64 0a c0
       -5.716355643850058 -3.2993127652172305
000580 f6 16 4d a3 9e 9e 17 c0 c0 3b 66 be 9a c7 be 3f
       -5.904902030544454 0.12023322246953594
000590 36 99 1e 29 42 d7 d1 3f 52 a1 6b c4 4e b0 0c c0
       0.2787633325155129 -3.5860877366396062
0005a0 2a 38 69 a7 d3 c4 0f c0 56 aa a2 90 f2 ca f7 3f
       -3.9711068228707704 1.487047734243466
0005b0 38 72 08 fb 25 19 f0 3f 03 67 ef 36 ee 5e 12 c0
       1.0061397367454799 -4.592705591546976
0005c0 64 b1 af a9 dd 30 02 c0 77 60 18 76 9f bf 1f c0
       -2.2738602883093098 -7.937131734121173
0005d0 4e 7c 03 06 5b 6b 08 c0 95 90 bf 44 eb 2a 21 c0
       -3.052419707280513 -8.58382620657384
0005e0 94 71 8c bb bd d6 01 40 f7 57 1e e0 c3 44 1f 40
       2.229854073737622 7.817153455593135
0005f0 b0 d3 2a e1 92 15 00 c0 e8 ef 16 86 ef ab 26 40
       -2.010534056777452 11.335811796474403
000600 84 47 da 64 7b 3c ea bf 53 dc 3a fd 93 99 18 c0
       -0.8198830575731653 -6.149978596417969
000610 b9 00 01 3a 31 55 12 c0 14 17 85 0a a1 97 04 c0
       -4.583195596991737 -2.574037630259122
000620 72 fc 0f 27 52 ae 15 40 7e ee 45 04 0b 4a 14 c0
       5.420235262251582 -5.072307650345122
000630 62 d7 65 8e f4 7e 1c c0 5d aa ed 70 11 72 21 c0
       -7.123979783025648 -8.722789315235042
000640 50 01 a6 bd 2f 42 1f c0 f6 eb 29 d8 10 e1 e3 3f
       -7.81463524175372 0.6212238523434042
000650 ec 1b 97 29 11 e8 21 c0 a7 dc 9d c6 31 79 20 40
       -8.95325593919366 8.23670788456941
000660 f6 13 50 17 58 87 25 40 76 9e dc 4f 42 cc 21 c0
       10.764343956494468 -8.898943420105962
000670 9e 6f 30 27 40 fa 20 c0 bd d7 2f 42 7a 99 0d 40
       -8.488770699179266 3.699940220913929
000680 86 a9 e7 aa d8 af 12 c0 f2 11 0b 75 82 56 f7 3f
       -4.671724958791293 1.4586205074311889
000690 fe 69 05 78 e4 ee 11 c0 14 35 91 ab 3f 86 2c c0
       -4.483293414431044 -14.262204514956956
0006a0 c6 b0 57 bc 56 ca 2d 40 e0 cf d2 1d 15 bc 21 40
       14.895192990974817 8.867348606094254
0006b0 d0 91 53 61 d6 08 0e 40 ad 79 53 d2 25 b0 12 40
       3.7543151477459347 4.672019277901581
0006c0 53 04 71 5a 94 6e 24 c0 80 bb cd 61 2d 51 f0 3f
       -10.215975595756538 1.019818670316198
0006d0 69 da 04 e2 38 f9 2c 40 9c 6b 6a da 40 02 f1 bf
       14.486762106983592 -1.063050130068155
0006e0 68 06 f0 48 0f 95 22 c0 2d 92 1f c7 42 8a 17 40
       -9.291132239627771 5.885020362188283
0006f0 8f b0 a9 63 ee 9e 02 40 d6 61 a4 1e ae eb 25 40
       2.327603129020708 10.960312802854713
000700 26 9c c0 00 f2 b5 fa 3f 94 d9 24 1a 04 fc 31 c0
       1.669420245112414 -17.984437593456803
000710 b4 b3 d1 c8 ae ba 0b c0 8a 0f 7f 72 e0 ae 20 40
       -3.466153687381359 8.341556146631564
000720 0d 6b 7b a0 f2 7a 2f 40 e8 8c d6 55 4b 8c f6 3f
       15.74013234621591 1.4092515328455253
000730 44 c7 f2 51 68 23 ed bf 35 9e c3 19 8b af 13 40
       -0.9105722046426554 4.921429064335418
000740 b1 e2 c1 f5 c7 28 15 40 2a 27 0d 97 ee f7 08 40
       5.289825286825974 3.1210605431450817
000750 7a 0e dd 90 db f5 1a c0 ea 5e 0c 2f 0f 3e 0b 40
       -6.740095389835568 3.4053023982668167
000760 72 cd 1b 44 0f 0a 09 c0 b7 c6 34 f3 99 d8 01 40
       -3.1299119301781326 2.230762386367896
000770 28 1d 2e d2 cb 9b ee bf f2 85 4f 5a 07 8e 28 40
       -0.9565180878716193 12.277399847228455
000780 36 18 ac 99 e9 c3 fb 3f ba 01 d2 79 4d 94 1c c0
       1.735330200464444 -7.144826796953959
000790 d8 14 f2 c7 d3 ad f1 3f 64 36 35 ac fd 10 e4 3f
       1.1049382982612794 0.6270740855631627
0007a0 d0 13 3a 3d 23 ca 11 40 cc 5d a4 71 77 86 18 40
       4.447400051755679 6.131315017373208
0007b0 9c 66 3a 69 f9 d4 f9 3f 7d 4f b2 bf 84 d0 12 c0
       1.6144956694101102 -4.703631396539888
0007c0 25 98 f2 50 68 1d f0 3f 90 2d a3 9a e2 54 12 40
       1.007179561807342 4.5828956758590635
0007d0 69 2c 06 16 a9 a4 02 40 f8 b5 c8 84 94 c9 02 c0
       2.3304006310113903 -2.3484278081657486
0007e0 2a 74 b6 4d 84 a2 1e c0 2b 8e 33 e1 f7 23 20 c0
       -7.658707823048681 -8.070250546973588
0007f0 b0 3d f0 f3 66 ee 15 40 77 76 37 e2 de 43 11 40
       5.482814609087129 4.316279921183756
