CMA-ES/Group1_run_4/best_weights_Group1_run_4.npy (npy, 2248 bytes, 1 tensors)

array f8 [265]
00000000: 7216 72be 3fdc f63f dd74 3fc3 33b8 0740
00000010: 408f 3240 2c96 fbbf d802 f2a9 fc1f b1bf
00000020: e42a 0093 a7bd e0bf 6396 bc74 eacc f03f
00000030: 3e82 1ab9 50f2 d3bf af12 880a 615f f93f
00000040: 7260 1c39 21f8 f93f 76f0 d0ac 2558 c5bf
00000050: ccd8 3546 1b89 efbf c48b f5d2 08cf 0d40
00000060: ac74 8d49 2d55 a13f 8046 c3fd fa07 f93f
00000070: 0665 4df2 ca6b e83f 9a03 7c93 5e23 fbbf
00000080: 26de fef9 fe5f f2bf d833 c1fa 9edb f33f
00000090: df6d 4f8b 1b40 e63f cabe fe68 db9b e53f
000000a0: a71b be1c 0303 d2bf 680f 16a2 e338 eebf
000000b0: ae28 f177 906c debf b455 bdfc deb0 0340
000000c0: 4b67 ed94 be87 fdbf 72ac 2149 420c ef3f
000000d0: ea28 7de4 ea98 c13f d89c e5d4 b8ea fdbf
000000e0: 3b32 56b6 77d3 01c0 8ebb 8ffa e9dc eebf
000000f0: 08cd 6574 90b4 f5bf f4e1 2d20 d23a f23f
00000100: 3835 d567 207c 0240 8240 6e70 484f f5bf
00000110: 0ad4 8282 67c3 0040 b08c 112c ed49 ef3f
00000120: fdeb 43c2 39a7 e23f 2777 6ab2 21b9 efbf
00000130: e68e d63b 7fed e2bf d63d 4f64 d2b6 f9bf
00000140: 3d44 ba7e ba02 fd3f 5b31 75c8 d6cc de3f
00000150: 08b2 877e abb5 b73f 5c98 a5a6 2fd3 f73f
00000160: 34b6 a82c 0927 da3f 64ed 0d0f 1696 ddbf
00000170: bb5e 4807 b4a2 f33f e04e 3998 799e 02c0
00000180: 02c5 323e 5865 f1bf 9b4d 4bb7 192c ea3f
00000190: 490c 5991 d679 0540 faca 4971 2535 d9bf
000001a0: b332 c050 04a0 fa3f 6628 b04b 5e20 dc3f
000001b0: 8cbf 607f e98b b63f 5206 f4d5 7b6c cd3f
000001c0: cc91 bf77 bd91 dabf 1677 ce14 1ba1 e0bf
000001d0: f985 22ba f503 f33f 14ac edac 4f00 c33f
000001e0: e8cb 250a 6825 f1bf f54c 2e38 1e5e 0440
000001f0: b812 f273 439a d3bf 2ab9 aab1 bf04 f53f
00000200: b62b 8d6d ae58 f43f 8782 2d7c 9f29 df3f
00000210: 2040 b1a8 34d3 e8bf 1ec1 599c 12d0 01c0
00000220: 61be ec9a f242 d93f 4c2f a454 087e f53f
00000230: 17ac 32c5 1ec3 f13f 1855 30f5 3332 d0bf
00000240: 9a43 1890 a46f ff3f 2cc5 fcce df6b e7bf
00000250: 11e6 4d6e 139d f13f 8fe3 8534 5089 f4bf
00000260: c910 47be 8054 ec3f dab1 1290 b190 e4bf
00000270: 9bc3 a686 37b6 c7bf 0a48 8692 ef22 dabf
00000280: 4ba1 0402 aa7c e2bf 86b7 535a 5928 e3bf
00000290: d058 40fb ffd6 bbbf 3ee9 ce96 d002 f43f
000002a0: 1cdb a596 a54f f23f e04d dfe8 57be b5bf
000002b0: 6770 f11b f97b f3bf d9d5 0e9e 452c f6bf
000002c0: 86cc 4b20 43c6 0240 fc60 0d53 e99b e1bf
000002d0: dabf 7a2b e9b6 e83f 76fd dcd1 912e d03f
000002e0: 7e45 f708 87f8 fabf d4aa 6311 8567 d5bf
000002f0: ae45 0b79 8b93 0640 8389 ee47 110a e5bf
00000300: 20bc 3153 6d47 f73f f81d 6212 6dfb a83f
00000310: 20ed e718 82f5 f0bf 85c3 e63d d241 f1bf
00000320: b8ab 4c5c 94ba 08c0 1d8d f7a1 0525 e2bf
00000330: 8ee0 757c c3e1 d83f 6ba8 fd93 fd1a f1bf
00000340: 7048 694c 995f f4bf e0fc 7ac0 b5c6 e5bf
00000350: 313c 6cb6 18b4 eebf 242f 3118 6d0d 0dc0
00000360: 427e 09a3 018b f1bf 80b7 bdb0 d290 9e3f
00000370: eaf1 72aa 53f7 fd3f 558f 95a9 c5e3 e43f
00000380: 9d59 ccb3 15dc f73f 6abb 0412 1bc5 0640
00000390: 47a7 7518 1eff d93f 11f7 992f 3ce7 fcbf
000003a0: 8867 1574 f8bc e43f 4364 185b 0265 e73f
000003b0: f985 16f9 5a1b c8bf ba47 8498 cc5e e4bf
000003c0: d213 cfff 45a5 e5bf 7c2b d321 37fc cb3f
000003d0: ebd3 3313 18a0 dabf fece 3f62 0124 c03f
000003e0: 66db cf1e 6b61 f7bf 7ff3 2b5e 31cd e6bf
000003f0: ccb1 93e4 e66b d53f a3ac 7089 4cb7 e3bf
00000400: eff1 e33b 87c0 d33f 56a7 d1c1 0952 eabf
00000410: 233a d2aa 89c6 e63f e05f e589 fd14 d03f
00000420: bebb 9d49 e89b 00c0 deb9 6d50 11e1 f13f
00000430: 9add 814d 283f febf 91a7 56bb 1d06 e5bf
00000440: c49c e6ce a620 f93f fcc4 3d88 034c d33f
00000450: 8069 90b5 8e39 01c0 dfe8 3fd6 f47b f8bf
00000460: 44a4 1c59 df7e cd3f e13a 2587 939f f73f
00000470: 4c09 4216 d82a e2bf 48af 37d5 761c e23f
00000480: 93ac 5517 30da 07c0 1017 717d 8156 02c0
00000490: 4314 d8fe 1d85 e93f 30e9 bcf2 8238 d0bf
000004a0: f963 b38a 28e9 f73f 9894 01a4 cfed d1bf
000004b0: c012 952a 61db 833f f299 c484 cae9 fc3f
000004c0: a2bb 6d44 6b2d f13f 98b6 241b e73c 0340
000004d0: c46a 78ee 0de7 0cc0 84d2 3ec3 f014 d4bf
000004e0: 2a12 f85a a45d 0240 8bca d62e b2ea dc3f
000004f0: e7b0 4aee 0f61 0240 4564 1669 6407 00c0
00000500: e49c 634b 902f fbbf d8fc 228e e485 e53f
00000510: 2b2b dcf6 f3f0 f53f 81ee 6a75 3242 0340
00000520: 00ca 36d6 f787 a3bf 06a8 6dd8 10a7 0340
00000530: dd6c dfcb 357f e83f 74b4 b67e e750 e2bf
00000540: 271d ed4d ddba e7bf 7017 19c7 add5 b0bf
00000550: 3c5a 4c35 3d63 bebf 6660 1d72 1e13 f7bf
00000560: 72b3 abca d557 e7bf 2161 4834 3729 ca3f
00000570: 1a16 3d15 62bf c33f 1619 bce7 73c9 f2bf
00000580: 9837 33d3 93c9 e8bf b8f1 271c 74b0 cb3f
00000590: bb28 735d 1504 f8bf 2868 2487 3e76 f13f
000005a0: f3da a36e 2dfa ea3f 0270 2ec8 7c0a f83f
000005b0: 8d2d 70a4 2cfc e33f 52f7 c158 50c0 03c0
000005c0: 2c99 e945 ba51 e13f 2106 a93d 85ad 0640
000005d0: efe4 9868 5e0c f7bf b7b9 6a36 1e46 f33f
000005e0: 3be1 64a8 de86 c53f a22b b32c 5e8b e6bf
000005f0: 3c9f e32b 4ded f73f 26f9 fe8c c1dd edbf
00000600: 1080 c09b 754d fe3f 0b3a 1bef 3fed e8bf
00000610: 1d1c 96fc 93c3 edbf 5626 b1c6 c42d fc3f
00000620: 3032 0eac cd78 ed3f 9cb9 e762 1deb e2bf
00000630: b0c6 1f5b fe1f f7bf ae51 152b d39b e83f
00000640: 5497 b22e 46bb f93f 65b8 5141 62de f23f
00000650: c7b5 ae9e f6e9 ffbf 6ad3 9565 4205 ee3f
00000660: 061c 6589 01d5 f1bf 1e0a e9c0 7932 fa3f
00000670: 6cf7 5dca 12e2 ac3f 730e 18c1 27a6 e83f
00000680: 968f eba0 f17b fbbf fa15 0bcf b1f8 f23f
00000690: 70f4 8b65 d5e6 d03f 3ced 6025 3b6c eabf
000006a0: 6098 1d03 cf07 d43f 189a 049f 91ba c63f
000006b0: 1853 1da4 f24e df3f 5d8f b0a2 7c2c e7bf
000006c0: 87c2 da5e e418 0ec0 b48d 2981 bfa6 ed3f
000006d0: 4841 5060 9738 e03f fa98 e02c b3f6 e3bf
000006e0: 9e07 8a07 c75d e43f 14d3 8816 85ec bc3f
000006f0: 3275 dd5d d8fa ef3f cd90 fa43 f99e f1bf
00000700: 8482 ae26 0433 d43f efbc cd6f d2c3 c03f
00000710: 3c06 1983 b41f acbf da36 9727 82e1 eb3f
00000720: 083c a959 c043 c23f 2b9c 5553 17ac edbf
00000730: 70aa 0a5b 5dea f0bf 50e8 5849 6d10 c4bf
00000740: 6cb4 1c33 ced7 dabf c555 f332 b313 ed3f
00000750: 54a2 5373 9f5b ec3f 5022 be6f d6ab ea3f
00000760: 91a9 09cf 42e2 da3f ccd2 1f8a 9cd5 cc3f
00000770: 9f48 e794 47a4 d43f 24ed bdc3 5a0c 04c0
00000780: 9891 bc41 ff6f 08c0 5cc4 ce40 6daf dc3f
00000790: 7b1e 8cb3 3fe6 e93f fc80 efc7 f83c 0440
000007a0: 20b2 720a 122e babf 1842 724c 49f4 b13f
000007b0: 913c 9a41 8d48 ecbf a614 5127 5255 c53f
000007c0: 8cbf 5798 76ac b4bf ce38 d499 d6bb edbf
000007d0: 7cf4 ea2c 8673 f03f ea31 7bb5 70dc 00c0
000007e0: ce2e 7773 9617 e93f 82fd 1491 c7db ebbf
000007f0: 4084 1b7f 083f 9b3f 5317 1b94 6f3d f9bf
1.4287717284472845 2.964942479490317 -1.7241632945742396 -0.0668943323999075 -0.5231511946779759 1.0500282821680222 -0.31166475368994273 1.585785905016717
1.6230785590069243 -0.16675253809251317 -0.9854866381927194 3.726091049307316 0.03385297320230882 1.564448348294178 0.7631582958667031 -1.6961351166830583
-1.1484365239574656 1.2411184115510334 0.6953256340888706 0.6752755213437578 -0.28143384749312833 -0.9444444814439352 -0.475376240855108 2.461362814453162
-1.8456407372927568 0.9702464512205451 0.13747917324719278 -1.8698051754270661 -2.2282556767516133 -0.9644670385149412 -1.3565830752166352 1.139360547733415
2.3106086837712176 -1.3318561927626722 2.0954122730422613 0.9777742253030706 0.5829132837528729 -0.9913490757641953 -0.591491333838772 -1.6071342390385914
1.8131661367699643 0.48125238014178756 0.09261581267464447 1.4890591153757873 0.4086325584529249 -0.4622855326667461 1.227222469757108 -2.3273803608407064
-1.0872423581716366 0.8178833560909199 2.684491286783246 -0.3938687902765846 1.6640666155173391 0.439475606836487 0.08807238921940391 0.22987316080984727
-0.4151452702920124 -0.5196662336709064 1.1884667654888956 0.1484469980599391 -1.0716324230568208 2.545956076539023 -0.30629049609005277 1.3136593761551674
1.271650722442002 0.48691546560989035 -0.7757819456837787 -2.2265979971781595 0.3947111618935875 1.343269663458119 1.110136766724059 -0.2530641455098972
1.9647565487577823 -0.7319182436678253 1.1008486088525198 -1.283523755233748 0.8853152958258984 -0.6426627935339255 -0.1852483184316299 -0.40838231381451406
-0.5777177848258729 -0.598675419254264 -0.10874938854280747 1.25068720731231 1.1444450268442727 -0.08493565974577377 -1.2177668658760241 -1.3858085798395818
2.3468077204830164 -0.5502821561922526 0.7723279809197223 0.25284238333184506 -1.6856756544333105 -0.3344433469598418 2.822043367058277 -0.6574789433400813
1.4549382447983206 0.04879322862057828 -1.0599385235680714 -1.078569642832208 -3.0911032877824844 -0.5670192874353323 0.3887795176920087 -1.0690894871609327
-1.2733395561995415 -0.6805065879233574 -0.9594844401307282 -3.631555737496358 -1.0964371079097792 0.029849330937785634 1.872882524315282 0.6528042137328877
1.4912316344612926 2.8462430389112585 0.4061961401808855 -1.8064538821631155 0.6480676905878093 0.7310802249149976 -0.1883348194360648 -0.6365721682398011
-0.6764249798076156 0.2186345019493635 -0.4160213649295758 0.1260987977726628 -1.4612837985602822 -0.7125479544916827 0.3347108108707999 -0.6161253628137228
0.3086259922854699 -0.8225144181753687 0.7117355667449526 0.25128115145116503 -2.0761266471158413 1.1174481527083269 -1.8904192950848029 -0.6569965990977257
1.5704715807021765 0.3015145140153235 -2.153104227513893 -1.5302627915503348 0.23043434001127328 1.4764590529554698 -0.5677299914098426 0.5659746326832442
-2.9815370390911737 -2.292239170087562 0.7974996545241385 -0.25344918923260007 1.494423429298193 -0.2801398374197759 0.009695777046212384 1.8070779024361596
1.0735886261934202 2.404737674768352 -3.612819541025006 -0.3137781054204327 2.29572363919785 0.4518247086918243 2.297393666891469 -2.0036094865759275
-1.6991122193228927 0.6725943351847503 1.3713264124841753 2.4073228047616912 -0.03814672937314256 2.4565750988449535 0.7655285817994827 -0.5723760104061868
-0.7415606042858699 -0.06576048002997736 -0.11870176840998509 -1.4421677072150714 -0.7294720610058063 0.2043828015600946 0.1542780498222534 -1.1741828014506317
-0.7746066212655363 0.21632243513876204 -1.5009969377884278 1.091368225001597 0.8430392418802896 1.502560407599049 0.6245330058749673 -2.468903249186874
0.5412265172460926 2.8347267930228246 -1.4405197225408377 1.204618656698228 0.16817839834562584 -0.7045126793903942 1.4954349245471823 -0.9333198312595286
1.893910988241263 -0.778961150173758 -0.9301242764785261 1.7611739884763629 0.9209965095956871 -0.5912005359403341 -1.4453109321151878 0.7690215913267389
1.608221228039345 1.179292922166064 -1.9946199606450692 0.9381420120322279 -1.1145034186354237 1.6373231444891938 0.0564123031644915 0.7702826281897174
-1.7177597318595637 1.185716446650416 0.2640889636675814 -0.825711796765439 0.3129766016412585 0.1775686289267504 0.48919359232722703 -0.7241805245907745
-3.7621543322096076 0.9266049883557828 0.506908119308755 -0.6238647343168673 0.6364474436997971 0.11298400688322047 0.9993707497884883 -1.101311936895445
0.3156137826681873 0.13097601374781884 -0.05492939091028545 0.8712778828864558 0.14269260766965908 -0.927257216227081 -1.0572179371180503 -0.15675130921755676
-0.4194217204229236 0.9086547846915712 0.8861844303583646 0.8334762747263742 0.42005987375764514 0.22526890510893904 0.32252683202126237 -2.5060324947677532
-3.054686082427178 0.4482072003257309 0.8093565470489489 2.5297713870969556 -0.10226547961310262 0.07013376346936473 -0.8838564187334602 0.16666628761064323
-0.08075658053689788 -0.9291794781181808 1.028204131565217 -2.1076368501874088 0.7841293578325919 -0.8705785592682533 0.026607640035653413 -1.5774989877113128
