CMA-ES/Group2_run_8/best_weights_Group2_run_8.npy (npy, 2248 bytes, 1 tensors)

array f8 [265]
-0.20464377194632422 -2.3085034530531727 -2.961863102623642 0.20474701397702955 3.9353519858391586 -0.07441357645448232 0.4739882576112282 -0.6912889294352865
-1.5251747685692705 -5.164257063742197 0.022853070843797174 -2.5507225932358253 2.625264654652735 0.4833675435748708 2.113112470197591 -0.020096874082321636
1.6703089991307707 1.5621037693067628 1.6715473029525325 -3.143970683135365 -1.7389964076947577 3.556231744043221 3.232758779173503 -4.3592040283725275
-2.453707050891224 0.8000686641281388 0.07711066686482482 -3.126189184788763 0.1479600942770949 1.1696454223076547 0.38088095651270065 1.4955775428210139
0.2479550615035424 -2.5623817311989274 -3.5419154459570414 0.5000331780936023 1.5644782255064815 0.03954081861384129 1.052088804160784 -2.0136050706527664
1.1065833026522112 -2.4552088416852986 1.421135943798339 -1.483721404283317 -0.758131192752506 -2.265954605753139 -0.12152932002317929 -1.8124682748398788
0.010174214612111987 -1.9759140898693985 -2.2171844590604928 -0.03805900167451248 -0.16541419060103102 1.8226799864966494 1.2938508655771386 -1.9605851428029573
0.40999925277005733 1.8605017253415483 0.33813145678765727 -2.66034219307105 1.2233383796967046 -0.6972928728734045 -2.8704324773343592 -0.5116787384485291
-0.12611092942839486 2.622402475464979 0.21548897901309605 0.1510110805078455 -1.228925633698526 1.1324603889465288 -1.8192147679600688 -0.4787253230498821
-0.7300167014675747 -2.5889839645919777 1.455379266649774 -3.7200038213630147 -1.91751275235303 -1.346473759352264 -2.055151494231054 1.2241751905192313
-0.37800239392255924 1.275518870219189 1.5277816240505437 1.8131787985102759 2.113843091604539 -0.9488062610249597 -1.3360696401891134 0.05722310726909435
-3.5730961112329345 0.9500726985342121 1.5214128573095431 -1.4117453595342384 -1.9885591009694827 1.7585310375296461 -0.6645207861474793 -1.8957438360810703
-0.437355347364109 -0.3309062351587997 0.21775683341294805 -2.868359390828603 4.059533028359335 3.476713158948474 3.939465282475956 -2.8366681767602278
-1.6347930948655054 1.0460944695680114 1.5363363475857086 0.6065837206294753 0.16535497120384846 1.6219812547094004 -1.1343193381450054 6.751780043052294
-0.09404328744127899 -2.2406108829150426 0.7416956179767785 -3.142388431276105 -0.07678349838378232 1.275003309736039 -1.456662607594808 4.061815802327034
-0.35107317780736336 1.801000131508312 3.0294041465582 -1.6117682750501863 -1.8809139031219084 1.312039352161945 -1.4468724889833648 -1.46030000336182
0.6074207501718525 4.052340160077915 0.4096605094061261 -0.03339755170373038 -1.5558052816938601 6.035322976392617 -1.8174875257647625 -0.005330962918406734
-1.8917354689748902 0.5673703450646566 -2.6240441789628526 -0.776482039149301 -0.12061442937021277 0.08192557248302985 -0.444792105919225 0.6007658729915187
-0.8305841638377196 1.5055836330232384 1.4902123254470667 -1.1759422573993505 2.3195888340031923 1.2337151241473021 -1.1849173684373342 -0.7127801734404183
-0.7030723125529397 2.0236291419894896 1.5723975490801028 -0.15246604043950895 -0.7993616474242264 -1.044217934659583 -5.122400629978526 4.679449405382232
1.557866539059363 -1.9756331072402487 2.78530017576734 2.637331418136351 -2.526210969196234 1.0708803901237887 -5.484396549031465 -0.5657806917122714
-0.7984848900643045 1.6340981424852132 0.529206925527569 2.093777837412182 3.189862025338861 -1.6014185694973877 -1.5052759708361865 -1.0168040247825396
1.1441460362168487 -0.6521142571328631 -1.3520404811168287 1.3446141257864859 -2.7035051521290447 0.5675066372157833 1.4176833950415848 2.5210476493231093
-0.14795814540226931 3.0696862494099246 -0.46201628464679145 -1.9131744264180723 -1.4137841211735727 -0.17934169543642353 -2.1875655287746225 0.2544245381492698
-2.2010169527823296 -4.271728512755604 -1.5283324889772882 4.454035962369952 0.5865285117543715 -2.009365978862674 -2.5007399084821724 -0.34979215782878265
0.15483829438672903 -2.481009654634173 2.695178823565242 -4.904205498050448 1.6508377936106062 3.3656722083189496 -2.09593440746965 -4.788593910108255
0.33023367430638834 3.2692719096230425 2.874809152204982 -2.3468735749939036 -1.8114593989816568 5.762321096884543 0.7403584442992036 1.8276202159328356
4.317473486203295 -1.4276072382928455 2.9457976948082396 -1.1432752367597319 -0.9503332441035889 7.087881269069573 -3.6155693838162626 0.12676796573150254
3.3635112973856036 -3.3114846531456887 1.7794001223699825 0.05781861879242478 1.0145961519603666 -5.418328990027741 1.4903673662476347 -1.0711152831773065
-1.2762466047187142 0.7496150800076335 0.40846483796365907 0.6794894345890878 -1.290293150508481 -1.011768644605378 2.295195208129508 -1.8396987005019232
0.054646602356482665 -1.989377354889616 0.21779895534991742 3.593980729863696 3.0599247309556414 -0.21250931758153246 2.006130768713096 -1.07609436473164
1.4893972403452453 1.5430020641798547 0.6999770343494949 3.1869749613932474 -0.4929571222757567 0.9841999213280063 1.3089458040843318 2.7055168715913815
00000000: 3476 eb61 c431 cabf 1688 8ca8 d077 02c0
00000010: 28fb 4748 e5b1 07c0 6014 7e70 2635 ca3f
00000020: 386c 6bd2 997b 0f40 081a 40a5 c40c b3bf
00000030: 3835 48d8 d255 de3f 735d 00f6 091f e6bf
00000040: b907 7ba8 1d67 f8bf 8fa3 f300 33a8 14c0
00000050: 2093 8c9f cb66 973f f0ed 383f e167 04c0
00000060: 38a0 58c1 8a00 0540 f085 e66b 7eef de3f
00000070: be25 c282 a7e7 0040 e0d9 bd63 4694 94bf
00000080: cdb2 d7ed 95b9 fa3f 1018 a285 60fe f83f
00000090: bf5e 7e62 a8be fa3f 8131 fd19 da26 09c0
000000a0: 4691 aee5 edd2 fbbf 2a4d eda0 2973 0c40
000000b0: b441 83a2 b0dc 0940 4cce 492e d36f 11c0
000000c0: de56 8c29 31a1 03c0 3183 5f99 299a e93f
000000d0: b86f 5b50 86bd b33f 8e36 ae79 6f02 09c0
000000e0: e03f 043b 5bf0 c23f c8a3 4b1e deb6 f23f
000000f0: 330a f984 5a60 d83f d0c5 b0b7 e2ed f73f
00000100: 7087 04d0 fdbc cf3f 24f0 3afe c17f 04c0
00000110: 78a9 ecc3 d755 0cc0 8076 5a94 4500 e03f
00000120: d5ab dd51 1a08 f93f 8066 9bb5 b13e a43f
00000130: aabb e511 5bd5 f03f 721b acf9 dc1b 00c0
00000140: ff0d 73b1 90b4 f13f 711b 7f88 44a4 03c0
00000150: 1a8b 1c0b f9bc f63f 475a bca7 52bd f7bf
00000160: 2f62 de58 9c42 e8bf 4471 efce ac20 02c0
00000170: 4032 01a7 8b1c bfbf dc98 d7bb deff fcbf
00000180: 800b 2cf8 37d6 843f 601d bb17 589d ffbf
00000190: 05ea a634 cbbc 01c0 7058 052f 787c a3bf
000001a0: 9c7e 76cd 4a2c c5bf b33a 517d b229 fd3f
000001b0: b3e1 18f7 9cb3 f43f 89cb d586 8e5e ffbf
000001c0: 9009 8281 6d3d da3f 7ae5 0775 9dc4 fd3f
000001d0: 81b7 291f f2a3 d53f ca45 db7c 6148 05c0
000001e0: d9d2 cb43 cb92 f33f 7e34 9724 3950 e6bf
000001f0: fb37 7c4d a5f6 06c0 323d f616 ac5f e0bf
00000200: 5014 c826 6724 c0bf 7d92 2826 aefa 0440
00000210: 203d c192 2495 cb3f 68b2 0ec2 5454 c33f
00000220: 4c38 dfec ada9 f3bf 0aa7 e8c8 8e1e f23f
00000230: 9d9e ccf1 801b fdbf b50a 9189 6fa3 debf
00000240: f0c8 4afc 4b5c e7bf e653 8e39 3db6 04c0
00000250: 8c98 18c5 3b49 f73f 4ffe 0d5d 91c2 0dc0
00000260: b04e 10da 21ae febf 3f71 9511 288b f5bf
00000270: 1e62 4044 f370 00c0 b8ac 7db9 3896 f33f
00000280: 2541 edf3 3031 d8bf 485b 9079 8668 f43f
00000290: 30a1 eb24 cb71 f83f 726f 96c5 c702 fd3f
000002a0: 4689 1a91 26e9 0040 a4f3 aaf2 9e5c eebf
000002b0: d4a6 1c8f 8a60 f5bf 68af 97dc 584c ad3f
000002c0: 8eae f969 b395 0cc0 6edc 20dc fe66 ee3f
000002d0: 04bc 1d02 b557 f83f 47ab 574d 8296 f6bf
000002e0: c33b 0d59 23d1 ffbf 6e0d f370 f122 fc3f
000002f0: 1280 8018 c143 e5bf 0ffd 187d f754 febf
00000300: 5d36 6a48 a1fd dbbf 802b 8358 912d d5bf
00000310: e09b feb6 74df cb3f 4444 8668 66f2 06c0
00000320: 3b57 e739 f63c 1040 680d 1afd 4ed0 0b40
00000330: 6db1 bf5f 0684 0f40 2150 c615 7fb1 06c0
00000340: 96c8 e2cd 1c28 fabf 2123 f58d cdbc f03f
00000350: 5a96 086c d594 f83f 9477 4c43 2269 e33f
00000360: 3899 c608 5a2a c53f 113b bb9d a2f3 f93f
00000370: c2d9 c808 2c26 f2bf c2c7 aaa0 d201 1b40
00000380: 88f7 f78b 3813 b8bf 5074 0966 c5ec 01c0
00000390: 2b7f d972 f8bb e73f e446 bd8b 9c23 09c0
000003a0: d249 6e56 15a8 b3bf 8eba d9de 6966 f43f
000003b0: 00d0 4e73 7d4e f7bf 827b 45a4 4c3f 1040
000003c0: e6dd 4ba2 fb77 d6bf e8b7 8e83 e5d0 fc3f
000003d0: 90ac be3d 383c 0840 5622 e187 cdc9 f9bf
000003e0: 4401 482d 3918 febf fa9b c9f9 1cfe f43f
000003f0: 98a6 5ac4 6326 f7bf 739a 4c89 635d f7bf
00000400: eccb 1ca4 fd6f e33f 4d35 afa8 9835 1040
00000410: 342b 97b6 e037 da3f e000 abe0 7b19 a1bf
00000420: 6e1b 3d14 94e4 f8bf 5c9d d1b4 2b24 1840
00000430: 05c3 c0cc 6d14 fdbf 807e 4076 ebd5 75bf
00000440: d2e2 3e69 8c44 febf e2bb 98da e527 e23f
00000450: ab3c dfdf 0afe 04c0 067c 82dc f0d8 e8bf
00000460: b41d 9255 96e0 bebf fd4b 8506 13f9 b43f
00000470: 604a 1c4f 7977 dcbf 95a5 215a 7939 e33f
00000480: ba45 883d 2594 eabf 8ea4 13dd de16 f83f
00000490: 9a42 1ee1 e8d7 f73f e73b 18d4 a8d0 f2bf
000004a0: 12af 3197 848e 0240 1fb1 ec11 4cbd f33f
000004b0: 6769 1eea 6bf5 f2bf e33d c55d 18cf e6bf
000004c0: 386a a481 917f e6bf 839e c079 6430 0040
000004d0: e8c0 1955 8a28 f93f 5c1a b8d8 0184 c3bf
000004e0: b8a3 abe0 5e94 e9bf 3727 74dd 1db5 f0bf
000004f0: fd11 3b97 567d 14c0 039d bd95 c1b7 1240
00000500: c7ae cc76 05ed f83f 1fde 0776 319c ffbf
00000510: d1b5 6375 4b48 0640 16df ec36 4119 0540
00000520: 4df4 bb18 ae35 04c0 7a26 d879 5322 f13f
00000530: a78a 21a6 05f0 15c0 4e99 f31b e01a e2bf
00000540: 9aa4 252f 308d e9bf 7ada 0618 4425 fa3f
00000550: cba4 be5c 43ef e03f 0d33 4698 0ec0 0040
00000560: 6fa9 ac61 d684 0940 942c f313 699f f9bf
00000570: 1b23 a341 9c15 f8bf 6a1d 0e4c d444 f0bf
00000580: ee63 f612 6c4e f23f ec82 f4b7 1ede e4bf
00000590: f83c 1433 f5a1 f5bf a3e1 ff19 8a83 f53f
000005a0: abb1 274f c7a0 05c0 ea59 e3ad 0329 e23f
000005b0: dd92 9cc8 d4ae f63f e200 ac07 1b2b 0440
000005c0: cefb d6e1 4af0 c2bf 7c92 11aa b78e 0840
000005d0: dcc0 31c0 ac91 ddbf 9925 90c9 5c9c febf
000005e0: aab6 4019 dc9e f6bf 70b4 5a2e abf4 c6bf
000005f0: 368d 1f5b 2280 01c0 48aa a9db 7d48 d03f
00000600: 2a22 b1c6 ae9b 01c0 43b4 ceff 3f16 11c0
00000610: d225 99c4 0c74 f8bf ea58 a6cd eed0 1140
00000620: ae02 0571 d7c4 e23f 1d48 6778 2e13 00c0
00000630: 1cdd d5ec 8301 04c0 ad66 91a5 fe62 d6bf
00000640: 209b 47c1 bdd1 c33f 54b6 fd96 1bd9 03c0
00000650: feac 40ea b98f 0540 d4f5 cb0b e89d 13c0
00000660: 02ef e8e3 d469 fa3f b449 fe8c e5ec 0a40
00000670: 7325 3542 79c4 00c0 79f5 7629 8527 13c0
00000680: 41c4 cb6b 8c22 d53f de7f ec07 7827 0a40
00000690: f0b1 d7f0 9bff 0640 3890 23a7 65c6 02c0
000006a0: 4c87 cad9 bcfb fcbf 0aae d0e6 9d0c 1740
000006b0: fba3 3231 04b1 e73f 300a 0fb2 ee3d fd3f
000006c0: 6d5c 02c5 1745 1140 aa02 00b0 7ad7 f6bf
000006d0: 2bab be61 fe90 0740 f45a 83f9 da4a f2bf
000006e0: 7b3f 7743 2169 eebf d456 228c fd59 1c40
000006f0: 1b47 1fa4 afec 0cc0 f5a5 7fc5 ee39 c03f
00000700: 49fb 6f9c 78e8 0a40 acbb 73aa eb7d 0ac0
00000710: 543d 4143 6c78 fc3f 2070 a0e9 669a ad3f
00000720: 5613 b52c c93b f03f 2b8d 4c6f 5eac 15c0
00000730: abf2 9073 8bd8 f73f 81e0 77c7 4923 f1bf
00000740: de5d 4e8f 816b f4bf 2614 a7c3 d8fc e73f
00000750: b4ab 27b4 4924 da3f 8a34 71a0 60be e53f
00000760: dafc 3a6e 0aa5 f4bf 6c2c 7b51 3430 f0bf
00000770: 34d1 264e 8f5c 0240 2f64 92e7 676f fdbf
00000780: e0ce eab3 a3fa ab3f 5276 6a59 7dd4 ffbf
00000790: 9b59 2a0f d6e0 cb3f 12c0 09f8 78c0 0c40
000007a0: 9c68 3dd1 b97a 0840 a0d1 8d5c 8133 cbbf
000007b0: 09fa d849 8e0c 0040 a9ea 7eb9 ae37 f1bf
000007c0: 5491 6033 92d4 f73f ec01 b5ee 22b0 f83f
000007d0: c46d cf3c 3666 e63f c1d6 82ba ec7e 0940
000007e0: 284c a007 9c8c dfbf c18b 5ad5 907e ef3f
000007f0: 4375 cc27 71f1 f43f f816 9207 e6a4 0540
