enemy_7_run_4/best_weights_enemy_7_run_4.npy (npy, 2248 bytes, 1 tensors)

array f8 [265]
000000 6e 8d 39 da af b4 e8 3f 48 a2 76 7d 98 2d cb 3f
       0.7720565092280773 0.21232896925109146
000010 e0 8f 98 50 c5 ae 9a 3f 36 ba 00 82 b0 ea 03 c0
       0.026057322544275396 -2.4895944744560223
000020 ca 00 a1 64 d8 a4 0f 40 f0 24 b4 40 8b aa d3 3f
       3.9554908620485536 0.307284177005001
000030 bc 38 41 63 88 1e 01 40 c0 99 2c b5 ec 45 cd bf
       2.1399085764197405 -0.22869643064877998
000040 76 33 9b 3d ae a6 f2 3f 39 8e f6 46 85 0b d1 bf
       1.165693512582235 -0.2663281624793146
000050 16 74 9c 49 c8 f6 fa bf c0 8f 12 bd 7c b6 a1 3f
       -1.6852496028361705 0.0345953923036002
000060 1b 17 79 de d4 23 e2 3f ea 99 a5 8c 82 3f 00 40
       0.5668739648033098 2.0310107219731792
000070 c4 51 a1 69 c1 81 03 c0 8d cb cb f4 2d 3b 0a c0
       -2.438357186542108 -3.278896248311361
000080 ab fc a4 53 6f b5 ff bf 5c 8e 20 ae ee 37 09 40
       -1.9817956225740925 3.15231071507314
000090 4b 44 e0 81 f4 0c 00 c0 e6 0a c4 5f 14 00 e6 3f
       -2.0063257357183253 0.6875097151208507
0000a0 e1 6b 9f da 95 38 e2 bf 00 5b 4e 25 54 c7 94 3f
       -0.5694073934531582 0.020291628624899083
0000b0 04 3a 2f 4c 26 c0 d7 3f 92 f3 78 3a 41 25 fb 3f
       0.371102880858331 1.696595409782479
0000c0 e6 09 87 93 f0 8c 07 c0 73 9b d6 4a 77 3d ff 3f
       -2.943818237837365 1.9525063441630806
0000d0 a4 2e a5 75 43 a0 c1 bf b2 2a a9 15 1e 97 f2 bf
       -0.13770335430523517 -1.161893925297289
0000e0 3c d1 54 ae 2f 7c f4 3f 12 ed a7 55 88 51 ee 3f
       1.2803189096276375 0.9474527047126762
0000f0 8d f5 8f e7 dd 5b e9 bf 8e 1f 5e ba 8c bf f4 3f
       -0.7924642107679333 1.296765068052966
000100 34 51 c1 ac 63 d5 ec bf 0a c4 45 59 a2 a2 e0 3f
       -0.9010485052226955 0.51985280452766
000110 1a 41 0d 4f cd d1 f3 3f f2 80 1b e0 3f 54 d5 3f
       1.2387211883506724 0.33326718221179796
000120 f8 86 ab a2 1e 74 f1 bf c2 57 00 f0 65 05 d8 3f
       -1.0908495287225701 0.3753294795764043
000130 40 6a 89 28 8d 66 f5 bf 84 54 fb 55 2c 4f dc 3f
       -1.3375369628398772 0.44233234783798303
000140 c4 f5 29 d3 aa 31 f0 3f 5c 23 dc fc 44 6a d4 bf
       1.0121258019056407 -0.31898617452002553
000150 19 d0 78 be d0 1c f1 3f 24 df ae 10 8c b6 10 40
       1.069535011321028 4.178268681214636
000160 c8 d4 0e a0 99 ef f6 3f c4 64 dc 44 15 a1 fa bf
       1.43349611780768 -1.664326924312534
000170 ca 10 ec 99 28 06 e5 bf 3c f3 74 0a d0 4f f1 bf
       -0.6570017820636391 -1.081985512587564
000180 ca 2d 85 d6 9b a8 e4 bf be 73 a7 0a 1c b0 f8 bf
       -0.6455821218345872 -1.5429954925705114
000190 30 91 72 a7 b8 56 f3 3f a4 2c c5 45 dc 4a f0 bf
       1.2086721936148699 -1.0182764745139048
0001a0 22 15 9f 0c 42 77 03 c0 64 e4 43 c3 dd e5 fa 3f
       -2.4332314477966444 1.6811196925684948
0001b0 8c c7 c5 6c bd 30 0d c0 aa 2d 5e f2 1b cc e3 bf
       -3.6487987993104465 -0.6186656697986355
0001c0 10 32 72 e6 c3 09 e5 3f e5 ab 6f ee 1f 68 c4 bf
       0.657442045297616 -0.15942763464349166
0001d0 60 0a 86 82 92 88 f6 3f 6c 92 e7 e2 cd e1 c7 3f
       1.4083428476884805 0.18657849864316078
0001e0 ca 99 26 75 6c c8 c0 bf 05 ac 2b 59 c8 9a 0f 40
       -0.13111644478085643 3.9505774465992567
0001f0 6d 67 58 75 0f 88 10 c0 35 1c 92 b0 a0 e7 02 c0
       -4.1328714690406345 -2.363099460085801
000200 02 20 63 e4 5c 58 ff 3f 92 7f 11 17 77 5b ff 3f
       1.9590729638457565 1.9598303700549633
000210 d4 6f 13 37 84 0e d8 bf dc 6f 75 f8 07 61 06 c0
       -0.3758860147333938 -2.797378483852283
000220 c0 85 c2 09 e7 59 00 40 8e bf 16 e2 2b ad e6 bf
       2.043897701500754 -0.7086390891836218
000230 1e 0b 9a f4 84 5b be bf 38 b5 cb 4c a7 d3 fc bf
       -0.11858397456857658 -1.8016732215722424
000240 c4 2c ee 49 f4 49 fe 3f 24 2a a1 97 3d 08 f0 bf
       1.8930552375702954 -1.0020118639973896
000250 76 13 f1 9e d8 77 13 40 1a 1c c1 b2 14 dd ea bf
       4.867037280525315 -0.8394874087615591
000260 64 6c c2 c1 1e fb e5 bf c4 22 16 a8 11 06 e2 3f
       -0.6869043144573763 0.5632408411921337
000270 a4 d4 b4 7a 4e 5f f0 bf 67 0f ea e6 dd 10 05 40
       -1.023268203088528 2.6332357444934362
000280 5e 65 dc 38 ad a0 f7 3f c4 a9 cc 10 92 56 f8 bf
       1.4767276974801784 -1.5211353927830809
000290 bf 8d e5 74 ec 83 e1 3f 86 4b 8e 1e 1a b6 f3 3f
       0.5473539622438962 1.2319585031116005
0002a0 88 9a a2 e4 8b 5a e2 bf 72 ab cb a5 3f bd ff 3f
       -0.5735530343561814 1.9837032772436172
0002b0 06 f8 97 6b 19 0f de bf 87 6f c6 a9 8d 8c 01 40
       -0.46967158801260245 2.193629576080585
0002c0 2b 4e 5f 06 14 20 f1 3f 76 34 7d 1d f4 36 09 c0
       1.0703315972249452 -3.1518328002771865
0002d0 b9 2b 7b a5 8a 44 d3 bf 3c 46 99 a2 b7 d0 d6 bf
       -0.30105844650523356 -0.3564890945318415
0002e0 59 85 46 4a 05 b2 f6 3f a0 5b e5 58 85 fb d6 bf
       1.4184620763192781 -0.3591016166805563
0002f0 da 56 18 10 70 48 d9 3f ae f4 2e f7 c2 48 ba 3f
       0.3950462491205663 0.10267275366546144
000300 48 d7 c5 6e 80 28 bf bf 0a ed d4 ab 08 e7 02 40
       -0.12171175674833734 2.362809507785305
000310 dc 25 3d 58 f6 fd fd bf 76 b8 d0 ba f8 e7 fa bf
       -1.874502510722201 -1.681633691546748
000320 d4 6b 63 76 5f 18 d8 bf 06 76 38 06 8f 17 a7 3f
       -0.3764876037727707 0.045101613530487625
000330 32 89 da 1f cb 60 bf bf 92 5a b8 59 36 ca e4 bf
       -0.12257070090939662 -0.6496841194483116
000340 0d 41 75 5b 55 c6 fc bf c3 ac e6 88 ea fd 00 40
       -1.7984212467745835 2.123982495822561
000350 55 e5 92 ed 09 4c e8 bf 99 ed 78 38 81 fe 12 c0
       -0.759282077800132 -4.748539812451235
000360 ba 88 9d cb 86 f3 d8 bf 45 f9 23 11 09 c0 f8 bf
       -0.38986368068993793 -1.546883646922269
000370 2d 1b f2 d4 3b 8d 0b 40 82 c0 f3 b7 1b 7a f4 3f
       3.443961776388639 1.2798115907317258
000380 d4 b9 7c f0 2e 6c ea 3f fc 12 7f 78 de e0 0b 40
       0.8257059762016135 3.4847993291645007
000390 0f eb 02 dc 0f 10 d2 3f 43 7f 86 ea 7c e7 fb 3f
       0.2822303436802693 1.7440156136653548
0003a0 59 a5 53 d1 ab 57 e6 bf e9 40 2c 96 cb b7 e4 3f
       -0.6982020462429929 0.6474359448493746
0003b0 f8 2d b4 ee 0d d6 a6 3f fa 20 c8 77 6e 41 e2 3f
       0.044601855648661315 0.5704872455108039
0003c0 d8 2a b2 d8 00 11 fd bf 06 4a 0e 1c c7 b3 ef 3f
       -1.8166511978803808 0.9906955287900139
0003d0 d9 61 60 96 fb 29 e3 bf 5c b7 3a 29 84 ca b3 3f
       -0.5988748490372543 0.07730890280319386
0003e0 de 6c c6 d5 6f 95 06 c0 47 a7 b8 25 30 c0 01 40
       -2.8229672146968445 2.218841833779979
0003f0 4a 60 86 d7 6b d0 f9 bf ba a1 8f 82 fb 2b f7 3f
       -1.6133840960446997 1.4482379055062737
000400 e7 f4 08 f4 18 b8 bd bf 18 28 a8 00 95 11 18 c0
       -0.11609035451779769 -6.017169962180581
000410 6e d6 6e 4b 28 c0 d9 3f df d0 8d 93 f5 7a f2 bf
       0.40235335699558206 -1.1550193561388864
000420 44 b1 e1 19 17 42 d4 3f 14 dc ce 01 85 6f c5 3f
       0.31653382804394803 0.1674658068493221
000430 e1 63 c0 cc 76 8e ec bf 57 70 0b 87 2d a8 f5 bf
       -0.892390632539101 -1.3535590434248854
000440 fb 9e da 28 d7 f2 02 c0 12 80 4e 69 69 6f ff 3f
       -2.3685744468419876 1.9647001374760333
000450 c2 51 4e fc d3 22 d7 3f bc cd da aa da 16 f4 3f
       0.36150073661090343 1.2555796312343395
000460 60 53 03 bb d0 0c e8 bf 53 19 d5 da 80 74 f3 3f
       -0.7515643742177467 1.2159431980267825
000470 fc f0 20 0a da 03 e8 bf 40 5a 56 a0 80 65 fd 3f
       -0.7504701803041196 1.8372808707405426
000480 3d 20 e4 c5 8b a9 0e c0 89 ae 02 dd fc 83 e8 3f
       -3.832786127113677 0.7661117855654577
000490 d6 fd 91 4e 5d ed e3 3f 10 80 05 e8 91 f4 f2 bf
       0.6227251562667628 -1.1847094596232672
0004a0 e8 50 a8 02 6a c0 c0 bf 6a 22 18 43 ed 5a 01 40
       -0.13087201242218005 2.169397854017281
0004b0 fe 14 fb 99 9d 90 e0 3f 85 e5 91 e3 4a 3c f8 3f
       0.5176532752454077 1.5147198571633862
0004c0 7c 7b c0 de 84 9f 00 40 e7 06 ef 01 7f b1 fa 3f
       2.0778901484003978 1.668334014466774
0004d0 5c 1a 5b 4b db 90 df bf 1c 75 c8 dd 2c be e3 bf
       -0.493216346349447 -0.6169647533130589
0004e0 aa ac c8 cb ed 6d 0a 40 ed 09 cf d1 1a 8a 06 40
       3.3036762161842335 2.817433966761419
0004f0 55 4d c4 e4 b2 01 0c 40 18 0f 63 0d 7f 8b cd bf
       3.500829493752159 -0.23081958917293188
000500 00 e5 73 7e e0 67 06 c0 4b 4b 3f ba 1a a7 06 40
       -2.80072115698988 2.8315939474645453
000510 09 fb 65 e1 bb a6 fc 3f 50 41 45 d1 6e 02 0d 40
       1.7907065205214983 3.6261879300365436
000520 9b 9e 4b 14 c7 ed d3 3f 06 73 a7 f0 39 b8 e9 bf
       0.31138779623004503 -0.8037385654712075
000530 e0 0b 33 50 fa 31 ca 3f 32 a0 91 46 02 c3 e1 3f
       0.20465020099626852 0.5550547960565437
000540 c2 5b c5 7a da e0 09 c0 d0 76 5b 76 b0 08 0d 40
       -3.234791716716672 3.6292428251898414
000550 27 db 5b 5c 71 10 03 c0 6a 2e b5 ae d0 9a dd bf
       -2.383028718522286 -0.46257416783621486
000560 32 6a 8e 5f ec 8e 03 c0 4f 43 5b 38 7f 69 f1 3f
       -2.4447867837273174 1.0882560922074906
000570 c0 36 6d 88 3b 7b 9f bf 9a d2 e1 94 10 47 03 c0
       -0.030743532373256555 -2.409699595586358
000580 9a a5 56 06 74 4e 02 c0 2e 3f 5f 9d 01 46 f5 bf
       -2.288307237166646 -1.3295913836809166
000590 26 f4 94 69 c0 b1 b8 3f ce 86 a1 5f ec 95 09 40
       0.09646227433854956 3.1982047530335427
0005a0 28 34 99 7c 2a 12 d2 bf b8 e7 f5 2d 8b 8d 09 40
       -0.28235876243417346 3.1941131201428696
0005b0 e6 f9 7e 2a b0 e8 f3 bf d4 8f 0b 86 a2 47 de bf
       -1.2443086299896264 -0.47312224474285114
0005c0 30 f4 1f 0f db 2d ff bf e7 fe c7 30 9f c4 f0 3f
       -1.9486952391446373 1.0480033784405636
0005d0 bc 3d ba 86 8f 8b ce bf 3e 37 aa e6 6c 35 db 3f
       -0.23863405302516394 0.42513582731122657
0005e0 e4 23 05 96 4b f0 db bf f9 05 47 84 e0 03 00 c0
       -0.43654145861051874 -2.0018930753874398
0005f0 fa 79 46 d3 fb d7 10 40 02 c0 10 f3 52 30 e0 bf
       4.210921574760954 -0.5058989283916164
000600 8a 6a af 33 a1 c4 fa 3f 08 aa c1 b8 55 e5 f5 bf
       1.6730052966073878 -1.3684899537134942
000610 0a 1d 46 ca 57 a8 e0 bf 5a f1 f8 bd 95 e2 0f 40
       -0.5205496740972262 3.9856371728512103
000620 fe 28 33 0c e2 49 eb bf 95 5c 2a 3b 9f f3 f7 bf
       -0.8527689207342346 -1.4969780264998793
000630 db 62 e7 24 91 72 0c c0 1f 69 29 01 7d f5 f5 3f
       -3.5559409030068827 1.372433666742445
000640 f2 e0 9f 53 c1 57 e0 bf f5 f8 d1 33 17 a5 05 40
       -0.5107123025218512 2.705610661359169
000650 36 4b 04 c0 41 16 ca bf 9c 0d b6 54 e8 e2 a5 bf
       -0.20380422473734833 -0.04274679216453167
000660 27 49 46 c0 58 06 e2 3f ec 3f 20 ec 1b 61 02 40
       0.5632747416841867 2.2974165389386965
000670 ad 5a 2e e6 2f 03 e1 bf 25 14 86 89 89 ce c9 bf
       -0.5316390510295911 -0.20161551680590253
000680 bd 13 24 c4 14 c0 00 c0 43 82 f3 96 d0 2b f8 3f
       -2.093789608336435 1.5106969734698772
000690 04 3a c5 84 f6 5f c1 3f 04 c9 80 50 38 b7 f1 3f
       0.13574105723314756 1.1072314400340142
0006a0 c8 04 c1 0c 78 30 dd bf f2 5d 4d bb 60 0d 00 40
       -0.45608330960756094 2.006532157228997
0006b0 ae 8c c5 71 92 a4 d3 bf 0c ab f2 d3 47 e3 fd bf
       -0.30691968069568076 -1.8679884223190042
0006c0 c8 bb 40 c9 26 20 e9 bf 11 12 38 ba 88 00 13 40
       -0.7851747446746851 4.750521573707844
0006d0 ce 04 76 d7 84 73 cf bf f0 e2 0d ea 35 f4 e7 bf
       -0.24571285744244736 -0.7485608645793871
0006e0 52 82 0c 42 1d f1 ff bf 88 a8 31 d2 09 10 cf 3f
       -1.9963657932313663 0.24267695201280426
0006f0 12 5d 44 eb ec 8e f7 3f ea 6d 87 79 c3 8b fe bf
       1.4723939123267127 -1.9091219660975818
000700 10 98 c4 d8 df d9 d6 bf ad a0 17 03 43 d2 d6 bf
       -0.35704799813027055 -0.3565833597372244
000710 b3 98 1a b7 d7 ed e7 bf 80 24 c9 c7 10 07 91 bf
       -0.7477835251090909 -0.016628515428497526
000720 bd 0c 9e c1 ac 05 e7 bf c0 80 57 35 1b ff 83 bf
       -0.7194427281941881 -0.00976392036949425
000730 59 31 53 99 6f 24 f8 bf 2b 3a 89 57 63 6f f3 bf
       -1.5088954915291508 -1.214694349229499
000740 ec 1c 61 1f ad 93 05 c0 ec 03 84 18 94 a9 11 40
       -2.6971075488578347 4.415604003007484
000750 ec 5a 11 68 92 f7 d4 3f 1f f6 d0 54 d2 c3 d9 3f
       0.3276105896269843 0.4025770023616548
000760 29 86 02 ed d8 59 f3 3f f2 fe 19 df 8d e9 ff 3f
       1.2094353922078744 1.9945200648216397
000770 9c f4 9d a0 07 cf e7 bf b0 56 b0 cc c3 37 f8 bf
       -0.7440221917201089 -1.5136144633919848
000780 c6 1f d7 d4 11 60 09 c0 a1 f1 0d 63 24 2c f0 bf
       -3.17190901071078 -1.01077688878204
000790 12 b5 65 8f cb 47 f8 3f 60 6c 60 31 52 c0 ef 3f
       1.5175281144577792 0.9922266926181571
0007a0 56 40 03 5b e3 95 c8 bf cc c3 01 3c a7 e9 05 c0
       -0.19207422203044427 -2.739088505557879
0007b0 9a d1 45 06 12 28 df bf 84 66 52 27 7a 28 f6 bf
       -0.48682070362635843 -1.3848821197520076
0007c0 b7 59 b8 10 58 7e e3 3f 32 21 b3 9e d7 b6 f1 bf
       0.6091728521885703 -1.1071392249305743
0007d0 63 e7 9f a3 56 08 01 40 40 39 df 7d b4 d1 fe bf
       2.129071501080874 -1.9261975209115718
0007e0 44 73 b4 60 5e eb cb 3f df dc 34 a3 e1 bf e1 bf
       0.21812038156431346 -0.5546730220438824
0007f0 fc 4a b3 7d bf 34 d2 3f 19 da 1d d1 7b 0f f3 bf
       0.284469483141194 -1.1912801903359933
