CMAES_group2/best_weights_group1_run_6.npy (npy, 2248 bytes, 1 tensors)

array f8 [265]
000000 18 96 6a fc 3c 46 e3 3f 32 71 8a 25 6b d7 eb bf
       0.6023240022665872 -0.8700462086885976
000010 55 3c db 6e a6 f9 e6 3f f5 3f aa f8 d9 8e d9 bf
       0.7179748692668776 -0.3993439606065288
000020 94 77 10 10 84 3f c2 3f a6 53 ca 0c 78 3a d5 bf
       0.14256335052862978 -0.3316936612039235
000030 20 e8 ee 5b 9a a1 cd bf 20 79 e2 89 ab 82 e4 bf
       -0.2314942311184618 -0.6409509366092472
000040 a0 c6 91 b5 2e 80 dc bf 77 b3 73 e0 2e 4e de bf
       -0.44532363635435424 -0.4735219184793133
000050 63 dd 77 0e 96 ff ef 3f 9b 80 a0 05 6d cc e7 3f
       0.9999494822103937 0.7437043294812783
000060 48 d5 b0 55 3b 50 dc bf 1a b2 e6 7c 12 9d d0 bf
       -0.442396959001901 -0.2595869273889392
000070 5d 16 81 3d 0b 83 d5 bf 5d 75 08 2c e3 56 e3 3f
       -0.33612328535341424 0.604356370927842
000080 58 e0 85 f8 43 d4 d6 3f 48 6f 56 ce b0 5b c5 3f
       0.3567056586248376 0.1668606765277849
000090 ef c7 3a f2 e6 8e d3 bf 45 67 11 20 0c f8 ef bf
       -0.3055970540546004 -0.9990292192771696
0000a0 86 3d 6d df 57 10 dc bf 38 00 c2 16 22 2c c4 bf
       -0.43849751299872997 -0.15759683715077855
0000b0 de 9b e3 d6 a7 4e dd 3f d1 64 76 8a a2 e1 e1 3f
       0.4579257582212771 0.5587933258385879
0000c0 06 8c e4 b8 e7 f2 da 3f 98 b9 30 e2 86 9f b1 bf
       0.4210757546990752 -0.06884043714737798
0000d0 2e dc 79 32 d2 c7 b2 3f 58 26 9d c0 dc 1c c9 3f
       0.07336152775120361 0.19619330792402212
0000e0 51 56 20 1d 74 76 da bf 02 a2 69 81 8d 22 c1 3f
       -0.4134798321186724 0.13386696642852774
0000f0 b0 04 c5 ba 9e fa b2 bf 4d e6 c8 f9 e8 4c d4 bf
       -0.07413665828518634 -0.3171942176155412
000100 b3 4f 97 83 bc 93 ec 3f 96 f6 69 b8 32 62 e7 3f
       0.8930342264306915 0.7307370759806016
000110 d4 3d 37 d4 69 4a dc bf 00 01 2d ea b2 8f b9 bf
       -0.44204183315465895 -0.09984892098600895
000120 7b 8e dd e0 d5 f0 c8 bf fa 1a 26 77 d8 87 ec bf
       -0.19484971503981172 -0.8915827109456977
000130 2b e3 93 a7 0d 06 d8 bf 8f b1 1d 34 7d 89 da bf
       -0.3753694664479094 -0.4146416672654362
000140 76 30 b8 62 77 bc d3 bf 54 14 f2 10 91 84 dd bf
       -0.30837807312560217 -0.46121622710081067
000150 b7 b4 eb 4c 1c 31 d5 3f d8 a0 4d 2d cf 2d 90 3f
       0.33112247001447365 0.015799748554315624
000160 06 50 21 e4 dc c3 cb 3f a4 7d 6a 38 f2 41 b3 bf
       0.21691476000944493 -0.07522500874846699
000170 eb 05 8e 13 20 d8 dd 3f ba a5 9b 5b fa 30 dd bf
       0.46631624135633726 -0.4561143774613715
000180 ef 14 61 27 51 cc e8 bf 32 cc bd 21 31 cd e0 3f
       -0.7749410409093381 0.5250478419315014
000190 06 9b 7a 56 58 95 d5 3f fc 2a 24 72 b9 ee b1 bf
       0.3372402996559888 -0.07004889523174634
0001a0 e5 35 c3 21 e0 fc e8 3f af fc 76 e7 e5 c0 ef 3f
       0.7808685931610709 0.9922971268460027
0001b0 f1 bc f8 0d 17 b6 e6 bf ba 72 c2 83 79 46 da bf
       -0.7097277901538331 -0.4105514322962268
0001c0 23 3a 97 d7 0a e8 e9 3f cd af 6e cb 92 cf c8 3f
       0.8095754824406111 0.1938346379587287
0001d0 ec 78 55 25 5c 96 c7 bf 33 74 31 7b 1e 20 d0 bf
       -0.1842761213583296 -0.251960392289962
0001e0 b4 43 74 88 0a f8 e0 bf c3 8e dd e0 4d 56 ea bf
       -0.5302784600372576 -0.8230351821807392
0001f0 2c 34 3d ba 6d 6c b4 bf c8 f0 1b cb be c8 e6 bf
       -0.07977948948719477 -0.7120050398803182
000200 40 2c 58 40 62 ea a5 bf 76 1e d0 41 f7 ff ef 3f
       -0.04280383143858346 0.9999958310517758
000210 12 bb 67 89 2f 05 df 3f 9d 9c 11 3a c3 71 ef 3f
       0.48469150942303074 0.9826370367199108
000220 28 32 c3 7e 10 0f e2 bf 80 b1 2e 19 e4 8e c7 3f
       -0.5643389201955573 0.1840481875382345
000230 34 d7 50 e1 17 9d de bf 98 cc 97 95 11 93 ce 3f
       -0.47833821300024515 0.2388631802019503
000240 53 04 86 97 91 e7 ee 3f 0c ba 62 18 64 d7 ef bf
       0.9657676658099582 -0.9950428463251355
000250 2c 83 54 d9 81 70 b6 bf 5a 14 7c 3e e0 cf 9b bf
       -0.08765422397528927 -0.027160171331179185
000260 ff 4f 73 d8 9f 78 df bf 78 23 a3 96 fe 25 e5 3f
       -0.49173732888925764 0.6608879987844452
000270 92 3e f5 a5 7c 7f da bf 8c b7 ff 51 e2 f0 e5 bf
       -0.4140311833079774 -0.6856547929325969
000280 92 2f 43 51 90 29 d3 bf 14 5c 9a 99 72 ee ef 3f
       -0.29941184936318976 0.9978573799188575
000290 f0 21 37 c6 74 86 e3 bf e7 89 22 15 7e 1c df bf
       -0.6101631041902333 -0.48611404479939185
0002a0 6a 5f 07 6b 83 26 ef 3f ce d1 2e a7 b7 b5 d9 bf
       0.9734513368993991 -0.4017161495824241
0002b0 0b 38 96 af 77 5f ec 3f fc c6 b5 62 01 f4 ce bf
       0.8866537503652138 -0.24182145423724666
0002c0 c5 78 9c df c4 ef ef bf 9b d5 72 79 82 34 c7 bf
       -0.998018681278858 -0.18128996782403992
0002d0 27 83 19 42 aa 44 ef bf d2 10 21 f0 d5 10 ef bf
       -0.9771319666871009 -0.9708051385901177
0002e0 79 33 db 60 fa a2 e0 3f 28 25 20 09 1b 62 e7 bf
       0.5198947803233828 -0.7307257822259645
0002f0 99 6a 3c 39 f1 4a e9 3f 0c c0 de 6a 1c 37 e6 3f
       0.7903982274904876 0.6942274176890364
000300 16 f7 1c e7 b4 30 e4 bf 02 4f ec 63 22 d8 c9 3f
       -0.6309456361702555 0.20190839652115505
000310 d6 7c 77 dc ee 92 e5 3f fa 21 b7 13 65 af c9 bf
       0.6741861635199722 -0.20066512549080057
000320 7a 5a ed 76 ca 09 d4 bf d8 4e 87 f5 88 8f e3 3f
       -0.31309758771877905 0.6112713618735723
000330 b5 0e 72 c4 dc 6b e1 3f f5 ea 6b b6 f9 d4 e6 3f
       0.5444167935206311 0.7134979784890151
000340 3e 8e c4 8c 10 c7 e6 bf b2 a1 38 64 6f d1 de 3f
       -0.7117998837824826 0.4815329054568124
000350 48 15 40 8e a0 c3 e5 3f 6e af 8f 75 a8 47 e9 3f
       0.6801302698446898 0.7899973198050085
000360 5e 5a af c2 ba 3f d2 bf 40 af 77 91 ad 4b 8c 3f
       -0.28513974201397285 0.013816219331566182
000370 72 31 50 db 0c 32 ee bf b2 05 ba 16 19 ee e5 bf
       -0.943609646173668 -0.6853146976356383
000380 28 bd 9e b1 c0 14 ee bf c8 64 52 3b 4b 0e c9 bf
       -0.9400332898275439 -0.19574871441435548
000390 be ca 54 f9 47 3b e8 3f 90 20 d8 4e 61 2a a0 bf
       0.7572364682913173 -0.03157333457426248
0003a0 0a ae ac e7 1e ee c4 bf f0 7d d3 01 09 8f d5 bf
       -0.1635168677542967 -0.3368551748116877
0003b0 19 53 96 2a 5d 7d ee 3f d3 98 5e cb 69 c9 ce bf
       0.9528032142430646 -0.24052164487984004
0003c0 61 33 3e f3 60 60 e2 bf 72 e1 87 f2 23 68 de bf
       -0.5742649794425284 -0.4751062267746625
0003d0 d4 80 48 80 3e a9 d8 bf d7 71 60 fe 25 bf ed 3f
       -0.3853298428312091 0.9295835464759489
0003e0 50 96 fb 84 62 24 da 3f 95 0e e1 53 86 68 e3 3f
       0.40847075449560055 0.6065093649162515
0003f0 10 0d e2 93 0c bb b9 bf 8c b7 a7 a5 bb 6a bf bf
       -0.10051039324212163 -0.1227223662787919
000400 e3 e4 1c 8f f2 c2 ef 3f 00 01 6e 5e df e1 a4 3f
       0.9925473017857737 0.04078577068048794
000410 38 e5 cb 43 ea 15 bc bf 06 89 4a 27 59 da e6 3f
       -0.10970939784228484 0.7141538398175562
000420 80 ae ae de 75 ed ee bf f6 d2 77 cb 05 82 e9 3f
       -0.9664868687882091 0.7971219037995911
000430 e9 d3 8f 1f f9 55 e9 3f 88 21 ec e9 f7 ba af 3f
       0.791744767803377 0.061973330788592185
000440 94 a7 a1 47 99 7d ba 3f 10 07 d5 18 08 ef ef bf
       0.10347898482146284 -0.9979286656382289
000450 2c 75 f7 28 fe 02 ec bf 3d 3e 6c ec 98 c6 e4 3f
       -0.8753653335694813 0.6492428414948744
000460 f8 96 a3 8d 25 7e e5 3f ea 89 3f 1b b2 01 e2 3f
       0.6716487661730914 0.5627069980803843
000470 04 8c d7 34 30 4a c0 3f 3e 50 23 a7 05 8c ee bf
       0.12726404743361297 -0.9545925392544701
000480 6e 98 98 bb 3d ea ec bf 08 ae a0 61 3a fd e5 bf
       -0.9035938896165712 -0.6871616274633547
000490 27 12 ad b8 74 a3 e0 bf a9 66 47 f3 19 0f d7 bf
       -0.5199531180338156 -0.36029671437936855
0004a0 8f f8 ea 39 c5 7b d6 3f 06 e4 58 27 13 ce ef bf
       0.35130434661903903 -0.9939056175709318
0004b0 32 f9 86 d6 66 57 ef bf 00 cc 0d 94 fb 46 35 bf
       -0.9794191541657595 -0.0003246654705925667
0004c0 1a c4 98 9b 73 ab e7 3f 50 30 ef 21 16 47 d6 bf
       0.7396791495322106 -0.3480887729062987
0004d0 c0 ba e4 34 a2 c2 d1 bf 54 59 e3 e9 90 97 b2 3f
       -0.2775044933832014 0.07262521467359778
0004e0 74 ef bd 50 8b 7b e8 3f 3e ac 28 bb d0 60 ef 3f
       0.7650810791960638 0.9805682807394829
0004f0 00 b5 61 09 76 15 e1 bf 75 3e 39 c8 de 98 e3 bf
       -0.5338697608218865 -0.6124109182946557
000500 8b 9f c0 29 e6 82 d0 3f 7c a1 68 38 a9 89 d3 bf
       0.2579894454706781 -0.30527716168082697
000510 2f cf 05 bd 58 81 ef bf d0 45 bb c5 3d f8 d2 bf
       -0.9845393840646234 -0.2964014464351665
000520 8c 65 06 95 be 39 dc bf d9 89 a1 4f 10 b3 c4 bf
       -0.44102444222661386 -0.16171459091408627
000530 7c f4 2f e1 99 eb c1 3f 96 3c 64 c8 ab 88 ea bf
       0.14000247474169558 -0.8291834749124003
000540 a4 4e 53 09 23 6c e5 bf 5c 44 e1 af 3c 71 ec 3f
       -0.669450300420483 0.8888228831439267
000550 24 89 b5 75 9e 91 cc bf 62 d3 4d 50 50 e3 e6 3f
       -0.22319393870845616 0.7152482574880248
000560 1c 11 93 84 79 bd ef bf fc 72 c6 d4 cf 34 e0 3f
       -0.9918792332978543 0.5064467578664273
000570 40 28 91 7f ec f9 d2 bf 04 0c 40 1a 4b 31 ea bf
       -0.29650413949696386 -0.8185172569941419
000580 6c 3e 2d 7a 7f fb ef 3f 5c 93 60 fd bd aa c2 bf
       0.9994504343284922 -0.14583563682495082
000590 03 94 4b 55 7e 73 ec 3f 4a 75 06 06 93 69 da bf
       0.8890983262941748 -0.41269374454880803
0005a0 ba 6b 88 de ea 8b d1 bf 61 5d 91 2d 68 b7 ed 3f
       -0.27416488391616733 0.9286385431286527
0005b0 a1 27 8b 7a af 8b cb 3f 60 06 58 41 76 db e3 3f
       0.21520036204884455 0.6205397869345681
0005c0 d8 68 d5 bf b7 45 e7 bf b8 37 ee ed 4d 15 bc 3f
       -0.7272604700804335 0.10970007952548044
0005d0 e5 f4 f7 30 09 43 dd 3f d9 16 71 3d 77 7e d6 3f
       0.4572165468415064 0.3514688587205064
0005e0 e8 5e 84 8f 45 dd d0 bf 4d ae 51 58 e8 53 d6 bf
       -0.2635053540738981 -0.3488713133326414
0005f0 d8 1a 5e e4 31 ce bf 3f 04 74 02 81 9b bd d8 bf
       0.12424003434544362 -0.3865727195605475
000600 7c 64 cc 2b dc b7 bc bf 40 36 11 b9 d2 0d b9 bf
       -0.11218048161789967 -0.09786717432253855
000610 d4 79 42 da b7 69 ed 3f ff 49 69 37 a4 4a e9 3f
       0.9191550505527695 0.7903615076305072
000620 d0 5c 48 d7 9b 03 b6 bf 03 fc 75 12 44 83 ea bf
       -0.08599256521152943 -0.8285236702503201
000630 9e b7 f7 66 e7 d9 d7 3f 6b 4e 76 db ee fc e8 3f
       0.3726747994941152 0.7808756147737318
000640 b3 59 c5 02 c8 6c d5 bf e1 18 19 db 92 6a de 3f
       -0.334764483171422 0.4752547397259957
000650 38 89 4f 4c 16 3c d4 bf fa a0 85 d4 a6 6f e1 bf
       -0.3161674256536062 -0.544879355508811
000660 c2 4b 1f 3a c8 ef ef bf 01 9f d4 5f b5 01 e1 3f
       -0.9980202803802671 0.5314585563364461
000670 3a ee 8b 0d 7c 7f e4 3f f8 fd 85 4b af eb ec bf
       0.640562082727633 -0.9037701106134923
000680 88 e1 52 42 16 fc b4 3f 5a f9 e1 d3 97 97 e5 bf
       0.08197154158813735 -0.6747550142606926
000690 42 c5 b7 c3 43 56 ee bf e4 9b b6 98 9c ff df bf
       -0.9480303595175104 -0.49997630036744867
0006a0 74 5c 16 29 55 63 d8 3f 77 f3 a5 85 84 9c ee bf
       0.38106278431354856 -0.9566061601941404
0006b0 8e b1 81 dd eb 92 e4 3f 83 cf 58 b3 34 16 e3 3f
       0.6429347349454007 0.5964606764668904
0006c0 d5 c5 2c 12 67 bc d4 3f 4a fd 18 1e ae c7 cc 3f
       0.32399918341533623 0.22484375447855093
0006d0 14 f5 a0 5d 47 8c d3 bf aa 98 95 56 4c 23 b9 bf
       -0.30543693679267503 -0.09819485772968287
0006e0 5c b9 af 24 8d 59 eb bf cf c7 92 5e 1d 67 ef 3f
       -0.8546815601855928 0.9813372466217006
0006f0 a8 c6 d4 e9 4d 44 e5 bf 48 20 b5 13 d0 4e dc bf
       -0.6645879332556506 -0.44231035160601495
000700 a5 59 d8 1e f3 f1 ee bf 6a 16 ae 8d 1e 1d ea bf
       -0.9670348741954525 -0.8160546080768658
000710 dc 0d 1c b1 72 82 df bf be f6 55 5a e6 db e5 3f
       -0.49233691497667365 0.6830932392474194
000720 e0 cb d2 d4 c0 7d c0 3f 80 d3 ba d5 d6 7e d8 bf
       0.12883768455284805 -0.3827416503148058
000730 83 4d fd 04 44 fc d6 bf 20 e4 8f 42 48 ac aa 3f
       -0.35914707648517935 0.05209565937543226
000740 e0 d4 36 5d 08 2c e6 bf 95 da d6 36 c6 0b e7 3f
       -0.6928750820722165 0.7201872893409297
000750 f2 00 d5 d8 bb 94 e6 bf 2c 42 46 9b f9 14 cc bf
       -0.7056559786797421 -0.21939010698089711
000760 18 49 30 34 0f 24 e3 bf 79 5e 3e fe 1d b6 d9 bf
       -0.5981517810162442 -0.4017405493591251
000770 7b 0c d7 bc dd 06 e4 3f f6 30 c2 20 7a 91 ef 3f
       0.6258381546289365 0.9865084304633729
000780 f3 a2 a5 4c b9 08 e8 bf 38 97 30 06 6d ce e9 bf
       -0.7510649201404632 -0.8064484711546589
000790 ef 7a bc fb a2 2a d5 3f ae 12 e6 03 41 12 dc 3f
       0.3307273348199677 0.4386141336511099
0007a0 2c 4a 73 f5 d9 70 b0 bf 7d 7d 05 c9 51 cf e1 3f
       -0.06422197573127936 0.5565575529289358
0007b0 c9 11 5a 79 46 78 d7 3f 92 6c b8 7c 1c 68 ea 3f
       0.3667160210682395 0.8252088962502901
0007c0 d0 74 e5 57 36 54 b8 3f 08 fa 09 c6 a9 4d ec bf
       0.09503497739702316 -0.8844803684185658
0007d0 62 89 83 ee 92 92 e0 3f c0 9a f9 df 6e 10 7f bf
       0.5178923281166983 -0.0075840312052607994
0007e0 40 de 17 ff b5 f8 e6 bf 70 f4 56 90 4a 0d c0 3f
       -0.7178602201738116 0.12540561721644705
0007f0 c6 12 82 e1 66 0e eb bf 50 d5 6f 02 ce ca 97 3f
       -0.8455080418067034 0.023234576128705442
