CMA-ES/Group1_run_2/best_weights_Group1_run_2.npy (npy, 2248 bytes, 1 tensors)

array f8 [265]
0	0x3f8ada82cde5a220	0.013112089069822253
1	0xbfd040126936561c	-0.2539106395209687
2	0x3fd9431aa491e3ff	0.3947207076194558
3	0xbfe6efb4f4c8ac40	-0.7167610913214801
4	0x3fd9b396b8bb8dfc	0.4015862278012887
5	0xbff9f807d2b117b6	-1.6230543356082143
6	0xbff180f2be8c606d	-1.0939814990324763
7	0x3fd92ec683a92cf5	0.3934799466848767
8	0xbff065cce3fd8306	-1.024853602015527
9	0xc0067d53d7687af5	-2.8111950711021287
10	0x3fd5fcca4839252c	0.3435540871910969
11	0x3ffc764928e3f5f1	1.7788783643039745
12	0xbfe809c4c1fa7598	-0.7511924542083532
13	0x3ff41e91c054dab9	1.25746321801641
14	0x40044c6ee2955870	2.537320871527349
15	0x3fc70af96adf0086	0.18002240866008296
16	0xbfb5b52da8fc2e30	-0.08479581237423228
17	0x3ff0b0f4a1f38c7e	1.0432020498490426
18	0xbfd97da8851cb9e0	-0.39829457282294634
19	0x3fe3ddee68ff1174	0.6208412218771131
20	0xbff7c78ed033a849	-1.4862201817400253
21	0xbfde65ae72482bd9	-0.47495614204734476
22	0x3ff685e65b645daa	1.4076903886797063
23	0xbfe5854d29fdff75	-0.6725221462402106
24	0xbfe5ab9214e99c81	-0.6771936806152469
25	0xbfe74753a0156727	-0.7274568678505816
26	0xbff2edcc84ee0729	-1.183056372887629
27	0xbfd6c832355f4cc4	-0.3559690018857504
28	0x3fb61414835f02e0	0.08624389846137204
29	0xbff0abeea3e74752	-1.0419756319501698
30	0xc00047444fd6bda0	-2.034798263302676
31	0x3fd04317f2696640	0.2540950648595732
32	0xbffdb1a1a00c63b9	-1.8558670284166807
33	0xbff86bb5455a0c37	-1.5262959202816668
34	0x3fec3218a3c01466	0.8811152647255198
35	0xbfe8557e8936c0de	-0.7604363136252024
36	0xbff8db4d2d3c4db9	-1.5535403983129596
37	0xbf64db850528f980	-0.0025460813569956886
38	0x4003094f83eaaed2	2.3795461946482215
39	0xbff3ff0f6057cf11	-1.2497705233954017
40	0xbfdec5c26d2877eb	-0.4808202806469796
41	0x3fc3f21aae2aa95c	0.15582593445044324
42	0x3fcc9773b25af6a4	0.22337194641834401
43	0x4002da0a6154bc6c	2.356465111158789
44	0x3ff6835672d91d07	1.4070648657087206
45	0xbfe5d118cef968d2	-0.6817745249238902
46	0xbfd4c6d9697f5da1	-0.32463679602138923
47	0xbfd44060d159bacc	-0.3164293331564465
48	0x3fc6aa8408d72e94	0.17707872802417468
49	0xbffd29c115f1e60b	-1.8226939065192507
50	0x3ff2d9eac2be288c	1.1782024008885257
51	0xbfb174499dabb044	-0.06818065738087947
52	0xbffaafd5145db0ec	-1.6679278178735855
53	0x3fe47b1895a92d00	0.6400263712943399
54	0xbfe8d1c5252a2454	-0.7756067014571593
55	0xbfe41a7c744dcc19	-0.628233172565504
56	0xbfeb0bc26b2971b7	-0.8451854794507686
57	0x3ffa555d2ec98809	1.6458408191324472
58	0x3fe8d97e5fc02624	0.7765495176437907
59	0xbfe45ec227689ffe	-0.6365671891880991
60	0xbfdf6f8d47074d62	-0.49118358551387165
61	0x40057d2fa7487436	2.6861260479913893
62	0x3ff1cc4912369f37	1.1123743735751768
63	0x3ff71aa6b82e2734	1.444006652311555
64	0x3ff7036059af48e5	1.4383243087109403
65	0xbfe8dbcb9ec406c0	-0.7768304921048284
66	0xbfe431faecb81527	-0.6311010955256834
67	0xbff440076ec41324	-1.265632088355411
68	0xbfea4b7d74c25774	-0.821715095563134
69	0x40031f3a41521caa	2.3902478316482147
70	0x3fecc73d447e4956	0.8993212068328755
71	0x3fb2dc795961e074	0.07367666656671351
72	0xbfa0a339e619a710	-0.032495316828159315
73	0xbfea843111c384f9	-0.8286366793583105
74	0xbfe110699cfd18be	-0.5332534853157751
75	0xbfdc04bba5b8e921	-0.43778887924021787
76	0x3fd5b6c0da207d62	0.3392793779512059
77	0xbffc36802e107321	-1.7633058356652287
78	0x3ffa70a2e2c9910e	1.6524990900880456
79	0xc002e2b4140b6322	-2.3606950345969304
80	0xbfe317537260b0b0	-0.5965974077166916
81	0x3ff335cc059f1b83	1.2006340236273167
82	0x3fe29f8af019027d	0.5819754304321375
83	0x3f70ae7309d88920	0.004072617882714874
84	0xbff73f520d68eaae	-1.4529591106244584
85	0xbff9a2149090eebc	-1.6020703932871774
86	0x4000a99899914d48	2.08281059240986
87	0xc00769df4b816b3e	-2.926695432555248
88	0xbffda1e73add5c44	-1.8520271586801451
89	0x3ff841987bf0df1b	1.5160145608369422
90	0xbfede3bfcc6ff34e	-0.9340514176288737
91	0xc0046c24f00b35c0	-2.5528048280163773
92	0xbfe6e6cae548ce8c	-0.7156729200564356
93	0x3ff7458cd7f12404	1.4544800219757699
94	0xbfe8b1b81b01e5a4	-0.7716942336548311
95	0x3ff539a704ed9a11	1.3265752975945626
96	0xbfa3725c361de250	-0.03798187409023923
97	0xc007a032a010a2f4	-2.953221560008723
98	0x40088d60b5bdbf12	3.069032115796184
99	0x3fc9793d91f131e0	0.1990124666794051
100	0xbffc6334a27a22ac	-1.774220118213786
101	0xbff1e83eef7fca5c	-1.1192006450115946
102	0xbfdb37e0e02f2938	-0.4252855481432962
103	0x3fd74185102dcb3c	0.3633740098950289
104	0xbffe8ad539e7b136	-1.9088947545925072
105	0x3fe25e173b878014	0.573985687511597
106	0xbfe69a3ecabaa9fa	-0.7063287696412879
107	0xbff4343e732a0534	-1.2627548693274777
108	0xbfe1f244d50736fb	-0.5608238373476689
109	0x40031af590f4fbde	2.3881636929286136
110	0xbfd7c89bdf3dd45e	-0.3716191940396295
111	0xbfdaa5b3333de902	-0.41636352542958843
112	0x3fede5b1f0c3513a	0.9342889501954581
113	0xc005e961226bb163	-2.7389548005213995
114	0xbff08cb15fa94662	-1.0343488442198567
115	0xc005fc6a6ba0ffdc	-2.7482498558529027
116	0x3fc1abddf9148bf4	0.13805746709940048
117	0x3feec85f4181bd3a	0.9619594840459407
118	0x3ff0c0b3bab81a6e	1.047046403285687
119	0xbfffdbf9f31f972f	-1.9912051674850308
120	0xc00fb3d45d6a2ea4	-3.96280739765446
121	0xbfe0442b73463516	-0.5083214999628207
122	0x40118af198d2f682	4.385687244297175
123	0xbfd003e87173d9b8	-0.250238524240014
124	0xc000ded64f37c3cd	-2.1088072003262597
125	0xc00733ca976c2392	-2.900288756358756
126	0xbff1ab0848ac035e	-1.1042559469935536
127	0x3fdbf32ec173443c	0.4367176903879828
128	0xc003cc349bf4cb28	-2.4747097190933296
129	0xbfc6ec6c0fc1c744	-0.17909003037817162
130	0x3fd5505d95a69daa	0.3330301248010651
131	0x3fcd1f88b090936a	0.2275248396046224
132	0x3fd4fc37101c4f6c	0.32789398740100384
133	0xc002142662483030	-2.2598388365058995
134	0x3fe23de222dff84e	0.5700541192197848
135	0xbfe8901e2008d250	-0.767592489783576
136	0xbfcd3ce7ecbb8a46	-0.22842120227058355
137	0xbff34e217f4c2e87	-1.2065749142228996
138	0xc001c297236dcd6b	-2.2200148361095464
139	0xbff7b6a474caf35b	-1.4820904314248853
140	0x3fcf40b9e84da752	0.24416278689323662
141	0x4002327d328a1a73	2.274652857627467
142	0x3ffb0b175dfda3bc	1.6902078315272169
143	0x3ff068664ecc6938	1.0254881933274884
144	0x3ff2867462e27640	1.157825838344607
145	0x3ff48ead46efb345	1.2848332186651572
146	0xbfe95735847c60f3	-0.7918956363310187
147	0xbfb3d5763ee2d435	-0.07747592006019562
148	0x3fc3b57a318e5db6	0.15397574825031562
149	0xc0025b478c2fe845	-2.2945700599784993
150	0xbfdf539d871ed41c	-0.48947847552637014
151	0x4000d7561f34072c	2.105144733214635
152	0x3ff503121a46ac76	1.3132496858986804
153	0xbfe570c13c2e4f39	-0.6700140166671879
154	0x3fe79b0f9dab2ff4	0.7376783446757131
155	0x3ffea417aaa6262a	1.9150616327264154
156	0xbfe31d7cf545ac50	-0.5973496237251172
157	0x3f8174f30053e6d0	0.008523844192029811
158	0x3fdcb8d8b5e06538	0.4487821365488176
159	0xbff39f17a8b3a4a0	-1.2263409223471982
160	0xbfe570d8ca018643	-0.6700252480915839
161	0x3f83324b85a0e200	0.009373273864285103
162	0xbff7bb6074ad8749	-1.483246284268221
163	0xbfaea77b795f0f18	-0.05987153870185419
164	0x3ff0f7a727a09e3e	1.060462145609463
165	0x3fe979d81bcdf8c5	0.7961235564287327
166	0xbfd50e24f538dd20	-0.3289883036372476
167	0x3ffc28ba21724a2d	1.7599431330205662
168	0x3fe3323639784c93	0.5998793718776078
169	0x3ff822bb30a7185e	1.5084792995926573
170	0x3fe3fbe9c63e7386	0.6245011207534936
171	0x3ff5e0a8bd6c1c22	1.3673484229382287
172	0x3ffea6690c548676	1.9156275254867103
173	0x3ff1ba82b66fa784	1.1080348135387519
174	0xbff647918847acda	-1.392472774833371
175	0x40077d2bbb036df6	2.936118565599595
176	0xbfc951b3381f2e26	-0.19780578842470325
177	0xc0006c11ab3a20cf	-2.052768075667792
178	0xc000bb5f65529eb7	-2.0914905467833154
179	0x3feaf7c71c2a2d8c	0.8427463102429313
180	0x3ff748f38e23c7d6	1.4553103973707855
181	0x3ffac3edb1237b22	1.6728341025806874
182	0x3fcf13117b76da60	0.2427694180348281
183	0xbfe78d04b6e44d36	-0.7359641620736628
184	0xbfd25d09a58bd526	-0.2869285694753948
185	0xc0028c88a8988662	-2.3186200305506626
186	0xbfe5a33c79b3ef0b	-0.6761762978562457
187	0xbfb1cc028eebb388	-0.06951919545436003
188	0xc000d5641b39f95d	-2.104194843966225
189	0x3fe4cd93a325c9e0	0.6500948130108632
190	0x3fc14027c94aae7c	0.13477036789605623
191	0xbfe49d4fdfd9baeb	-0.6442031261520617
192	0x3ff7e232b78dc060	1.4927241487567002
193	0x3ff1f3477f87f711	1.1218943578418854
194	0x4000f7edbba96752	2.1210589085648417
195	0x3fea8029067bc41b	0.8281445623998737
196	0xbff11acbad370fa4	-1.0690418974126965
197	0xbffe97cfaa271e9c	-1.9120632788271115
198	0x3ff0a1339377f568	1.0393558273784382
199	0xbff2154b61fd95f0	-1.130198843742047
200	0xbfe024a4881299fa	-0.5044729859990291
201	0x3ff56ff413798eab	1.3398323784576103
202	0x3fe3a6b99e09d786	0.6141021811188103
203	0xbfe930f2ae85955d	-0.7872250946644886
204	0xbfea381b397f023d	-0.8193489191981552
205	0xc005baf990f5bba9	-2.716296322344949
206	0x3fc2a074340ac447	0.14552166501155936
207	0x3fcad894ac96f168	0.20973452021815864
208	0xbff1578ed6314dba	-1.0838764540575156
209	0x40001e198bab54b2	2.014697161832907
210	0x3fc86bb2530997a4	0.19078663878025026
211	0x3f7bb3c0927e5200	0.006763221965134125
212	0x3fd34b236c07f826	0.30146108198084887
213	0x3fd3a3094d7ac6df	0.3068259483944597
214	0x3fdce0eb314ef830	0.4512279492881843
215	0xbff159975cd590e0	-1.084372866281278
216	0xbfe399a6c021fcbc	-0.6125062706559201
217	0xc00349b5b5c832f0	-2.410991115734184
218	0x4007a4970ee06ef4	2.955366245483555
219	0xbfe885fe6a03036e	-0.7663566656629948
220	0xbff2a230af4e5f34	-1.1645972106834508
221	0x3fe21edce34594e8	0.5662674368765268
222	0x400023ce7bf21f58	2.017483681036463
223	0x3fdb375ff2dd5f3e	0.4252548095441745
224	0xbffb07f906547a49	-1.689446472860839
225	0xbffcf92238dafa84	-1.8108236523545722
226	0xbfeaaa65db965a17	-0.8333005226912203
227	0x3fe0b5d4082348f4	0.5221958311979322
228	0xbfd5a827494a8fcc	-0.3383882728323868
229	0x3fed99db9c64e2de	0.9250314764568335
230	0x3fe4cfac7b095f35	0.6503507998522539
231	0xbf9ef2e3d686ef80	-0.03022342678899248
232	0x3fe298caa086c480	0.5811513076097441
233	0xbfd22246a155dc1c	-0.28334203486832776
234	0x3fdd68bd7ded9dc4	0.459517834641215
235	0xbff18572d572aca8	-1.0950802171526366
236	0xbffd99b7b4ea95ca	-1.8500287119908188
237	0xbfe86da8ce1b90c6	-0.7633861566105444
238	0xbffdfee9324f24f9	-1.8747341122819405
239	0xbff102d494ec7bab	-1.063191014989324
240	0x3feca3745c988e54	0.8949529465211961
241	0x3fdb39e08d670707	0.42540754135926345
242	0x40045b31f75f49ca	2.544528896899668
243	0xbfec4ed5a113b880	-0.8846233507190533
244	0x3fd541a8832d619f	0.33213246164589266
245	0xbff47a79400753f0	-1.279900789367499
246	0x3fda2959774b2e78	0.4087737717606852
247	0xbffbcd1c2c6e8cba	-1.7375756965273426
248	0xc0024a7b9d0d7a25	-2.2863685865152257
249	0xbfe275b482f02127	-0.576868301142018
250	0x3fd44a3904d177ba	0.3170301959088381
251	0xbffb5c5e3cbedef3	-1.7100508091806972
252	0x3f7a4ba27fd22000	0.006419787180796277
253	0xbfbb04e350db8910	-0.10554333423673179
254	0xbfc6b6f63b159640	-0.1774585522172618
255	0xbff80520fc2f5c17	-1.501252160165455
